codebase/dqn_row_based/models/with_artifacts/model_cont.pth (torch, 18233 bytes, 6 tensors)

conv.0.weight f4 [32, 6, 3]
0	0xbe3ebb4c	-0.18626136
1	0x3dde6502	0.108591095
2	0x3df35a4a	0.11882456
3	0x3cc1dfe5	0.023666332
4	0xbd054deb	-0.03254501
5	0x3d49b251	0.04924232
6	0xbcaaca87	-0.020848526
7	0xbd9a500c	-0.07534799
8	0xbd2282a7	-0.03967538
9	0xbc27254f	-0.010201766
10	0xbddc40ad	-0.107545234
11	0x3da0985c	0.0784156
12	0xbdd62bb7	-0.10457557
13	0xbdcf03f9	-0.101081796
14	0x3d634618	0.05548677
15	0x3ca40f06	0.020026695
16	0xbd9d8a32	-0.07692374
17	0xbbe7e256	-0.007076542
18	0x3ebf6b92	0.37386757
19	0x3ebb39f0	0.3656764
20	0x3f2a6bfa	0.6657101
21	0xb8cc3bf8	-9.738648e-05
22	0xbd300a3e	-0.042978518
23	0x3e148fb2	0.1450794
24	0xbc904168	-0.017609313
25	0xbd2c68bf	-0.04209208
26	0x3d054070	0.032532156
27	0x3e166884	0.14688307
28	0x3d3099ee	0.04311555
29	0x3c0c826d	0.008576018
30	0x3e93084b	0.28717265
31	0x3e171faf	0.1475818
32	0x3d442168	0.04788342
33	0x3e8875ec	0.26652467
34	0x3ec0b35e	0.37636846
35	0x3e3fbe07	0.18724833
36	0xbeb2b146	-0.34900874
37	0x3d3ce7d4	0.046119526
38	0xbf77647f	-0.9663772
39	0x3c2a7fb6	0.010406425
40	0xbcc02bc4	-0.02345837
41	0x3d86e730	0.06587064
42	0x3cc69393	0.02424029
43	0x3d00fcd7	0.031491127
44	0x3d184181	0.037171844
45	0x3c9e8bd9	0.019353794
46	0xbc9c3008	-0.019065872
47	0x3d494a35	0.049143035
48	0x3e13e981	0.14444543
49	0x3cc0075f	0.023441015
50	0x3da16233	0.07880058
51	0x3e9a643c	0.30154598
52	0x3d07e87e	0.033180706
53	0x3e2d9abb	0.16953556
54	0x3e3d4c8d	0.18486233
55	0xbeac9f40	-0.33715248
56	0x3df4a8fd	0.119462945
57	0x3d19e1e9	0.03756896
58	0x3dacb680	0.084332466
59	0x3ddf488b	0.10902508
60	0x3e3f5cd8	0.18687761
61	0x3e0e348b	0.13887231
62	0xbe744d9b	-0.23857729
63	0x3e40ff5e	0.18847415
64	0x3dfcd794	0.12345806
65	0xbe8d1689	-0.27556255
66	0x3e30aed2	0.17254189
67	0xbb0e3b18	-0.0021702703
68	0xbe80bf76	-0.25146073
69	0xbc4f5f02	-0.012656929
70	0xbeeaa4fe	-0.45829004
71	0xbe3a7f4b	-0.18212621
72	0xbd002e9d	-0.031294454
73	0xc000d9ef	-2.0133016
74	0x3f53b1cb	0.82693166
75	0x3cb2f179	0.021843659
76	0x3d1d1b12	0.038355894
77	0x3cc8d1cf	0.024514107
78	0xbcc546cf	-0.024081616
79	0x3d28a958	0.041177124
80	0x3d5420ba	0.051789023
81	0xbd506a13	-0.05088241
82	0x3db495d7	0.08817642
83	0xbdf077ca	-0.11741598
84	0xbcab4d99	-0.020911025
85	0x3d818b7a	0.06325431
86	0xbe302d24	-0.1720472
87	0xbd4f78a9	-0.05065218
88	0xbd18336c	-0.037158415
89	0x3d9c4968	0.07631189
90	0xbe88c87c	-0.26715457
91	0x3d0d4d19	0.034497354
92	0x3d5dcc2d	0.054149795
93	0xbc300cc5	-0.010745232
94	0xbe2c5e56	-0.16832861
95	0x3d5e2814	0.05423744
96	0x3d27b9b3	0.04094858
97	0xbda39cbd	-0.0798888
98	0x3e40eb80	0.18839836
99	0xbca6227b	-0.020280113
100	0x3cce9ca7	0.025221182
101	0x3dad4f42	0.08462383
102	0x3e60b242	0.21943
103	0xbe4302a2	-0.19043973
104	0x3d28d994	0.041223124
105	0x3e0e65f1	0.13906075
106	0x3d900d2c	0.07033762
107	0x3e6b941a	0.23005715
108	0x3f299f02	0.6625825
109	0xbe9cc6f4	-0.3062054
110	0x3f06280c	0.52404857
111	0x3d99f729	0.07517845
112	0x3ce400e0	0.027832448
113	0x3d952343	0.07282116
114	0x3cec363f	0.02883446
115	0x3d3e3c5f	0.046444293
116	0x3de80c6a	0.11330493
117	0xbe1631f1	-0.14667489
118	0x3d96af98	0.073577106
119	0x3e4af21a	0.19818917
120	0xbe3bdedd	-0.18346734
121	0x3d076915	0.0330592
122	0x3e7c63d3	0.24647455
123	0xbe01f050	-0.12689328
124	0x3e902b19	0.2815788
125	0x3c87d04e	0.01657882
126	0x3f2252b3	0.6340744
127	0xbd24f670	-0.040274084
128	0x3f64367c	0.89145637
129	0x3ca010a0	0.019539177
130	0x3b61a21b	0.0034428898
131	0x3c83e760	0.01610154
132	0xbb467906	-0.0030284538
133	0xbb985655	-0.0046489635
134	0xbc633820	-0.013868362
135	0x3bdd1f25	0.0067480975
136	0xbd1831f5	-0.037157018
137	0xbc88870f	-0.016665963
138	0xbcd6bfcd	-0.026214505
139	0x3cf77914	0.030209102
140	0x3e03e1c4	0.12879092
141	0xbd866632	-0.06562461
142	0x3c969f39	0.01838647
143	0x3e89c37a	0.2690695
144	0x3fbef511	1.4918538
145	0x3f47c104	0.78028893
146	0xbffe05db	-1.9845537
147	0xbd1b6959	-0.037942264
148	0x3ca026cb	0.019549748
149	0x3c4a6333	0.0123527525
150	0x3d53b46e	0.051685743
151	0x3c46caed	0.012133342
152	0xbd43e5b8	-0.0478265
153	0x3d4c331e	0.049853437
154	0xbe01c055	-0.12671025
155	0x3c34c174	0.011032451
156	0x3d23b6c7	0.039969232
157	0xbda9ceb9	-0.08291382
158	0x3ccc4ef8	0.024939999
159	0x3d3829d2	0.044961758
160	0xbca99476	-0.020700675
161	0xbe2726f7	-0.16323458
162	0x3e610bfd	0.2197723
163	0x3ef0a147	0.46998045
164	0x3f1bc68a	0.6084982
165	0xbba79c61	-0.0051150774
166	0x3c4e3215	0.012585183
167	0x3d1db473	0.038502168
168	0xbd873bbd	-0.06603191
169	0xbc4e2dcf	-0.012584164
170	0x3c6e9108	0.014560945
171	0xbbf7a3e1	-0.0075573777
172	0xbe9b5826	-0.3034069
173	0x3be49bf6	0.0069766
174	0xbe59d488	-0.2127248
175	0xbdacfabb	-0.084462605
176	0xbc82973b	-0.015941253
177	0xbf432b44	-0.76237893
178	0xbdc9e399	-0.09857864
179	0x3c609bbb	0.013709004
180	0x3f8b714c	1.089395
181	0xbeb3b7b2	-0.35101086
182	0x3efbab45	0.49154106
183	0x3d3b0afd	0.045664776
184	0xbb8c4065	-0.0042801374
185	0xbbfec4f8	-0.0077749453
186	0x3cad05f6	0.021121006
187	0x3bba9546	0.0056940643
188	0x3bc989be	0.0061504534
189	0x3d216ff9	0.039413426
190	0x3c090897	0.008363864
191	0xbda78889	-0.08180339
192	0x3e0f4c64	0.13993984
193	0x3c78d745	0.015188043
194	0xbe1b40c3	-0.15161423
195	0x3e885d35	0.2663361
196	0xbc4a594b	-0.012350391
197	0xbd39c520	-0.04535401
198	0x3e71643e	0.23573396
199	0xbde4a634	-0.11164513
200	0x3ef5fc42	0.4804402
201	0xbcb74544	-0.022371896
202	0x3d2798ed	0.040917326
203	0xbdf60e63	-0.12014463
204	0xbdcc749c	-0.09983179
205	0xbc1c0f0d	-0.009525073
206	0xbda4b426	-0.08042173
207	0xbd7d7590	-0.061879694
208	0xbd3326a1	-0.04373801
209	0xbd8d900e	-0.06912242
210	0xbdf6bc25	-0.120476045
211	0xbc087da7	-0.008330739
212	0x3d2d0ff8	0.042251557
213	0xbc6ccae4	-0.01445267
214	0x3d6b2ef3	0.05741782
215	0x3c85a881	0.0163157
216	0x3f662890	0.89905643
217	0xbf1046c0	-0.56357956
218	0x3ef88a64	0.48543084
219	0x3d5393be	0.05165457
220	0xbc9b3ef3	-0.018950915
221	0x3bd0be5c	0.006370349
222	0x3cf76883	0.030201202
223	0x3bb8823b	0.005630759
224	0xbcb64ca4	-0.022253342
225	0x3c81dcfd	0.015852446
226	0x3dec5312	0.11539282
227	0xbca1dd65	-0.01975889
228	0x3d129d18	0.035794348
229	0x3df23afc	0.118276566
230	0xbcc05df4	-0.0234823
231	0x3d943828	0.072372735
232	0x3d6cd824	0.057823315
233	0x3d4ff141	0.050767187
234	0x3e6580fd	0.22412486
235	0xbf2e4b04	-0.68083215
236	0xbead5276	-0.33851975
237	0xbc4b1a46	-0.012396401
238	0xbd90acb1	-0.07064188
239	0xbd1f69fa	-0.038919427
240	0xbcb35eec	-0.021895848
241	0xbdc786f8	-0.0974254
242	0xbcc4f28f	-0.024041442
243	0xbd351a7c	-0.04421471
244	0xbe0ee3da	-0.13954106
245	0x3d73df54	0.059539154
246	0xbd2815c3	-0.04103638
247	0xbd46c9ed	-0.048532415
248	0x3d8c0434	0.06836739
249	0xbcbda8bd	-0.02315175
250	0x3db09247	0.0862165
251	0x3e798560	0.24367285
252	0x3ef9804f	0.48730704
253	0xbd1b38fd	-0.037896145
254	0xbe5184dd	-0.2046084
255	0xbdfa502c	-0.12222323

conv.0.bias f4 [32]
0	0x3f13b9f9	0.57705647
1	0xbdbd3196	-0.092379734
2	0x3f0f7da0	0.56051064
3	0x3e5c11eb	0.2149121
4	0x3ea1e746	0.3162176
5	0x3e8ad3e9	0.271148
6	0x3d4f8299	0.050661657
7	0xbf117143	-0.5681345
8	0xbe807472	-0.2508884
9	0x3d5e6431	0.05429477
10	0x3e237609	0.15962996
11	0x3f03592b	0.51307935
12	0x3e4eb897	0.20187603
13	0x3eec74e1	0.46182922
14	0x3e77e444	0.2420817
15	0x3c57a109	0.013160952
16	0xbb6459bf	-0.0034843532
17	0x3f68195f	0.90663713
18	0x3e438bf6	0.1909636
19	0x39b6592e	0.0003478019
20	0x3c6d332b	0.014477531
21	0x3e9930f1	0.29920152
22	0x3ee5df73	0.4489704
23	0x3f117e8d	0.56833726
24	0xbe9d425d	-0.30714694
25	0x3dff1e07	0.12456899
26	0x3ec6cdbd	0.3882884
27	0x3d5917d7	0.05300125
28	0x3f1026e7	0.5630936
29	0x3f091452	0.5354663
30	0x3da483a4	0.08032921
31	0x3ecffd95	0.40623155

conv.2.weight f4 [32, 32, 3]
0	0x3d3023af	0.04300278
1	0xbccffee5	-0.025390098
2	0xbed3c849	-0.41363743
3	0x3cd1f0bd	0.025627488
4	0x3dbbe36c	0.09174237
5	0x3e42af41	0.19012167
6	0xbe1f6488	-0.15565693
7	0xbe163f9b	-0.14672701
8	0xbd7bd146	-0.061478876
9	0x3d613a31	0.054987136
10	0xbee5f295	-0.44911638
11	0xbd4f9ba9	-0.05068556
12	0x3eff94a0	0.4991808
13	0xbea07af7	-0.31343815
14	0xbe295e36	-0.16539845
15	0x3da6bcec	0.08141503
16	0x3e0d892b	0.13821857
17	0x3cab1022	0.020881716
18	0x3df6b076	0.12045376
19	0xbc321eac	-0.010871571
20	0x3e47d36b	0.19514243
21	0x3d852a39	0.06502194
22	0xbe69b398	-0.22822416
23	0x3de82189	0.11334521
24	0xbfca9d85	-1.5829321
25	0x3e6c640c	0.2308504
26	0x3f3d379b	0.7391297
27	0x3c71de0c	0.014762413
28	0xbcdfec8f	-0.02733448
29	0x3e6cf621	0.23140766
30	0x3d9c4940	0.07631159
31	0xbe0696f3	-0.1314352
32	0x3e1a59f8	0.15073383
33	0x3e58e157	0.2117971
34	0xbd76444e	-0.060123734
35	0x3dc61190	0.096713185
36	0x3e99e0d8	0.30054355
37	0xbe1b9dcd	-0.15196915
38	0x3f102f36	0.5632204
39	0xbee9ddef	-0.45677134
40	0xbeb58f16	-0.35460728
41	0xbe80ea7f	-0.25178906
42	0xbdb1477e	-0.08656214
43	0xbdc80d80	-0.097682
44	0x3ddbaf18	0.10726756
45	0x3e0769ac	0.13223904
46	0x3ea30ab5	0.31844106
47	0x3f32737d	0.6970747
48	0x3e086c89	0.13322653
49	0xbf7c0142	-0.9843942
50	0xc0132b10	-2.2995033
51	0xbde3acf6	-0.11116974
52	0xbefcbcb4	-0.4936272
53	0xbc210827	-0.009828604
54	0x3e09e09d	0.1346459
55	0xbe06ec2d	-0.13176031
56	0x3e070f23	0.13189368
57	0xbe739335	-0.23786624
58	0xbf3a0c33	-0.72674865
59	0xbd38c0af	-0.045105632
60	0xbdc6479a	-0.09681626
61	0x3e1bcd39	0.15215005
62	0x3e0ccee6	0.137508
63	0x3d900441	0.07032061
64	0x3e4f60e9	0.20251812
65	0x3d99adef	0.07503878
66	0xbd006ecf	-0.031355675
67	0x3e7dd498	0.2478813
68	0x3d698242	0.05700899
69	0xbc97ceac	-0.018531166
70	0xbe3170da	-0.17328206
71	0x3c08b1b6	0.008343151
72	0x3dc7960e	0.097454175
73	0x3df93c28	0.12169677
74	0xbd11a475	-0.03555723
75	0x3e843c6c	0.25827348
76	0xbe9ef78c	-0.31048238
77	0xbf133885	-0.57508117
78	0xbf8b48fe	-1.088165
79	0x3dab7fee	0.0837401
80	0xc064a1a0	-3.5723648
81	0x3e8f08af	0.27936313
82	0x3e7be4a7	0.24598943
83	0xbdb801a8	-0.08984691
84	0xbea8b0a7	-0.32947275
85	0xbe4c8bad	-0.19975157
86	0xbbc317f5	-0.0059537836
87	0xbe150b2a	-0.1455504
88	0x3e4eaef8	0.20183933
89	0xbd52e2e4	-0.05148591
90	0xbe34bc95	-0.17650063
91	0x3e1b272a	0.15151659
92	0x3e68ab9e	0.22721717
93	0xbe3c1356	-0.18366751
94	0xbe7f17cd	-0.24911423
95	0x3d3ca5f5	0.046056706
96	0xbda10225	-0.07861737
97	0x3d942df2	0.07235326
98	0x3cf30eec	0.029670201
99	0xbd5ddfff	-0.054168697
100	0xbdd104f7	-0.10206025
101	0x3d02260e	0.031774573
102	0xbdc76e1a	-0.09737797
103	0x3c227d14	0.009917516
104	0xbd982b5b	-0.074301444
105	0x3bca7bdb	0.0061793155
106	0x3c10c100	0.008835077
107	0x3d200664	0.039068595
108	0xbd2b505b	-0.04182468
109	0xbc3a1637	-0.0113578355
110	0xbd85347d	-0.06504152
111	0xbb4ce5a7	-0.0031264813
112	0xbba4bf97	-0.005027722
113	0x3d9eb66c	0.07749638
114	0x3db0bedd	0.08630154
115	0xbcfdc2cb	-0.030976674
116	0xbd63928b	-0.055559676
117	0xbcd6af4b	-0.026206633
118	0xbda53a7f	-0.08067798
119	0xbd793f31	-0.06085128
120	0xbd9c61a5	-0.07635812
121	0xbd9fc5dd	-0.07801411
122	0x3d8b3881	0.06797887
123	0x3c83e9e6	0.016102742
124	0xbd5c2984	-0.05375053
125	0xbde44dfd	-0.111476876
126	0x3cda8c43	0.02667821
127	0xbdef13a8	-0.11673671
128	0xbdbabcab	-0.09118017
129	0xbde3e428	-0.11127502
130	0x3ca6e04e	0.020370629
131	0x3c15b1b3	0.009136605
132	0xbc321767	-0.010869837
133	0xbdb56139	-0.088564344
134	0xbdb01e6a	-0.08599551
135	0xbdc88a43	-0.09791996
136	0x3b263231	0.0025359506
137	0x3a31fa41	0.0006789305
138	0xbda77c82	-0.08178045
139	0xbc71b430	-0.014752433
140	0xbdbb1a65	-0.09135894
141	0x3d91ed86	0.07125382
142	0xbd56a9ac	-0.052407905
143	0x3cdbb97c	0.026821844
144	0xbdcb9109	-0.09939773
145	0x3cb169df	0.021656929
146	0xbdde6a11	-0.10860074
147	0xbcb47bc6	-0.022031676
148	0x3c5f68f8	0.013635866
149	0xbc95f8a4	-0.018307038
150	0x3d44c0b5	0.048035342
151	0x3d8c7532	0.06858291
152	0xbdaf0029	-0.085449524
153	0x3d81fdb0	0.06347215
154	0xbda6efe9	-0.08151228
155	0xbd9cb6a5	-0.07652024
156	0xbd005adf	-0.03133666
157	0x3da614dc	0.08109447
158	0x3d7a2b6a	0.06107656
159	0xbc9fd581	-0.019510986
160	0xbd8b8eb5	-0.068143286
161	0xbd54aa59	-0.05192027
162	0xbd51b187	-0.051194694
163	0x3d39cba9	0.04536024
164	0xbc4bc20d	-0.012436402
165	0xbd0b7bdf	-0.03405368
166	0xbdbef252	-0.09323563
167	0xbb35865e	-0.0027698497
168	0x3d561b85	0.05227234
169	0x3d65bea2	0.056090005
170	0xbb12a97a	-0.0022378848
171	0x3dab0476	0.0835046
172	0xbd10738d	-0.035266448
173	0x3d8cc680	0.06873798
174	0x3d32ebd8	0.04368195
175	0x3d80bb06	0.06285672
176	0x3c7098a6	0.014684832
177	0xbdd603fa	-0.10449977
178	0x3d177f50	0.03698665
179	0xbdaff9f8	-0.085926
180	0xbd9fd27c	-0.078038186
181	0xbda9c515	-0.082895435
182	0xbd7044e9	-0.058659468
183	0xbdd18b34	-0.10231629
184	0x3d9d3588	0.07676226
185	0xbd5b8fb3	-0.05360384
186	0x3d624e1c	0.055250272
187	0x3da36c75	0.07979671
188	0x3d584fc6	0.052810453
189	0x3d84b6b1	0.06480158
190	0xbc19dbe5	-0.009390806
191	0xbde53d8b	-0.11193379
192	0x3df3abd8	0.11898011
193	0xbbd2727a	-0.006422338
194	0x3e3cdc52	0.1844342
195	0x3d5d1447	0.053974416
196	0x3e1583af	0.14601015
197	0x3e4d4e03	0.2004929
198	0x3d472a29	0.04862419
199	0xbdced7ac	-0.1009973
200	0xbe92f07a	-0.28699094
201	0xbdd46854	-0.103714615
202	0xbdc54a43	-0.09633305
203	0xbd4b081c	-0.04956828
204	0xbc4997b5	-0.012304236
205	0xbd5a5915	-0.05330761
206	0x3eae4b54	0.34041846
207	0x3bf13c48	0.0073619224
208	0x3d2ae1e5	0.041719336
209	0x3e06fc94	0.13182288
210	0xbe1cb755	-0.1530431
211	0x3e084a8d	0.13309689
212	0x3db092e6	0.08621769
213	0xbe7766b7	-0.24160276
214	0x3bb9a6da	0.005665642
215	0xbeebbd5d	-0.4604291
216	0x3e7732d8	0.24140489
217	0x3e831aa7	0.25606272
218	0xbdfb5512	-0.12272085
219	0xbe4b6aa5	-0.198649
220	0x3ce17032	0.02751932
221	0x3e40f100	0.18841934
222	0x3cf9340b	0.030420324
223	0x3daa5f6d	0.08318982
224	0xbc40732e	-0.011746211
225	0xbd284d40	-0.041089296
226	0x3e350660	0.17678213
227	0x3e17d106	0.1482583
228	0xbe1dc810	-0.15408349
229	0x3dab02e7	0.08350163
230	0xbe9e6bf7	-0.30941746
231	0xbe186a6e	-0.1488435
232	0xbaa4d7be	-0.0012576503
233	0x3e6cb29b	0.23115008
234	0xbd80d24c	-0.06290111
235	0x3db23cd8	0.08703011
236	0x3da42528	0.080148995
237	0xbe205ed4	-0.15661174
238	0xbd3333d5	-0.043750603
239	0xbf30e5a1	-0.69100386
240	0xbe8ac094	-0.2710005
241	0x3e2d853f	0.1694536
242	0x3e9bde27	0.30442926
243	0xbe83b14c	-0.25721204
244	0x3e1f1cd5	0.15538342
245	0xbe07c1d7	-0.13257538
246	0x3e31af42	0.17352012
247	0x3e375c10	0.17906213
248	0x3d884f7c	0.066557854
249	0xbd1a1c01	-0.037624363
250	0x3d916a0e	0.071003065
251	0x3e5d85bb	0.21633045
252	0x3d896371	0.0670842
253	0x3dbaf673	0.09129038
254	0xbd3a8325	-0.045535225
255	0x3d8960cb	0.06707915

conv.2.bias f4 [32]
0	0xbca8434c	-0.020539902
1	0xbd0f8c7f	-0.035046097
2	0xbcb2734e	-0.021783497
3	0xbeccad6b	-0.39976057
4	0xbe7ca8a8	-0.24673712
5	0x3d3e2765	0.04642429
6	0x3e992d22	0.29917246
7	0x3d490d0a	0.0490847
8	0x3dc4dc2f	0.09612309
9	0x3bd3538c	0.0064491685
10	0x3db85d6b	0.09002193
11	0x3c71c2bf	0.014755904
12	0x3e20abb2	0.15690497
13	0x3e2ecfb3	0.17071418
14	0x3e1f6fc5	0.1556998
15	0x3ea05eb8	0.31322265
16	0xbc1fd8aa	-0.009756247
17	0x3e62e091	0.22155978
18	0x3d54a645	0.05191638
19	0x3de2d9be	0.11076687
20	0x3e5463fb	0.20741265
21	0x3e85ba2d	0.26118603
22	0xbd14e6d1	-0.036352936
23	0x3dd034ae	0.10166298
24	0x3e07273c	0.1319856
25	0x3e4b8a34	0.19876939
26	0x3d248dd7	0.04017433
27	0x3e8f02b3	0.27931747
28	0x3d417f65	0.047240634
29	0xbeec1938	-0.4611299
30	0xbd8eae45	-0.06966833
31	0xbc3120a3	-0.010811004

conv.4.weight f4 [2, 32, 1]
0	0x3fa0c6d3	1.2560676
1	0x3e05a1bc	0.13049978
2	0xbe942832	-0.28936917
3	0x3ff2b319	1.8960906
4	0x3f6ac836	0.9171175
5	0x3cf8e0a6	0.030380558
6	0x3dbc765b	0.09202262
7	0xbf891fdf	-1.0712851
8	0x3e4c59a4	0.1995607
9	0xbc86612c	-0.016403757
10	0xbe6fe7df	-0.23428296
11	0xbe94aee7	-0.2903969
12	0xbe7a8b70	-0.24467254
13	0xbdb6c8ea	-0.0892504
14	0x3e164a19	0.14676704
15	0x3d1a3e03	0.037656795
16	0x3e1db79f	0.15402077
17	0x3d997143	0.07492306
18	0xbe16895e	-0.14700839
19	0xbe5e783c	-0.21725553
20	0x3e3601e6	0.17774162
21	0x3ee973be	0.45596117
22	0xbf8c5fc0	-1.096672
23	0x3ec97086	0.3934366
24	0xbea599db	-0.32343945
25	0xbe864796	-0.2622649
26	0xbe21b148	-0.15790284
27	0x3e1db112	0.15399578
28	0xbc24122d	-0.010014099
29	0x4016e8fc	2.3579702
30	0xbd81d4f9	-0.063394494
31	0x3cc88cd8	0.024481222
32	0xbe403726	-0.18771037
33	0x3e023212	0.12714413
34	0xbc2f7c88	-0.010710843
35	0x3facee95	1.351031
36	0x3eed8cf4	0.463966
37	0x3ca03f31	0.019561382
38	0xbe7b13bb	-0.24519245
39	0x3d145887	0.03621724
40	0xbe7f97ce	-0.24960253
41	0x3e17cff5	0.14825423
42	0xbe100f07	-0.14068232
43	0xbda1ec4d	-0.07906399
44	0xbdcfa29e	-0.10138439
45	0xbe8ff94e	-0.28119892
46	0xbe65d99f	-0.22446297
47	0xbf113d5e	-0.56734264
48	0x3beb3c4a	0.007178818
49	0xbea780a6	-0.32715338
50	0xbd459ea1	-0.048246983
51	0xbe16124d	-0.14655419
52	0xbe873dd2	-0.26414353
53	0x3db8587f	0.09001254
54	0xbcfa0dcd	-0.030524159
55	0x3e0aefcb	0.13568036
56	0xbd92f00d	-0.07174692
57	0xbe585eb5	-0.21129878
58	0xbdd26c0d	-0.10274515
59	0xbe826141	-0.25464824
60	0x3e0d1ca7	0.13780461
61	0xbe95688e	-0.2918133
62	0x3e1056b6	0.14095578
63	0x3dd4f010	0.10397351

conv.4.bias f4 [2]
0	0xbe02ccd6	-0.12773451
1	0xbd5a32b0	-0.053270996
