codebase/dqn_row_based/models/model_cont.pth (torch, 18233 bytes, 6 tensors)

conv.0.weight f4 [32, 6, 3]
-0.17996863 0.087490834 0.012220052 -0.017302608 -0.02181453 0.13935883 -0.09463851 -0.0381199
-0.030884575 0.041541897 -0.072505035 0.10024549 -0.035564363 -0.062283807 0.0498891 -0.017619325
-0.049058765 0.15439345 0.43398446 0.5285492 0.7881652 -0.012982923 0.05203408 0.20117027
-0.05776703 0.04973324 -0.01631277 0.15737756 0.18600671 -0.100961104 0.16900262 0.17319119
0.061429825 0.09394301 0.27905485 0.02262012 -0.3978846 -0.19243087 -0.54285043 0.02208375
-0.040090866 0.04411387 0.042512238 0.045202665 0.047824953 0.08569037 -0.019319544 0.05747501
0.1330144 0.08985209 0.11458091 0.104191855 0.10560988 0.10807271 0.92246974 -0.47181633
0.45572573 0.034817714 0.07237037 -0.012714195 -0.00712907 0.06325728 0.018120809 -0.004890745
0.07030464 0.0034482437 -0.031229205 0.08958356 -0.0532828 0.11976895 0.18957976 0.14299293
-0.02231223 -0.7392349 0.05160913 0.026140945 0.047101915 -0.025802419 -0.0077839075 -0.018077834
-0.008740517 -0.013723002 -0.03316519 0.0015929186 -0.043251988 -0.09812663 0.039816625 0.32919583
0.09797621 0.08815608 -0.21772452 0.018489245 0.13146949 0.10165219 -0.03800426 0.09442956
0.17672503 0.12280424 0.16261859 -0.0063653653 0.16381195 -0.10811043 0.06134282 -0.06429656
0.014120331 -0.04745249 0.009119013 0.22257076 0.3867898 -0.08702056 0.6819052 -0.0721927
0.103894174 0.02060179 0.0064240955 0.009991274 -0.049283355 0.016068019 0.10225113 0.13086084
-0.051844854 0.095471404 0.20258427 -0.037038445 0.19875386 -0.037039705 0.6812719 0.65419626
0.42595726 0.15219782 -0.0127867265 0.10169784 0.12277244 -0.00565787 0.04251473 0.019844888
0.14490269 0.11139194 0.1159831 0.01034515 0.12588947 0.11672613 0.13710506 0.3478558
1.4365467 0.81741214 -0.9455853 0.0012861446 -0.0015681003 0.0026287031 -0.0035359515 -0.006467627
-0.0057283565 -0.00037145382 -0.003039544 0.0016198149 0.003125737 -0.020502089 0.007792782 0.016432703
-0.020878306 0.010827003 -2.813937 -0.0033572624 -0.16194363 0.012071728 -0.009158573 -0.0041140346
0.0012227151 0.02689585 0.00029842422 -0.022361625 0.029268129 0.0029418762 -0.048573006 0.043981295
0.009687051 -0.054800823 0.05162644 0.0240943 -0.22826858 -0.0059869895 0.8857686 -0.014558119
-0.024979597 -0.0074358745 0.036558885 0.08422524 0.12506652 0.055779725 0.023044365 -0.068073235
0.044060227 0.24543469 -0.082872905 0.04795426 0.25370118 -0.14824517 0.29872632 0.35682425
0.5257199 -0.058326587 0.046142537 -0.11890828 -0.028247619 -0.026050929 0.0064075724 -0.054697976
-0.023020599 0.019033916 -0.058863603 0.010166166 0.06049304 -0.1374842 0.026637243 -0.007370752
0.7534366 -0.7232775 0.19559422 0.019159183 0.004347851 0.011221576 0.035912286 0.016422316
0.015292953 0.026356703 0.014512009 0.016662715 0.034085862 -0.007750857 0.025834875 0.012085632
-0.00906304 0.042127654 -0.22991526 -0.7719766 -0.12315213 -0.033973455 -0.005017713 -0.015706731
-0.028803315 -0.03141022 -0.04031785 -0.05334005 0.019171156 -0.017655725 -0.113276936 0.031163363
0.031274024 -0.007223658 0.06274203 -0.0436896 0.43339086 -0.18613896 -0.06256518 -0.018480608
00000000: b249 38be 652e b33d 9d36 483c 33be 8dbc
00000010: 63b4 b2bc 15b4 0e3e d6d1 c1bd 9d23 1cbd
00000020: a601 fdbc d627 2a3d 857d 94bd 824d cd3d
00000030: f0ab 11bd 4e1d 7fbd 8358 4c3d 6756 90bc
00000040: d8f1 48bd 5119 1e3e 3633 de3e 004f 073f
00000050: 32c5 493f 53b6 54bc b021 553d 94ff 4d3e
00000060: 1f9d 6cbd 15b5 4b3d 5ca2 85bc 9527 213e
00000070: 8b78 3e3e b2c4 cebd 060f 2d3e 0859 313e
00000080: d79d 7b3d 3165 c03d 47e0 8e3e d44d b93c
00000090: 88b7 cbbe 990c 45be 3ff8 0abf fbe8 b43c
000000a0: 5236 24bd bfb0 343d 5021 2e3d 6e26 393d
000000b0: 19e4 433d 6f7e af3d 0544 9ebc eb6a 6b3d
000000c0: ed34 083e 5f04 b83d 65a9 ea3d 8a62 d53d
000000d0: fe49 d83d 3a55 dd3d fa26 6c3f e991 f1be
000000e0: e254 e93e 059d 0e3d eb36 943d 334f 50bc
000000f0: f99a e9bb 088d 813d 1772 943c 8b42 a0bb
00000100: e1fb 8f3d eefb 613b 64d4 ffbc 9677 b73d
00000110: 113f 5abd 6c49 f53d 3221 423e bd6c 123e
00000120: 23c8 b6bc 803e 3dbf 1864 533d 8925 d63c
00000130: f0ed 403d 985f d3bc 2610 ffbb f717 94bc
00000140: 6334 0fbc 71d6 60bc 39d8 07bd 7bc9 d03a
00000150: ff28 31bd 9df6 c8bd c216 233d 5b8c a83e
00000160: c0a7 c83d 2d8b b43d 2df3 5ebe c276 973c
00000170: f09f 063e 062f d03d 5baa 1bbd 4964 c13d
00000180: 68f7 343e ca80 fb3d 7d85 263e 8e94 d0bb
00000190: 52be 273e 0069 ddbd 9c42 7b3d eaad 83bd
000001a0: f658 673c 8b5d 42bd ea67 153c 97e9 633e
000001b0: 5009 c63e d637 b2bd 5791 2e3f c4d9 93bd
000001c0: 78c6 d43d 16c5 a83c 3881 d23b 71b2 233c
000001d0: 58dd 49bd 14a1 833c 0a69 d13d 6200 063e
000001e0: 455b 54bd 8386 c33d 4072 4f3e a0b5 17bd
000001f0: 2286 4b3e f2b6 17bd d667 2e3f 6879 273f
00000200: 1217 da3e bfd9 1b3e 6b7f 51bc f546 d03d
00000210: 1e70 fb3d a765 b9bb ed23 2e3d bf91 a23c
00000220: 5f61 143e 7521 e43d 8c88 ed3d b47e 293c
00000230: 2be9 003e 1c0e ef3d 4565 0c3e 281a b23e
00000240: c3e0 b73f ec41 513f e111 72bf da93 a83a
00000250: b788 cdba 5246 2c3b 6cbb 67bb 63ee d3bb
00000260: f0b4 bbbb b0bf c2b9 1633 47bb f84f d43a
00000270: 2ad9 4c3b fff3 a7bc 985a ff3b e09d 863c
00000280: fb08 abbc be63 313c 8b17 34c0 8405 5cbb
00000290: 8dd4 25be 7fc8 453c d70d 16bc 06cf 86bb
000002a0: 8343 a03a b054 dc3c d275 9c39 ba2f b7bc
000002b0: b7c3 ef3c 7ecc 403b 7df4 46bd bb25 343d
000002c0: 70b6 1e3c d476 60bd 3f76 533d 6961 c53c
000002d0: 3dbf 69be 822e c4bb bbc1 623f 2d85 6ebc
000002e0: 03a2 ccbc a3a8 f3bb c5be 153d 487e ac3d
000002f0: 7011 003e 4879 643d 89c7 bc3c fb69 8bbd
00000300: 7f78 343d 3b53 7b3e 45b9 a9bd b06b 443d
00000310: 1fe5 813e 95cd 17be a8f2 983e abb1 b63e
00000320: 9495 063f dce7 6ebd f5ff 3c3d 2f86 f3bd
00000330: 8d67 e7bc c268 d5bc 9df6 d13b fc0a 60bd
00000340: b295 bcbc 04ed 9b3c f61a 71bd fe8f 263c
00000350: 8dc7 773d a8c8 0cbe 5936 da3c 5986 f1bb
00000360: 39e1 403f b728 39bf da49 483e b8f3 9c3c
00000370: 6b78 8e3b b3da 373c c318 133d 1888 863c
00000380: 4b8f 7a3c 03ea d73c c7c3 6d3c 3f80 883c
00000390: 9e9d 0b3d e7fa fdbb a9a3 d33c d102 463c
000003a0: 257d 14bc 0c8e 2c3d e86e 6bbe 42a0 45bf
000003b0: 2f37 fcbd c027 0bbd a16b a4bb 67ab 80bc
000003c0: eef4 ebbc 01a8 00bd 5424 25bd 197b 5abd
000003d0: d40c 9d3c bda2 90bc bdfd e7bd 4f4a ff3c
000003e0: 3119 003d 6fb4 ecbb e57e 803d def3 32bd
000003f0: 68e5 dd3e 369b 3ebe 2c22 80bd a564 97bc

conv.0.bias f4 [32]
0.5017223 0.00042808877 0.19315061 0.23459075 -0.06009633 0.27530134 0.041374277 -0.059729524
-0.17294744 0.32819304 0.33052212 0.4504313 0.30281335 0.42202383 0.23288886 0.35636202
-0.2123492 0.50339395 0.25407404 0.20832382 0.15212257 0.3526888 0.33278105 0.53743345
-0.11458391 -0.06430403 0.45614216 0.20896472 0.53401196 0.49868873 0.16065736 0.41339478
00000000: df70 003f 1a71 e039 46c9 453e 8f38 703e
00000010: 9227 76bd 4cf4 8c3e 1378 293d f2a6 74bd
00000020: 2219 31be eb08 a83e 323a a93e ee9e e63e
00000030: 5a0a 9b3e 8213 d83e 6b7a 6e3e 1575 b63e
00000040: 1272 59be 6dde 003f fe15 823e d752 553e
00000050: 05c6 1b3e a093 b43e 4762 aa3e 3d95 093f
00000060: f8aa eabd d5b1 83bd 778b e93e d9fa 553e
00000070: 02b5 083f 2154 ff3e 5d83 243e 7ba8 d33e

conv.2.weight f4 [32, 32, 3]
0.018488847 -0.24871242 -0.22545815 -0.04700769 0.04853267 0.11190584 0.0045376653 0.030277193
0.02177645 -0.15001233 0.105143785 -0.06891389 0.024844391 -0.080194294 0.11733157 -0.086842835
-0.14354259 -0.029734742 -0.100422725 0.12738475 0.01005772 0.16727917 0.15263624 0.14180295
0.024429588 0.4433889 0.22424406 -0.21617278 0.29029322 0.5530398 -0.113428585 0.21594188
0.06432347 0.030974083 -0.06473803 0.029710948 0.12882525 0.5323682 0.2852671 0.09512089
-0.5602934 -0.011607934 -0.10943803 0.037884135 -0.108922385 -0.080160394 0.552072 -0.4593204
-0.10013047 0.25410596 0.017971529 0.08056573 -0.9492795 0.1524324 -0.11591391 0.1563687
-0.12563221 0.017371386 0.46706074 -0.1782825 0.025101446 0.0873341 -0.08479879 -0.17096303
0.11737899 -0.034564216 -0.06711969 -0.12534696 0.03685141 -0.04210157 -0.17826086 -0.062048107
0.14883733 0.1778211 0.25001347 0.18179865 -0.15956861 0.08950114 0.47258046 -1.410211
0.42158955 0.089359336 0.3914863 0.037563108 -0.17168827 -0.19100487 -0.14683068 -0.02695833
-0.013302087 -0.13466816 -0.056659207 0.1468112 0.053044934 -0.1254087 -0.090651326 -0.1601461
-0.30232322 -0.06327229 -0.6176948 0.039637767 0.05432518 0.09937978 -0.20799613 0.22771329
-0.06973859 0.008202364 -0.48872292 0.13396408 0.17242107 -0.2913545 0.21709543 0.006893158
-0.09228121 -0.16327345 0.22517897 0.010275595 -0.0035625433 0.07046034 0.087995954 0.011049109
-0.07444235 0.30191597 0.37960333 -0.08298036 -0.16064775 -0.085172996 0.2996335 -0.21097094
-0.3927587 -0.07550104 0.14550072 -0.036403432 0.2244732 -0.2674047 0.393053 -0.1477789
-0.42221856 -0.13539414 -0.24847034 -0.14075403 -0.055769242 0.11696343 -0.024937104 -0.42490238
0.29364824 -0.25529727 -0.39275897 0.052685436 -0.3656145 -0.1723545 -0.27347794 -0.2058754
-0.012520202 -0.0548545 -0.20568116 0.08381052 -0.13839152 0.17416556 0.1653842 -0.03134734
-0.34831193 -0.37146902 -0.2803457 -0.009010989 -0.36180562 -0.34738266 -0.5618368 -0.32835174
0.58110696 0.12909983 -0.050325274 0.44723198 -0.40894815 0.48065275 -0.5760447 0.44872233
-0.88028944 0.110297106 0.18264914 -0.035120342 -0.4775085 -0.4166657 -0.3610453 -0.5855033
-0.2813935 -0.4384863 -0.13833141 0.107946575 0.1730803 -0.4257493 -0.124445714 -0.118639104
0.05916817 0.041835163 0.105302475 -0.011362614 0.12415294 0.08474505 -0.0413605 -0.06786844
0.006253368 0.02627666 0.047170565 -0.092800155 -0.06865946 0.027123049 0.06928255 -0.032690138
0.06464266 0.043969426 -0.049324986 0.0932931 0.014556937 -0.0026245504 -0.079656616 -0.006603302
0.27614582 0.09752057 -0.054286554 0.060598955 0.19870932 0.017951733 -0.028245056 0.14177482
0.063322015 -0.016991775 0.18022765 0.18985255 -0.05566481 0.088731304 -0.23518384 -0.11007238
0.025148315 0.06874247 -0.085745335 0.08647515 -0.05743887 -0.08700112 0.13816316 -0.043299265
0.021304423 -0.0018836672 0.094584905 -0.11854511 0.12082321 0.0044888803 0.08570054 0.11764941
0.08225953 0.068315454 0.34260935 0.15915485 0.106327705 0.10456366 -0.05092085 0.023693725
00000000: ec75 973c 78ae 7ebe 80de 66be 238b 40bd
00000010: 31ca 463d e42e e53d b2b0 943b e007 f83c
00000020: 8764 b23c d59c 19be a055 d73d ba22 8dbd
00000030: 7786 cb3c e83c a4bd 894b f03d a8da b1bd
00000040: d4fc 12be 4696 f3bc 6eaa cdbd 2671 023e
00000050: 23c9 243c 3b4b 2b3e ad4c 1c3e cb34 113e
00000060: 8f20 c83c df03 e33e 3ca0 653e 665c 5dbe
00000070: 50a1 943e 0494 0d3f 3f4d e8bd de1f 5d3e
00000080: 06bc 833d 5cbd fd3c 5f95 84bd 6064 f33c
00000090: c4ea 033e 4849 083f 880e 923e bece c23d
000000a0: 636f 0fbf 342f 3ebc 0c21 e0bd 652c 1b3d
000000b0: b312 dfbd 222b a4bd 9754 0d3f 0b2c ebbe
000000c0: 3411 cdbd 2d1a 823e 0739 933c a5ff a43d
000000d0: fb03 73bf 3d17 1c3e 4664 edbd 1e1f 203e
000000e0: bba5 00be 704e 8e3c 9622 ef3e b08f 36be
000000f0: 8ca1 cd3c 38dc b23d fdaa adbd ef10 2fbe
00000100: 6564 f03d 3593 0dbd 0c76 89bd f45a 00be
00000110: 81f1 163d b272 2cbd 048a 36be 2826 7ebd
00000120: d068 183e bc16 363e c401 803e 6d29 3a3e
00000130: f465 23be 604c b73d 11f6 f13e cb81 b4bf
00000140: 96da d73e 0702 b73d e470 c83e c6db 193d
00000150: 0dcf 2fbe c896 43be c85a 16be b7d7 dcbc
00000160: fff0 59bc 73e6 09be 7c13 68bd ad55 163e
00000170: a545 593d 236b 00be 67a7 b9bd 57fd 23be
00000180: 1cca 9abe e794 81bd 3f21 1ebf 365b 223d
00000190: 1484 5e3d a087 cb3d f0fc 54be ac2d 693e
000001a0: 1bd3 8ebd 3563 063c e439 fabe e12d 093e
000001b0: 268f 303e 6b2c 95be 444e 5e3e 00e0 e13b
000001c0: eefd bcbd 2831 27be 5195 663e f85a 283c
000001d0: 8f79 69bb 834d 903d 3937 b43d 5207 353c
000001e0: 3b75 98bd bb94 9a3e 5e5b c23e 9bf1 a9bd
000001f0: d880 24be 2e6f aebd 9069 993e c408 58be
00000200: ab17 c9be 4aa0 9abd 24fe 143e c41b 15bd
00000210: 4ddc 653e 45e9 88be 3e3e c93e 5a53 17be
00000220: 082d d8be c3a4 0abe 026f 7ebe d321 10be
00000230: 4a6e 64bd 868a ef3d e648 ccbc ce8c d9be
00000240: 1059 963e 53b6 82be b417 c9be afcc 573d
00000250: d331 bbbe b37d 30be 4d05 8cbe 00d1 52be
00000260: 8921 4dbc 1daf 60bd 159e 52be daa4 ab3d
00000270: 82b6 0dbe 7558 323e 7a5a 293e 1266 00bd
00000280: f155 b2be 3031 bebe 7989 8fbe d4a2 13bc
00000290: 963e b9be 24dc b1be 89d4 0fbf b81d a8be
000002a0: 6dc3 143f bf32 043e e021 4ebd 97fb e43e
000002b0: a761 d1be 1e18 f63e aa77 13bf efbe e53e
000002c0: a65a 61bf 73e3 e13d 6008 3b3e 59da 0fbd
000002d0: fe7b f4be 3555 d5be eeda b8be 8be3 15bf
000002e0: cf12 90be 4781 e0be c0a6 0dbe 1813 dd3d
000002f0: f63b 313e d0fb d9be 65dd febd 0ff9 f2bd
00000300: 535a 723d 595b 2b3d d3a8 d73d 422a 3abc
00000310: e643 fe3d d08e ad3d a169 29bd 9cfe 8abd
00000320: 0ee9 cc3b 2642 d73c ec35 413d 020e bebd
00000330: 559d 8cbd 2831 de3c 02e4 8d3d 18e6 05bd
00000340: 5f63 843d 4919 343d ff08 4abd 7410 bf3d
00000350: 3880 6e3c a600 2cbb 0223 a3bd 8360 d8bb
00000360: fc62 8d3e ddb8 c73d 945b 5ebd 9c36 783d
00000370: 757a 4b3e 830f 933c 2d62 e7bc 6b2d 113e
00000380: f9ae 813d 5632 8bbc 998d 383e b568 423e
00000390: c900 64bd c2b8 b53d 08d4 70be a16d e1bd
000003a0: d703 ce3c dac8 8c3d 409b afbd e219 b13d
000003b0: 0545 6bbd a52d b2bd a57a 0d3e 925a 31bd
000003c0: 9d86 ae3c 62e5 f6ba bbb5 c13d c7c7 f2bd
000003d0: 2972 f73d 7517 933b c483 af3d 2df2 f03d
000003e0: af77 a83d f9e8 8b3d 7e6a af3e 7df9 223e
000003f0: 57c2 d93d 7925 d63d 6292 50bd 5819 c23c

conv.2.bias f4 [32]
-0.109328024 -0.21041965 1.927559e-05 -0.05874538 -0.106180005 0.046864018 0.2275399 0.08126334
0.03593734 0.0065074265 0.09296438 0.025284003 0.1564767 0.13027923 0.09547784 0.227949
-0.009501837 0.1494853 0.035567846 0.109464616 0.1383211 0.17815828 0.080565415 0.034328137
0.15127426 0.19071335 0.032615628 0.20501055 0.046767294 -0.24045986 -0.08460297 -0.02289104
00000000: 5fe7 dfbd 4078 57be 04b2 a137 ff9e 70bd
00000010: e774 d9bd 7cf4 3f3d 3800 693e 656d a63d
00000020: 0833 133d 403c d53b 1c64 be3d 6620 cf3c
00000030: 6e3b 203e eb67 053e e389 c33d 766b 693e
00000040: 98ad 1bbc ad12 193e 97af 113d fc2e e03d
00000050: 0ca4 0d3e 206f 363e 7bff a43d a99b 0c3d
00000060: a4e7 1a3e 5c4a 433e f797 053d 49ee 513e
00000070: 108f 3f3d 1c3b 76be 5244 adbd fe85 bbbc

conv.4.weight f4 [2, 32, 1]
0.9158691 1.6595141 -0.1402391 -0.027135896 0.014932763 0.030374564 0.00030681945 -0.5800494
0.20301507 -0.017117742 -0.1629792 -0.20392136 -0.1992675 -0.023153353 0.13346158 -0.005540332
0.15404858 0.053742588 -0.12613116 -0.17023738 0.1550606 0.15726621 -0.7635275 0.13042401
-0.27025452 -0.17562468 -0.08931693 0.059965078 -0.021964459 0.8662653 0.46273506 0.43778315
0.67292255 -0.2583076 -0.08500031 0.12178948 0.059511915 0.019765329 -0.16252103 0.29784304
-0.12796924 0.14841558 -0.120223 -0.09561062 -0.15051426 -0.21685155 -0.20958105 -0.120909795
0.007267269 -0.14276917 -0.03426895 -0.12576944 -0.21217021 -0.055696744 0.11407808 0.012228505
-0.087206356 -0.20825508 -0.14118199 -0.18150277 0.13735865 -0.46948385 0.36694545 0.3555413
00000000: 6676 6a3f f56a d43f d79a 0fbe 194c debc
00000010: 8ca8 743c 14d4 f83c 9cdc a039 1e7e 14bf
00000020: 2fe3 4f3e 823a 8cbc 05e4 26be c3d0 50be
00000030: c80c 4cbe 1aac bdbc 27aa 083e ac8b b5bb
00000040: e9be 1d3e 3021 5c3d 8728 01be b552 2ebe
00000050: 35c8 1e3e 650a 213e 8a76 43bf df8d 053e
00000060: cd5e 8abe f5d6 33be cbeb b6bd f19d 753d
00000070: cfee b3bc 90c3 5d3f 9ceb ec3e 1d25 e03e
00000080: a744 2c3f e540 84be a414 aebd c36c f93d
00000090: c4c2 733d e6ea a13c ea6b 26be e27e 983e
000000a0: 5e0a 03be 41fa 173e 7a37 f6bd 80cf c3bd
000000b0: 6920 1abe 550e 5ebe 6a9c 56be 8e9f f7bd
000000c0: 4522 ee3b 1532 12be 995d 0cbd b4c9 00be
000000d0: 2643 59be 4522 64bd c5a1 e93d 115a 483c
000000e0: 3f99 b2bd d240 55be 0392 10be dddb 39be
000000f0: bfa7 0c3e 3060 f0be 46e0 bb3e 8209 b63e

conv.4.bias f4 [2]
-0.16688561 0.035562776
00000000: 10e4 2abe 46aa 113d
