codebase/dqn_row_based/models/model_cont.pth (torch, 18233 bytes, 6 tensors)

conv.0.weight f4 [32, 6, 3]
0	0xbe3efb72	-0.18650606
1	0x3d9d4302	0.07678796
2	0x3c41ca54	0.011828024
3	0xbcc7638d	-0.024339462
4	0xbcfda577	-0.030962689
5	0x3e04d2b0	0.12970996
6	0xbdba721c	-0.09103796
7	0xbd3b72fd	-0.04576396
8	0xbcd4d604	-0.025980957
9	0x3d034af0	0.032053888
10	0xbdac3348	-0.084082186
11	0x3dd1b04d	0.10238705
12	0xbd16808f	-0.036743697
13	0xbd91a923	-0.071123384
14	0x3d46898a	0.04847101
15	0xbc4b0b0d	-0.012392771
16	0xbd4e5fbf	-0.05038428
17	0x3e1e5edc	0.15465873
18	0x3ee9d3f1	0.4566951
19	0x3f09fd67	0.53902286
20	0x3f5cf111	0.8630534
21	0xbca7004a	-0.02038588
22	0x3d10f467	0.03538933
23	0x3e41f997	0.18942867
24	0xbd46e41b	-0.048557382
25	0x3d2f8b65	0.042857546
26	0xbc0a23ce	-0.008431388
27	0x3e18f81a	0.14938393
28	0x3e29e39a	0.1659073
29	0xbdb477ec	-0.08811936
30	0x3e1cab6c	0.15299767
31	0x3e271982	0.16318324
32	0x3d6408e0	0.055672526
33	0x3da1009f	0.078614466
34	0x3e931da2	0.28733546
35	0x3d1eb293	0.03874452
36	0xbed9111c	-0.42395866
37	0xbe1e6ce1	-0.15471222
38	0xbf1abcab	-0.60444134
39	0x3cf9a796	0.030475419
40	0xbcf117fd	-0.029430384
41	0x3d1a409a	0.037659265
42	0x3d2e93b9	0.042621348
43	0x3d114121	0.035462502
44	0x3d46c68e	0.0485292
45	0x3dc4ce5b	0.09609672
46	0xbc20bdef	-0.009810909
47	0x3d444f5f	0.047927257
48	0x3e06f7fd	0.13180538
49	0x3d9abade	0.07555173
50	0x3de1a1f7	0.110172205
51	0x3dcc91ae	0.09988724
52	0x3dc76f3d	0.09738014
53	0x3e0b59c3	0.1360846
54	0x3f7e9d29	0.9945856
55	0xbee168b1	-0.44025186
56	0x3f04d9ec	0.5189502
57	0x3bf44a9a	0.0074551823
58	0x3d7d6f4d	0.061873723
59	0xbb2bfc04	-0.0026242742
60	0xbcd17b9a	-0.025571633
61	0x3cea69ad	0.028614843
62	0x3b0dcb63	0.002163612
63	0xbbf6b1fc	-0.0075285416
64	0x3d822c84	0.06356147
65	0xbc9d8715	-0.019229451
66	0xbcf3e85f	-0.02977389
67	0x3d9b854d	0.075937845
68	0xbd460deb	-0.048353117
69	0x3d9017e9	0.070358105
70	0x3e3cf176	0.18451485
71	0x3e0adf93	0.1356185
72	0xbc14ae3b	-0.009074743
73	0xbf30cf5b	-0.690664
74	0xbd09575e	-0.033530585
75	0x3cddd2b0	0.027078003
76	0xba5395c8	-0.00080713304
77	0xbbc480a2	-0.0059967795
78	0xbca5f775	-0.020259598
79	0xbc80e239	-0.015732871
80	0xbc2d9709	-0.010595092
81	0xbc4b213f	-0.012398063
82	0xbd35d9ae	-0.04439705
83	0x3c0fb16d	0.008770329
84	0xbcb8fe55	-0.022582212
85	0xbdd1e471	-0.1024865
86	0x3ce6c6db	0.028170994
87	0x3ec1e161	0.37867263
88	0x3e11f577	0.14253794
89	0x3deb49c7	0.11488681
90	0xbe59e07b	-0.21277039
91	0x3c339e1c	0.010962989
92	0x3df339c7	0.118762545
93	0x3db40d54	0.08791605
94	0xbd1ea7a6	-0.0387341
95	0x3db806c8	0.089856684
96	0x3e26f4d7	0.16304336
97	0x3de3e3a7	0.111274056
98	0x3e213114	0.15741378
99	0xbbfddba5	-0.007747131
100	0x3e2267bd	0.15859886
101	0xbdbfae27	-0.09359389
102	0x3d5fc217	0.054628458
103	0xbd7de19b	-0.061982732
104	0x3ccaa919	0.024738835
105	0xbd424449	-0.047428403
106	0x3c9782c1	0.018494966
107	0x3e66bce4	0.22532994
108	0x3ee59ab9	0.44844607
109	0xbe2bd9b0	-0.1678226
110	0x3f3ef051	0.74585444
111	0xbd526ab9	-0.05137131
112	0x3dabe8f0	0.08394039
113	0x3c8bd5e1	0.017069759
114	0x39981219	0.00029005183
115	0x3c0d7d5d	0.008635846
116	0xbc85e978	-0.016346678
117	0x3b9bb985	0.0047523403
118	0x3db3cf39	0.08779759
119	0x3de761ce	0.11297952
120	0xbd791e9c	-0.060820207
121	0x3daa4ba0	0.083152056
122	0x3e403370	0.18769622
123	0xbd572222	-0.052522786
124	0x3e45bc68	0.19310153
125	0xbb7b8930	-0.003838133
126	0x3f3cb005	0.73706084
127	0x3f2d4c4e	0.67694557
128	0x3eec3f2d	0.4614195
129	0x3dfed902	0.12443735
130	0xbcaabe1f	-0.02084261
131	0x3dbf183c	0.09330794
132	0x3de270c3	0.11056664
133	0xbb934dfe	-0.0044953814
134	0x3d34a7ba	0.04410527
135	0x3c8ea527	0.017412735
136	0x3e0e0bd5	0.13871701
137	0x3de74a8b	0.11293515
138	0x3dd9509a	0.10611077
139	0x3ca06f9f	0.019584475
140	0x3e0e18aa	0.13876596
141	0x3e07f69d	0.13277669
142	0x3e0edfa7	0.13952504
143	0x3eafca68	0.3433411
144	0x3fc2ffb1	1.5234281
145	0x3f4c58cc	0.79822993
146	0xbf843f03	-1.033173
147	0x3c28694b	0.01027901
148	0x3a27270a	0.00063763617
149	0x3b2a0cdd	0.0025947609
150	0x3a97180c	0.0011527552
151	0xbc5b7eb5	-0.0133969085
152	0xbbe76055	-0.007061044
153	0xbc019b16	-0.0079105105
154	0x3a184e3e	0.0005809999
155	0x3bb5d00c	0.0055484828
156	0x3b9e3bf1	0.004828923
157	0xbcb75d78	-0.022383437
158	0x3c1282cd	0.008942318
159	0x3cbabe5c	0.022795849
160	0xbccca4c1	-0.024980905
161	0x3bdad85b	0.0066786236
162	0xc0423ba4	-3.0348902
163	0xbd1c0056	-0.038086258
164	0xbdcc0199	-0.09961242
165	0x3a05cd53	0.0005104143
166	0xbbe1784a	-0.0068807947
167	0x3b10c564	0.002209031
168	0xbab426e4	-0.00137445
169	0x3cc3c2af	0.023896543
170	0x3c3a9ce1	0.011389942
171	0xbc89f384	-0.01683975
172	0x3d38fd84	0.045163646
173	0x3c418797	0.011812112
174	0xbd273e5b	-0.04083095
175	0x3d771333	0.060321044
176	0x3cbd1515	0.023081342
177	0xbd36de03	-0.04464532
178	0x3d0758a1	0.033043507
179	0x3c70d8cc	0.014700126
180	0xbe5b62d9	-0.21424426
181	0xbce7fca2	-0.028318707
182	0x3f7f6940	0.99769974
183	0xbb7ebdfb	-0.0038870561
184	0xbcd60a3a	-0.026127923
185	0xbc15d3ff	-0.009144782
186	0x3cbd0241	0.023072364
187	0x3d70db69	0.058802996
188	0x3de975ad	0.11399398
189	0x3d493a07	0.049127605
190	0x3cafae83	0.021445518
191	0xbd8e3a2a	-0.06944688
192	0x3d29d5e8	0.041463763
193	0x3e6da47f	0.23207282
194	0xbda63fa6	-0.08117609
195	0x3d6cb08e	0.057785563
196	0x3e7c7813	0.2465518
197	0xbe166129	-0.14685501
198	0x3ea01441	0.31265453
199	0x3eb7d469	0.35904244
200	0x3f1349ab	0.57534283
201	0xbd60c8e7	-0.054879095
202	0x3d3fa74b	0.046790402
203	0xbdfed5a1	-0.1244309
204	0xbcc9c9a0	-0.024632275
205	0xbcdf38ff	-0.027248858
206	0x3be5324e	0.006994522
207	0xbd4d9434	-0.050190166
208	0xbc938ef1	-0.018012496
209	0x3ca52d08	0.020163074
210	0xbd7c0211	-0.06152541
211	0x3c4164f1	0.011803851
212	0x3d6f3558	0.058400482
213	0xbe0d7c46	-0.13816938
214	0x3c85b1f5	0.016320208
215	0xbc38c6d1	-0.01127787
216	0x3f434b3e	0.76286685
217	0xbf3cb7b0	-0.73717785
218	0x3e320f66	0.17388687
219	0x3c89c412	0.016817126
220	0xbbbbbd88	-0.005729381
221	0x3c3a0815	0.011354466
222	0x3d06df5c	0.032927856
223	0x3c672116	0.014107009
224	0x3c5114ab	0.012761275
225	0x3ca42fbe	0.020042296
226	0x3cbe149d	0.023203189
227	0x3c4e49a6	0.012590801
228	0x3d127e47	0.03576496
229	0x3b2ab143	0.0026045598
230	0x3cc009fc	0.02344226
231	0x3c8b66bc	0.017016761
232	0xbb7d1c97	-0.0038621777
233	0x3d44f42f	0.048084434
234	0xbe913fa6	-0.28368872
235	0xbf3a09f3	-0.7267143
236	0xbe228a50	-0.15873075
237	0xbd61c0f1	-0.055115644
238	0xbcaa4bc5	-0.020788083
239	0xbc4b47e4	-0.012407277
240	0xbd5c855f	-0.05383813
241	0xbd033f89	-0.032043014
242	0xbcd46afc	-0.02592992
243	0xbda4bb18	-0.08043498
244	0xbc4b15d8	-0.012395345
245	0xbc6a46db	-0.01429912
246	0xbe0fbef9	-0.14037694
247	0xbcb3f203	-0.021965986
248	0x3cd81c61	0.02638072
249	0xbcb4cf5b	-0.022071531
250	0xbd282165	-0.041047473
251	0xbd2523b4	-0.040317252
252	0x3ee1cc31	0.44101098
253	0xbe30edd7	-0.17278229
254	0xbcfe9bc9	-0.031080144
255	0xbc7734be	-0.015088258

conv.0.bias f4 [32]
0	0x3f02ea99	0.5113922
1	0x3b15b6a1	0.002284445
2	0x3e4fcde1	0.2029338
3	0x3e7bf8de	0.24606654
4	0xbd86bc11	-0.065788396
5	0x3e8fe12e	0.28101486
6	0x3cc83445	0.024438987
7	0xbd24769e	-0.040152185
8	0xbe433360	-0.19062567
9	0x3eb8573e	0.3600406
10	0x3eaa3e95	0.3325087
11	0x3ee52eaa	0.44762164
12	0x3ea5dc29	0.3239453
13	0x3f06b3ca	0.52618086
14	0x3e7ed60d	0.24886341
15	0x3ed141b2	0.40870434
16	0xbe33efae	-0.175719
17	0x3f1532fb	0.58280915
18	0x3e8c912c	0.27454507
19	0x3e89011d	0.26758662
20	0x3e0c3048	0.13690293
21	0x3ebbb4ea	0.36661464
22	0x3eaf24d4	0.34207785
23	0x3f0e6bf8	0.556335
24	0xbdb704ae	-0.089364395
25	0xbbe04dd3	-0.006845215
26	0x3eefb196	0.46815175
27	0x3e7d1df2	0.24718454
28	0x3f0c6941	0.54848105
29	0x3f0541e0	0.5205364
30	0x3e1ed489	0.15510763
31	0x3edce839	0.43145922

conv.2.weight f4 [32, 32, 3]
0	0x3b9233fe	0.0044617644
1	0xbe7ea41c	-0.2486729
2	0xbe533a10	-0.20627618
3	0xbd4b6e89	-0.04966596
4	0x3d5b398d	0.05352168
5	0x3de7cd58	0.11318463
6	0x3c98394c	0.018582009
7	0x3d07fa72	0.033197828
8	0x3aaea16e	0.0013323256
9	0xbe2dec5e	-0.16984698
10	0x3df47bb6	0.119376585
11	0xbda7c6a2	-0.08192183
12	0x3c7fcfe9	0.0156135345
13	0xbd12b542	-0.035817392
14	0x3e28d9da	0.16489354
15	0xbdba25c4	-0.090892345
16	0xbe125f7d	-0.14294238
17	0xbcd1cbd6	-0.025609892
18	0xbdf0da2a	-0.117603615
19	0x3e0f827e	0.14014623
20	0xbb8659e2	-0.0041000703
21	0x3e22484e	0.15847895
22	0x3e1e62eb	0.15467422
23	0x3e10eed1	0.14153601
24	0x3da033d2	0.07822384
25	0x3ee500a5	0.44727054
26	0x3e8f1b27	0.27950403
27	0xbe8afacc	-0.27144468
28	0x3e7751e7	0.24152337
29	0x3f2b1fa5	0.6684516
30	0xbde48931	-0.1115898
31	0x3e687f9c	0.22704929
32	0x3d7d3d73	0.06182618
33	0x3d0a4bd6	0.03376373
34	0xbd45a025	-0.04824843
35	0x3d4c6179	0.049897645
36	0x3e2b90e7	0.16754495
37	0x3f0c21c0	0.54739
38	0x3ea2f67c	0.31828678
39	0x3e4bbdee	0.19896671
40	0xbf36a9c7	-0.7135281
41	0xbc5eb856	-0.013593754
42	0xbdef8d16	-0.11696832
43	0x3d2d031f	0.042239305
44	0xbdf8e6cc	-0.12153396
45	0xbdf4e773	-0.11958208
46	0x3f1a3f26	0.60252607
47	0xbee11d00	-0.43967438
48	0xbd9ee595	-0.07758633
49	0x3e82d97c	0.25556552
50	0xbcf2adf4	-0.029623963
51	0x3e0e7ff2	0.13915995
52	0xbf8a4ea9	-1.0805255
53	0x3e2b58f4	0.16733152
54	0xbdf9358e	-0.12168418
55	0x3e36b1cd	0.17841263
56	0xbe10f5db	-0.14156286
57	0x3d5c3f41	0.05377126
58	0x3f0f3e76	0.5595468
59	0xbe1d4dfd	-0.15361781
60	0x3cfc857a	0.030825365
61	0x3db37275	0.08762065
62	0xbda8a775	-0.08235065
63	0xbe2fd8cf	-0.1717255
64	0x3df15ef4	0.11785689
65	0xbd43e1c8	-0.047822744
66	0xbd8a18e0	-0.06743026
67	0xbe3347a7	-0.17507802
68	0x3c711dcd	0.014716578
69	0xbd12cfc2	-0.035842665
70	0xbe369e24	-0.17833763
71	0xbdc1f21b	-0.09470006
72	0x3dae3987	0.08507066
73	0x3ddec298	0.108769596
74	0x3ec73af4	0.38912165
75	0x3e1ed358	0.15510309
76	0xbe3ccca6	-0.18437442
77	0x3ddd97ca	0.10819967
78	0x3f00dcd1	0.5033694
79	0xbfb901f5	-1.4453722
80	0x3ede4e96	0.4341933
81	0x3dca6868	0.09883195
82	0x3ed296a2	0.4113055
83	0x3d977849	0.073959894
84	0xbe2f6c0c	-0.1713106
85	0xbe599fe3	-0.21252398
86	0xbe239e2d	-0.15978308
87	0xbce1c5d1	-0.027560147
88	0xbccdd274	-0.025124766
89	0xbe18fadf	-0.1493945
90	0xbd51959e	-0.051168077
91	0x3e275010	0.16339135
92	0x3d179a1c	0.037012205
93	0xbe00561f	-0.12532853
94	0xbdb716f4	-0.08939925
95	0xbe2b0f38	-0.16705024
96	0xbeb7eae9	-0.3592141
97	0xbdba5eec	-0.09100136
98	0xbf2aead0	-0.66764545
99	0x3d33ba67	0.04387894
100	0x3d932053	0.071839
101	0x3dd0d838	0.101974905
102	0xbe5ce9da	-0.21573582
103	0x3e7c5f07	0.24645625
104	0xbd64243b	-0.055698615
105	0xbbf697b0	-0.007525407
106	0xbeee28ab	-0.46515402
107	0x3dece073	0.11566248
108	0x3e6648d3	0.22488718
109	0xbe952c6b	-0.2913545
110	0x3ea18a94	0.3155104
111	0xbc0baf8f	-0.008525743
112	0xbdd6545e	-0.104653105
113	0xbe2cefda	-0.16888371
114	0x3e635598	0.2220062
115	0x3c8d09e1	0.017216625
116	0xbbe1f06e	-0.0068951165
117	0x3d984fc6	0.074370906
118	0x3dbd6cd0	0.0924927
119	0x3ca60970	0.020268172
120	0xbd99b764	-0.07505682
121	0x3eb25d09	0.34836605
122	0x3ec8b809	0.39202908
123	0xbdd75dc1	-0.10515929
124	0xbe1e211d	-0.15442319
125	0xbdae6f2e	-0.085172996
126	0x3e93f013	0.288941
127	0xbe4da69a	-0.20083085
128	0xbeddf8c8	-0.43353868
129	0xbdda4687	-0.10657983
130	0x3e0dcda1	0.13847972
131	0xbd4079af	-0.046991047
132	0x3e77e29c	0.24207538
133	0xbd94de72	-0.072689906
134	0x3ebc9207	0.3683016
135	0xbe12e2db	-0.14344351
136	0xbed82d08	-0.42221856
137	0xbe92024a	-0.2851737
138	0xbe8b015a	-0.2714947
139	0xbe2666da	-0.16250172
140	0xbd906b0c	-0.070516676
141	0x3e249362	0.16071847
142	0x3d9b7c64	0.07592085
143	0xbed98cce	-0.42490238
144	0x3e8c3c4e	0.2738976
145	0xbe80fcd5	-0.25192896
146	0xbecc79cf	-0.39936683
147	0x3d7f0a52	0.0622657
148	0xbebb31d3	-0.3656145
149	0xbe3bfa21	-0.18357135
150	0xbe9eedbf	-0.3104076
151	0xbe61befa	-0.22045508
152	0xbcb0246e	-0.021501746
153	0xbd60af1d	-0.0548545
154	0xbdc489c3	-0.095965885
155	0x3df4aa97	0.119466
156	0xbe0cfdee	-0.13768741
157	0x3e2eb806	0.17062387
158	0x3e27685f	0.16348408
159	0xbd6dfe53	-0.05810387
160	0xbebea419	-0.37234572
161	0xbedc1a5e	-0.42988867
162	0xbeb361d9	-0.3503559
163	0xbcc7469a	-0.024325658
164	0xbec083eb	-0.37600645
165	0xbec0c086	-0.37646884
166	0xbf1c48a1	-0.6104832
167	0xbec66c6e	-0.387546
168	0x3f05bb1d	0.5223864
169	0x3e365216	0.17804751
170	0xbcd8d785	-0.026469955
171	0x3ef8265b	0.48466763
172	0xbe086bb5	-0.13322337
173	0x3f0ea674	0.5572274
174	0xbf1039b0	-0.56338024
175	0x3ed80c1e	0.42196745
176	0xbf61d64c	-0.88217616
177	0x3db94c38	0.09047741
178	0x3e52cb13	0.20585279
179	0x3d203d70	0.03912109
180	0xbf0b2619	-0.5435501
181	0xbef6e972	-0.4822498
182	0xbedef20e	-0.43544048
183	0xbf22a137	-0.63527244
184	0xbeae7038	-0.3406999
185	0xbefb7a2b	-0.49116644
186	0xbe0f0f40	-0.13970661
187	0x3ddc3a93	0.1075336
188	0x3e27cdaf	0.16387056
189	0xbef00f9a	-0.46886903
190	0xbe2678c9	-0.16257013
191	0xbe12b1c6	-0.14325628
192	0x3d7fb8f7	0.062432256
193	0x3cfa5adb	0.030560901
194	0x3de923f7	0.11383813
195	0x3adb74e3	0.0016743209
196	0x3e04a8a9	0.12954964
197	0x3dc012ec	0.09378609
198	0xbd847992	-0.064685
199	0xbdaf2f1b	-0.085539065
200	0xbcdddbe7	-0.027082397
201	0x3d32f2ff	0.04368877
202	0x3d497dba	0.049192168
203	0xbdbc354f	-0.09189855
204	0xbd8f9b5c	-0.07012054
205	0x3ca7e434	0.020494558
206	0x3d676591	0.056493346
207	0xbd0a6dcd	-0.03379612
208	0x3d795a0c	0.06087689
209	0x3d44691d	0.047951806
210	0xbd1a5c0b	-0.037685435
211	0x3dbfc838	0.093643606
212	0x3cf1c376	0.029512148
213	0x3c46417a	0.012100572
214	0xbd99b5c1	-0.0750537
215	0x3c2426e1	0.010019035
216	0x3eadd1de	0.33949178
217	0x3e135b4b	0.14390294
218	0xbd2ee4f2	-0.042698808
219	0x3dd57b21	0.104238756
220	0x3e60d746	0.2195712
221	0x3c8bdc11	0.01707271
222	0xbcd2905d	-0.025703603
223	0x3e133f25	0.14379556
224	0x3d9700cc	0.07373199
225	0xbc2f94e5	-0.010716652
226	0x3e36d307	0.17853938
227	0x3e52408a	0.20532432
228	0xbd629ef3	-0.055327367
229	0x3db8e160	0.09027362
230	0xbe823436	-0.2543046
231	0xbdf48505	-0.11939434
232	0x3c444486	0.011979228
233	0x3d275a87	0.040857818
234	0xbd9e636e	-0.077338085
235	0x3da7e7c0	0.081985
236	0xbd56c146	-0.052430414
237	0xbdb04136	-0.08606188
238	0x3e1b2626	0.15151271
239	0xbca135f7	-0.019679053
240	0x3d18fe72	0.037352033
241	0x3b66242f	0.0035116782
242	0x3dca47ae	0.09876953
243	0xbe0be32b	-0.13660876
244	0x3dd85dc9	0.10564763
245	0xbc48de05	-0.012259965
246	0x3dc882bc	0.097905606
247	0x3dec44bd	0.11536548
248	0x3db0bb5c	0.08629486
249	0x3da49c4b	0.08037623
250	0x3ec8c5c3	0.3921338
251	0x3e418838	0.1889962
252	0x3df46900	0.1193409
253	0x3dd5c16a	0.104372814
254	0xbd58c83f	-0.052925345
255	0x3cce407c	0.025177233

conv.2.bias f4 [32]
0	0xbde28ac5	-0.110616244
1	0xbe7be3e9	-0.2459866
2	0xbbb30c8e	-0.005464143
3	0xbd709eff	-0.05874538
4	0xbdd974e7	-0.106180005
5	0x3d3ff47c	0.046864018
6	0x3e689231	0.22712018
7	0x3dab730a	0.08371551
8	0x3d374810	0.04474646
9	0x3bd53c40	0.0065074265
10	0x3db514d2	0.08841862
11	0x3ca5a6fe	0.02022123
12	0x3e1c1de2	0.15245774
13	0x3e05c3e4	0.13063008
14	0x3dea1416	0.11429612
15	0x3e67916c	0.22614068
16	0xbc1bad98	-0.009501837
17	0x3e1c7f7a	0.15283003
18	0x3cebfc67	0.028806878
19	0x3dd72cf2	0.105066195
20	0x3e165b07	0.14683162
21	0x3e45bd1c	0.19310421
22	0x3da0ef07	0.07858091
23	0x3d2aadbb	0.04166959
24	0x3e15a806	0.14614877
25	0x3e40567a	0.18782988
26	0x3cee6699	0.029101657
27	0x3e564b40	0.20927143
28	0x3d3f8f10	0.046767294
29	0xbe6e9313	-0.23298292
30	0xbdac3bc6	-0.084098384
31	0xbcd60c1a	-0.026128817

conv.4.weight f4 [2, 32, 1]
0	0x3f83eba5	1.0306288
1	0x3ff082dd	1.8789936
2	0xbe196455	-0.1497968
3	0xbcde4c19	-0.027135896
4	0x3c74a88c	0.014932763
5	0x3cf8d414	0.030374564
6	0xbbd7b74b	-0.0065831295
7	0xbf1666d2	-0.5875064
8	0x3e5978f1	0.21237542
9	0xbc8c3a82	-0.017117742
10	0xbe32b1e5	-0.17450674
11	0xbe5afda9	-0.21385826
12	0xbe5290b4	-0.20563012
13	0xbcf13e72	-0.029448722
14	0x3e099108	0.13434231
15	0xbbd137e1	-0.006384835
16	0x3e1dbee9	0.15404858
17	0x3d4a0f84	0.049331203
18	0xbe0d2b39	-0.1378602
19	0xbe371486	-0.17878923
20	0x3e1bf5f0	0.15230536
21	0x3e2de1b0	0.16980624
22	0xbf465b96	-0.774835
23	0x3e0dff82	0.13867
24	0xbe9308a3	-0.28717527
25	0xbe3b4ff3	-0.18292217
26	0xbdc05b1b	-0.09392377
27	0x3d632bc0	0.055461645
28	0xbcb3eecf	-0.021964459
29	0x3f590e38	0.8478732
30	0x3f0fab97	0.561212
31	0x3f0dc258	0.5537467
32	0x3f34e2c1	0.706585
33	0xbec45e27	-0.38353083
34	0xbdb89348	-0.09012467
35	0x3df96cc3	0.12178948
36	0x3d73c2c4	0.059511915
37	0x3ca1eae6	0.019765329
38	0xbe20aea4	-0.1569162
39	0x3e94e4fd	0.29080954
40	0xbdf0b4f7	-0.11753266
41	0x3e17fa41	0.14841558
42	0xbe03876a	-0.12844625
43	0xbdd2f5ae	-0.10300766
44	0xbe23b3d8	-0.15986574
45	0xbe62e56c	-0.2215783
46	0xbe6336cf	-0.22188877
47	0xbdefe766	-0.117140576
48	0x3bee2245	0.007267269
49	0xbe0dc1a7	-0.13843404
50	0xbd300afe	-0.042979233
51	0xbe07d171	-0.1326349
52	0xbe53c05c	-0.20678848
53	0xbd353f0c	-0.04424958
54	0x3dc54580	0.09632397
55	0x3ccd9c66	0.02509899
56	0xbdcb8b87	-0.09938722
57	0xbe59f3a9	-0.21284355
58	0xbe128a6e	-0.14310619
59	0xbe399ddf	-0.1812663
60	0x3e0ca7bf	0.13735865
61	0xbefd641f	-0.4949045
62	0x3ed2d999	0.4118164
63	0x3eddff71	0.4335895

conv.4.bias f4 [2]
0	0xbe25d741	-0.16195394
1	0x3cf5d193	0.03000716
