codebase/dqn_row_based/models/model_cont.pth (torch, 18233 bytes, 6 tensors)

conv.0.weight f4 [32, 6, 3]
-0.20505938 0.094247475 -0.047315016 -0.04456772 -0.07808613 0.01175784 -0.08399834 -0.08217033
-0.0005712153 0.033101205 -0.10697981 0.13191715 -0.044641096 -0.02635665 0.07395527 -0.0013922085
-0.0116451755 0.20750892 0.3270927 0.47132736 1.0840423 -0.033649925 0.0061558695 0.11799496
0.026983472 0.030055089 -0.0568003 0.14514655 0.03543924 -0.06466805 0.2570893 0.11656102
0.06982508 0.1245978 0.40303522 0.28699327 -0.6176637 0.028747158 -0.8987254 0.059461877
-0.033044543 -0.006234649 0.08077234 0.0050405385 0.04200885 0.048380215 0.04166522 0.07780518
0.064476065 0.1179623 0.13449912 0.1371095 -0.03153187 0.3315572 1.1330012 -0.42417908
0.6113666 -0.003408897 -0.103724726 0.09372529 -0.002997911 -0.024812024 0.061069194 0.014481109
0.00039943997 0.053782124 -0.072604924 0.06288357 0.09933941 -0.001177142 0.27590558 0.061351612
-0.30275232 -0.10823201 -0.027549453 -0.029909674 0.09447171 0.033682395 -0.15226495 -0.18270214
-0.08295746 -0.15549299 -0.31179872 -0.19763002 -0.3907006 -0.18242936 -0.26402134 0.54634017
0.331446 0.2425805 -0.23926252 -0.02926472 0.052722055 0.033492986 0.0032381103 0.019387685
0.116869844 0.055464957 0.08647673 0.051891264 0.12762736 -0.13336948 0.09861 -0.03157822
0.036457356 0.026949137 0.11168352 0.3435142 0.45124426 -0.2759 0.9313177 0.038194943
0.05183825 0.0555679 -0.09144563 0.05528428 0.044343505 -0.14423674 0.11651122 0.13867661
-0.28260213 0.15738027 0.14891657 -0.23447175 0.020641299 0.33466265 0.6889082 0.6779403
0.6065294 0.12758246 -0.040156495 0.07452559 0.17279656 -0.044661157 0.099153355 0.082035184
0.09787708 0.18396251 0.10112723 0.054178182 0.28230608 0.2575483 0.18700318 0.5045844
1.794073 0.6983067 -0.74634194 -0.032422222 -0.005371573 0.039983273 0.067623675 -0.08588527
-0.010465124 0.04362193 -0.15396354 0.009384961 0.022531325 -0.09372476 -0.044602945 0.12822908
0.039463688 -0.17371231 -2.8901594 0.0103015145 -0.089375906 -0.011177438 -0.0271752 0.00872695
-0.066839926 0.0155202085 0.0042359205 -0.013468827 0.08926139 -0.016670998 -0.061489694 0.1804671
-0.008713348 -0.05642768 0.10428137 -0.03401088 -0.14378431 0.011861109 1.6496446 0.019074963
-0.11584085 -0.07249078 -0.007363639 -0.0050712577 0.07731295 -0.020139007 0.011594567 0.015178817
-0.06617473 0.21335822 -0.12495531 0.03761591 0.53988594 -0.15936394 0.22198683 0.4421654
0.81160235 -0.021187006 0.022674028 -0.104956985 -0.081307076 0.011526656 -0.09514132 -0.22701864
0.03337973 -0.043077476 -0.15546542 0.06312578 0.01848598 -0.36407694 0.09282305 0.074248135
0.7972758 -0.6953074 0.10621169 0.016004318 -0.030210149 0.020552715 0.016268115 0.00073682796
-0.008713207 -0.030690677 0.021411465 -0.024701454 0.0025505517 -0.015275818 -0.03471317 0.040125325
0.15882193 0.09884003 -0.41578326 -0.9791725 -0.19256553 -0.024593063 -0.035231844 -0.048372794
-0.09867401 -0.015705623 0.014420752 -0.13849042 -0.030748082 -0.007983279 -0.07713003 -0.17506309
0.05524014 -0.10792846 -0.18779972 -0.03401976 0.40957654 -0.20065708 0.0102421595 0.009070311
00000000: 16fb 51be d204 c13d 64cd 41bd a48c 36bd
00000010: 9feb 9fbd f5a3 403c 5207 acbd eb48 a8bd
00000020: 9cbd 15ba 2195 073d 3b18 dbbd 4a15 073e
00000030: 95d9 36bd e7e9 d7bc dc75 973d c47a b6ba
00000040: 68cb 3ebc 387d 543e b278 a73e d251 f13e
00000050: e6c1 8a3f 81d4 09bd 2db7 c93b 57a7 f13d
00000060: 710c dd3c 1736 f63c 6ea7 68bd 4ca1 143e
00000070: bd28 113d af70 84bd 35a1 833e 8bb7 ee3d
00000080: 7400 8f3d 222d ff3d a25a ce3e c8f0 923e
00000090: 351f 1ebf 297f eb3c de12 66bf 4c8e 733d
000000a0: b759 07bd 074c ccbb f86b a53d 1a2b a53b
000000b0: 7911 2c3d 552a 463d 26a9 2a3d 5258 9f3d
000000c0: 070c 843d 3896 f13d 23ba 093e 6f66 0c3e
000000d0: 9027 01bd dec1 a93e 2f06 913f 002e d9be
000000e0: 8682 1c3f cd67 5fbb a16d d4bd 0bf3 bf3d
000000f0: 9a78 44bb 9642 cbbc b123 7a3d 2c42 6d3c
00000100: ed6b d139 a54a 5c3d e4b1 94bd 1ac9 803d
00000110: 7672 cb3d 554a 9aba 7f43 8d3e d44b 7b3d
00000120: 5a02 9bbe bea8 ddbd 64af e1bc 2205 f5bc
00000130: 627a c13d 8df6 093d 58eb 1bbe 4516 3bbe
00000140: 9ae5 a9bd 8e39 1fbe 15a4 9fbe 865f 4abe
00000150: e909 c8be c3ce 3abe ce2d 87be f3dc 0b3f
00000160: 4ab3 a93e 0667 783e 3c01 75be 91bc efbc
00000170: 15f3 573d f12f 093d 7a36 543b ecd2 9e3c
00000180: 7559 ef3d 392f 633d b61a b13d ef8b 543d
00000190: bfb0 023e 0292 08be 0af4 c93d 2a58 01bd
000001a0: 4f54 153d 70c4 dc3c 54ba e43d 18e1 af3e
000001b0: 7d09 e73e c442 8dbe d66a 6e3f 4d72 1c3d
000001c0: 5854 543d 2b9b 633d d947 bbbd c571 623d
000001d0: 89a1 353d ccb2 13be 6f9d ee3d 3e01 0e3e
000001e0: 3ab1 90be 4b28 213e 967d 183e 5d19 70be
000001f0: f117 a93c e758 ab3e 4a5c 303f 7f8d 2d3f
00000200: 8345 1b3f faa4 023e 237b 24bd dfa0 983d
00000210: 95f1 303e 9eee 36bd ea10 cb3d 1002 a83d
00000220: c773 c83d ab60 3c3e cb1b cf3d f1e9 5d3d
00000230: 6c8a 903e 5fdd 833e c37d 3f3e 712c 013f
00000240: 2fa4 e53f 3ac4 323f 4410 3fbf 2acd 04bd
00000250: 0504 b0bb 80c5 233d 487e 8a3d 9ee4 afbd
00000260: e975 2bbc e9ac 323d 9ea8 1dbe 61c3 193c
00000270: 9d93 b83c c4f2 bfbd 94b1 36bd 7c4e 033e
00000280: ada4 213d a4e1 31be 5ff8 38c0 afc7 283c
00000290: b70a b7bd 9321 37bc 869e debc 7bfb 0e3c
000002a0: 5fe3 88bd 7948 7e3c 7acd 8a3b 5bac 5cbc
000002b0: adce b63d 9e91 88bc 9edc 7bbd 5ecc 383e
000002c0: 6ec2 0ebc b620 67bd 7991 d53d fe4e 0bbd
000002d0: 323c 13be 1955 423c 8e27 d33f 1943 9c3c
000002e0: f83d edbd 0c76 94bd ae4a f1bb cb2c a6bb
000002f0: 4056 9e3d 8ffa a4bc 24f7 3d3c 93b0 783c
00000300: 9e86 87bd 947a 5a3e 92e8 ffbd 2413 1a3d
00000310: f735 0a3f 4d30 23be 8450 633e 8163 e23e
00000320: 2cc5 4f3f 5f90 adbc e2be b93c b0f3 d6bd
00000330: 5384 a6bd 4dda 3c3c 74d9 c2bd 9377 68be
00000340: 2fb9 083d 0272 30bd 5432 1fbe 1748 813d
00000350: e96f 973c 4b68 babe 031a be3d 680f 983d
00000360: 441a 4c3f aaff 31bf 8485 d93d 7d1b 833c
00000370: 467b f7bc 2b5e a83c b644 853c b027 413a
00000380: d7c1 0ebc 046b fbbc 1967 af3c b45a cabc
00000390: 2827 273b 6d47 7abc 662f 0ebd 745a 243d
000003a0: 37a2 223e a46c ca3d 8be1 d4be 0dab 7abf
000003b0: e62f 45be 6477 c9bc 444f 10bd 8d22 46bd
000003c0: 9915 cabd 14a9 80bc 0545 6c3c 6fd0 0dbe
000003d0: 67e3 fbbc 4dcc 02bc 59f6 9dbd bd43 33be
000003e0: 7c43 623d 9909 ddbd 924e 40be 4e58 0bbd
000003f0: 04b4 d13e 0d79 4dbe bbce 273c a49b 143c

conv.0.bias f4 [32]
0.54655886 0.008971629 0.48371816 0.18896854 -0.18005767 0.27760497 0.071746126 -0.0010581024
-0.30396923 0.4732557 0.33626598 0.42205402 0.40273613 0.76329225 0.25684842 0.53162587
-0.3664958 0.7260405 0.37143585 0.4964377 0.09883074 0.3528982 0.34430078 0.5779954
-0.17792886 -0.0028266236 0.500812 0.4526506 0.56116486 0.5660926 0.18790537 0.4771405
00000000: 48eb 0b3f bdfd 123c e8a9 f73e f880 413e
00000010: 0a61 38be 3d22 8e3e a2ef 923d 06b0 8aba
00000020: dba1 9bbe 924e f23e 0e2b ac3e 7717 d83e
00000030: 6e33 ce3e 1f67 433f a381 833e a218 083f
00000040: 56a5 bbbe cadd 393f d72c be3e 152d fe3e
00000050: c567 ca3d 13af b43e 3148 b03e 82f7 133f
00000060: fc32 36be e03e 39bb 3735 003f d2c1 e73e
00000070: 80a8 0f3f 72eb 103f 446a 403e c24b f43e

conv.2.weight f4 [32, 32, 3]
-0.0533166 -0.2283364 -0.13078503 -0.12235489 0.06173628 0.14964108 -0.09578624 0.27314353
-0.29355395 -0.17224394 0.14792289 -0.08989365 0.09904998 0.15000634 0.14369963 -0.1405202
-0.1209723 0.017196141 -0.1372631 0.20481856 -0.15689161 0.1056096 0.1504152 0.16130343
0.23126096 0.41253632 0.36530113 -0.09200542 0.086575374 0.65288657 -0.13192204 0.25380874
0.029769195 0.11431834 0.037354823 0.12049218 0.31625694 0.5483276 0.4891348 0.2554085
-0.7757946 0.06214072 -0.19421037 0.005918131 -0.18115367 -0.27164784 0.68368155 -0.30198914
-0.47417584 0.15714817 -0.38610289 0.40185496 -1.053037 0.4060992 -0.23228511 0.075416885
-0.31010076 0.01218551 0.54649097 0.037007567 0.046372592 0.12166253 -0.06858381 -0.19201218
0.14633107 -0.31596798 -0.16155745 -0.27472094 0.022143591 -0.08746872 -0.109882705 -0.24217385
0.32803077 -0.10243603 0.32032344 0.17284806 -0.2641011 0.20322411 0.59978265 -1.380027
0.46382567 0.09965504 0.48631558 0.14212936 -0.10979704 -0.12189772 -0.20824505 -0.11247426
-0.05931483 -0.22513255 -0.16011599 0.21848406 -0.01040293 -0.12806052 -0.08469854 -0.17115858
-0.4968853 -0.14418805 -0.7470226 0.04331413 0.1255957 0.1650974 -0.63305813 0.3067309
-0.59125865 -0.033942573 -0.4383446 0.10608278 0.14481586 -0.12576818 0.27609706 -0.07533344
-0.16342434 0.014189261 0.17441703 0.018780049 0.037092045 0.114160165 0.10692 0.09134694
-0.02418945 0.43410796 0.43308473 -0.03181439 -0.1250267 -0.085172996 0.26729113 -0.09203695
-0.594274 -0.20587222 0.12220849 -0.032234754 0.2458216 -0.04674283 0.34206122 -0.09467878
-0.42221856 -0.5291933 -0.21152131 -0.32940263 -0.10411854 0.22326255 0.13815592 -0.42490238
0.25046453 -0.43818963 -0.52744126 -0.021255335 -0.3656145 -0.14293037 -0.32646826 -0.21241583
0.01335007 -0.0548545 -0.017265204 0.21354897 -0.119835936 0.22641245 0.19543238 -0.10016445
-0.40875277 -0.5022435 -0.46533814 -0.020885414 -0.023016363 -0.40366364 -0.5648751 -0.45792735
0.10604483 0.52997124 0.17350219 0.5297972 -0.6701424 0.668763 -0.5498826 0.3842722
-0.88623035 0.050466646 0.26592404 0.3067864 -0.6176945 -0.37703764 -0.64404345 -0.69132996
-0.5250148 -0.6611847 -0.12556285 0.058276936 0.1650952 -0.5971328 -0.2800389 -0.17302695
0.074331306 -0.008556654 0.15078208 0.05311771 0.13844402 0.16361591 -0.15036573 -0.15430103
-0.37230727 0.09036707 0.03142829 -0.08361333 -0.057376 0.093377456 0.009322857 -0.012410907
0.056804813 0.100864194 -0.034610737 0.08051045 0.14304073 0.07530749 -0.073784515 0.08597306
0.40439823 0.2058421 -0.03092562 0.24280132 0.2358047 0.06743592 -0.0049849465 0.13632056
0.1341912 -0.059819426 0.12265598 0.220162 -0.028764633 0.079758584 -0.3215575 -0.06954878
-0.030226626 0.00075265113 0.00044617482 0.063054584 -0.012355994 -0.061705507 0.1833662 0.08391769
-0.07381598 0.010687009 -0.08894055 -0.1853809 0.08154567 -0.04559093 0.12803727 0.1288584
0.20999387 0.1344793 0.48519143 0.42311707 0.17133354 0.06659561 -0.07820047 0.068868615
00000000: 8262 5abd 04d1 69be 83ec 05be 3395 fabd
00000010: 2edf 7c3d 833b 193e 942b c4bd 78d9 8b3e
00000020: b44c 96be b760 30be 1979 173e 291a b8bd
00000030: b7da ca3d 439b 193e ff25 133e 87e4 0fbe
00000040: 53c0 f7bd ecde 8c3c b38e 0cbe f5bb 513e
00000050: 32a8 20be d949 d83d 7106 1a3e ba2c 253e
00000060: accf 6c3e f637 d33e c008 bb3e 566d bcbd
00000070: 6e4e b13d 9323 273f 9216 07be 38f3 813e
00000080: 87de f33c bc1f ea3d 5f01 193d 9bc4 f63d
00000090: 6eec a13e 335f 0c3f e06f fa3e e7c4 823e
000000a0: 7a9a 46bf 4587 7e3d 15df 46be e2ec c13b
000000b0: 5980 39be 6d15 8bbe c105 2f3f 529e 9abe
000000c0: 2dc7 f2be 73eb 203e 47af c5be efbf cd3e
000000d0: ebc9 86bf 3cec cf3e 26dc 6dbe 2b74 9a3d
000000e0: 87c5 9ebe bca5 473c d5e6 0b3f 3f95 173d
000000f0: 30f1 3d3d 342a f93d ab75 8cbd d79e 44be
00000100: d0d7 153e 8ec6 a1be 516f 25be 39a8 8cbe
00000110: 7a66 b53c cd22 b3bd 2f0a e1bd 6cfc 77be
00000120: a6f3 a73e fbc9 d1bd 6f01 a43e 15ff 303e
00000130: 4238 87be fb19 503e 5b8b 193f baa4 b0bf
00000140: 8f7a ed3e f117 cc3d 5bfe f83e 5c8a 113e
00000150: 45dd e0bd 83a5 f9bd 313e 55be e858 e6bd
00000160: 1bf4 72bd 2689 66be 72f5 23be 49ba 5f3e
00000170: 0d71 2abc 4c22 03be 6e76 adbd 3244 2fbe
00000180: c067 febe 08a6 13be e03c 3fbf 286a 313d
00000190: 299c 003e 4b0f 293e 1910 22bf d50b 9d3e
000001a0: ba5c 17bf 5e07 0bbd b46e e0be ee41 d93d
000001b0: 9c4a 143e 60c9 00be 985c 8d3e 6b48 9abd
000001c0: b658 27be 137a 683c 619a 323e 9ed8 993c
000001d0: d4ed 173d cecc e93d dff8 da3d 1b14 bb3d
000001e0: f428 c6bc 6643 de3e 48bd dd3e ce4f 02bd
000001f0: 0007 00be 2e6f aebd 62da 883e de7d bcbd
00000200: 5722 18bf 2bd0 52be 7248 fa3d 9708 04bd
00000210: a8b8 7b3e 6975 3fbd a622 af3e f3e6 c1bd
00000220: 082d d8be 3679 07bf 0b99 58be 76a7 a8be
00000230: 1a3c d5bd f09e 643e bf78 0d3e ce8c d9be
00000240: e33c 803e 645a e0be 6406 07bf ab1f aebc
00000250: d331 bbbe 575c 12be d926 a7be 8983 59be
00000260: 41ba 5a3c 1daf 60bd c26f 8dbc 95ac 5a3e
00000270: 8b6c f5bd aad8 673e 6d1f 483e 0523 cdbd
00000280: 0b48 d1be 0893 00bf cd40 eebe e317 abbc
00000290: d08c bcbc 00ad cebe a89b 10bf 7475 eabe
000002a0: 082e d93d 32ac 073f 8faa 313e caa0 073f
000002b0: 748e 2bbf 0d34 2b3f 1bc5 0cbf 53bf c43e
000002c0: fedf 62bf 1db6 4e3d 3227 883e 1b13 9d3e
000002d0: 3a21 1ebf 140b c1be 08e0 24bf 00fb 30bf
000002e0: 5f67 06bf 6743 29bf 8c93 00be ccb3 6e3d
000002f0: b70e 293e b2dd 18bf 4261 8fbe fa2d 31be
00000300: 033b 983d 3531 0cbc 9e66 1a3e f591 593d
00000310: 45c4 0d3e ee8a 273e 79f9 19be 1701 1ebe
00000320: 0f9f bebe 5f12 b93d f3ba 003d 773d abbd
00000330: 1903 6bbd ae3c bf3d e5be 183c 1e57 4bbc
00000340: 2aac 683d e391 ce3d fdc3 0dbd aae2 a43d
00000350: 4579 123e d03a 9a3d 561c 97bd a512 b03d
00000360: 490d cf3e 45c8 523e ba57 fdbc e9a0 783e
00000370: ca76 713e d81b 8a3d c358 a3bb 9e97 0b3e
00000380: 6b69 093e 3705 75bd 0f33 fb3d 2672 613e
00000390: cfa3 ebbc 7858 a33d 2fa3 a4be 976f 8ebd
000003a0: d49d f7bc 904d 453a 92ec e939 c322 813d
000003b0: cc70 4abc eabe 7cbd 59c4 3b3e 0add ab3d
000003c0: d52c 97bd 9118 2f3c 7726 b6bd 7ed4 3dbe
000003d0: 6b01 a73d 8ebd 3abd 341c 033e 75f3 033e
000003e0: a208 573e f1b4 093e 036b f83e cda2 d83e
000003f0: 0f72 2f3e 4763 883d 9127 a0bd fd0a 8d3d

conv.2.bias f4 [32]
-0.075171515 -0.30302513 -0.041663904 -0.05874538 -0.106180005 0.046864018 0.18899702 0.070128515
0.09827282 0.0065074265 0.05609498 -0.013586202 0.12281084 0.12544575 0.17460337 0.22136956
-0.009501837 0.19939709 -0.010502916 0.07348809 0.20152774 0.25232893 0.10839223 0.083901204
0.112246364 0.1621595 -0.0007229105 0.26708907 0.046767294 -0.18192346 -0.1121788 -0.085865915
00000000: 86f3 99bd 1c26 9bbe c5a7 2abd ff9e 70bd
00000010: e774 d9bd 7cf4 3f3d 6f88 413e 8a9f 8f3d
00000020: 4343 c93d 403c d53b dac3 653d a998 5ebc
00000030: 4084 fb3d da74 003e 3acb 323e b4ae 623e
00000040: 98ad 1bbc c02e 4c3e 6c14 2cbc ec80 963d
00000050: 4a5d 4e3e 4231 813e bffc dd3d 65d4 ab3d
00000060: 6ce1 e53d 240d 263e b481 3dba e6bf 883e
00000070: 108f 3f3d 254a 3abe 00be e5bd 78da afbd

conv.4.weight f4 [2, 32, 1]
1.2750652 2.377487 -0.23213303 -0.027135896 0.014932763 0.030374564 -0.08057475 -0.5953514
0.33837712 -0.017117742 -0.2569385 -0.2915529 -0.26429898 -0.07708195 0.15708885 0.10671968
0.15404858 0.09825028 -0.24260297 -0.2429819 0.22587872 0.29378158 -0.8249229 0.22910829
-0.3981523 -0.24955592 -0.13282846 0.10556332 -0.021964459 0.7892373 1.0758691 1.2864587
0.5917096 -0.5190825 -0.052478697 0.12178948 0.059511915 0.019765329 -0.2502827 0.3400942
-0.08857064 0.14841558 -0.103325926 -0.08881953 -0.15324023 -0.19964942 -0.29330683 -0.1520482
0.007267269 -0.21563345 -0.01592184 -0.11652487 -0.2900567 -0.008975597 0.039166465 0.037406463
-0.07782332 -0.20949554 -0.10127791 -0.23689714 0.13735865 -0.52556115 0.3163035 0.40075332
00000000: 5635 a33f bf28 1840 48b4 6dbe 194c debc
00000010: 8ca8 743c 14d4 f83c 6004 a5bd f368 18bf
00000020: c43f ad3e 823a 8cbc 718d 83be 6c46 95be
00000030: 3252 87be 24dd 9dbd e6db 203e d98f da3d
00000040: e9be 1d3e 7137 c93d ea6c 78be 3fd0 78be
00000050: c04c 673e 8a6a 963e 262e 53bf 5d9b 6a3e
00000060: 9eda cbbe 968b 7fbe 2f04 08be 9531 d83d
00000070: cfee b3bc 750b 4a3f 14b6 893f aeaa a43f
00000080: 487a 173f 97e2 04bf e7f3 56bd c36c f93d
00000090: c4c2 733d e6ea a13c 0e25 80be d420 ae3e
000000a0: 8664 b5bd 41fa 173e 8b9c d3bd 04e7 b5bd
000000b0: 02eb 1cbe e670 4cbe 502c 96be 86b2 1bbe
000000c0: 4522 ee3b 04cf 5cbe 856e 82bc 97a4 eebd
000000d0: 5082 94be 620e 13bc 046d 203d 8537 193d
000000e0: d561 9fbd 0086 56be cb6a cfbd 2a95 72be
000000f0: bfa7 0c3e 2d8b 06bf 88f2 a13e 8a2f cd3e

conv.4.bias f4 [2]
-0.12910292 -0.02685968
00000000: 8e33 04be d508 dcbc
