codebase/dqn_row_based/models/model_cont.pth (torch, 17894 bytes, 6 tensors)

conv.0.weight f4 [32, 6, 3]
0	0x3c9a2d2a	0.018820364
1	0xbd65c147	-0.056092527
2	0xbf1cf504	-0.61311364
3	0xbb892be8	-0.0041861422
4	0xbd08a22e	-0.03335779
5	0xbd093d44	-0.033505693
6	0x3c6d9aac	0.014502209
7	0xbd4c0813	-0.049812388
8	0x3c6f027d	0.014587996
9	0xba912ec5	-0.001107656
10	0xbcebaaa6	-0.028767895
11	0x3d676d61	0.056500796
12	0x3cb57231	0.022149177
13	0x3dbc1611	0.09183896
14	0xbde08189	-0.10962207
15	0xbce31ec1	-0.027724626
16	0x3da18ff3	0.07888784
17	0x3e96b5df	0.29435632
18	0x3f1ab7c8	0.6043668
19	0xbfba6780	-1.4562836
20	0x3f19f497	0.6013884
21	0xbc0750bb	-0.008258994
22	0x3d4d5bce	0.05013638
23	0x3d853443	0.06504109
24	0xbe85e609	-0.26152065
25	0xbf204f4b	-0.6262099
26	0xbe11e2bb	-0.14246647
27	0xbcafaf6c	-0.021445952
28	0xbde73263	-0.112889074
29	0xbea449ae	-0.32087463
30	0x3dd6b8c1	0.10484458
31	0x3db74068	0.089478314
32	0xbb78ce2f	-0.0037964692
33	0x3e262b9d	0.16227575
34	0xbd425800	-0.047447205
35	0xbd26bb77	-0.040706124
36	0xbd7aea0a	-0.061258353
37	0xbf9b52a7	-1.2134598
38	0xbec7e043	-0.39038286
39	0xbc9f5b46	-0.019452702
40	0xbe111a5e	-0.14170215
41	0x3d25585f	0.04036748
42	0xbdbf5b75	-0.09343616
43	0xbc543734	-0.012952615
44	0x3dd97550	0.10618079
45	0x3ebed6af	0.37273166
46	0xbf129c8c	-0.5727012
47	0xbf6c664b	-0.92343587
48	0xbd755146	-0.05989196
49	0x3e2da3b0	0.16956973
50	0xbd738e24	-0.059461728
51	0xbdb89d8e	-0.09014426
52	0x3e033ce0	0.1281619
53	0xbe971cac	-0.29514062
54	0x3e0f1094	0.13971168
55	0xbfd09acb	-1.6297239
56	0xbf00b874	-0.50281453
57	0x3b10c60b	0.00220907
58	0x3c0e1aa4	0.008673344
59	0x3a885ee2	0.0010404254
60	0x3cae08ef	0.021244494
61	0x3c55d531	0.013051317
62	0x3c2532b8	0.010082893
63	0xbc04a64f	-0.008096292
64	0x3c3cad83	0.011515978
65	0x3c2cb1d6	0.010540446
66	0x3c9cda1b	0.01914697
67	0x3c6140aa	0.013748327
68	0x3b7e8161	0.003883444
69	0xb9eee14b	-0.00045562754
70	0xbd044e17	-0.032301035
71	0x3ccd8d83	0.025091892
72	0xc009707e	-2.147491
73	0xbf47fda2	-0.7812139
74	0x402aea6a	2.6705575
75	0x3c6b15f0	0.014348492
76	0xbb9860ec	-0.004650226
77	0x3ce89290	0.028390199
78	0x3d0b8cbf	0.034069773
79	0xbc3f5265	-0.011677359
80	0xbc2a05e3	-0.01037738
81	0x3c5a7923	0.013334545
82	0x3d20e411	0.03928
83	0x3d2dc063	0.042419802
84	0x3c9d1184	0.019173391
85	0x3c6e6885	0.014551287
86	0x3d401619	0.046896074
87	0xbd37d613	-0.04488189
88	0x3ce613df	0.028085647
89	0x3d9b7a00	0.07591629
90	0xbff6c7af	-1.9279689
91	0x3f9a7091	1.2065603
92	0x3ec2114c	0.3790382
93	0x3c646b53	0.013941604
94	0xbceb4068	-0.028717235
95	0xbd021c42	-0.03176523
96	0xbc9cf41d	-0.019159371
97	0x3ca93976	0.020657282
98	0xbda8891c	-0.082292765
99	0x3d8f4fc4	0.06997636
100	0xbd78821a	-0.06067095
101	0xbde412e2	-0.11136414
102	0x3cd4a21d	0.025956208
103	0xbd7cc10d	-0.061707545
104	0xbce315b3	-0.027720308
105	0xbc5581ab	-0.0130314035
106	0xbbb40ff9	-0.005495068
107	0x3e981340	0.29702187
108	0xbd75f34f	-0.06004649
109	0xbf0bbea7	-0.5458779
110	0x3e11b5e8	0.14229548
111	0xb95006a1	-0.00019838895
112	0xbd429fb2	-0.04751558
113	0xbebcf3b8	-0.36904693
114	0xbdd5ed0c	-0.10445604
115	0xbe4fc871	-0.20291306
116	0xbe96dad5	-0.2946383
117	0xbdd032d7	-0.10165947
118	0x3d262f50	0.040572464
119	0x3d88e2b7	0.066838674
120	0xbe5faa34	-0.21842271
121	0x3d9db5cb	0.0770069
122	0x3d6372a1	0.05552924
123	0xbd0ae043	-0.03390528
124	0x3e48b620	0.19600725
125	0xbc27718a	-0.010219941
126	0x3f332bb2	0.6998855
127	0xbff16a68	-1.8860598
128	0xbf8624d8	-1.0479994
129	0xbd3d3c36	-0.0462
130	0xbbb4e0c9	-0.0055199605
131	0xbc9e270e	-0.019305732
132	0xbd29c7ec	-0.041450426
133	0x3c8e5b26	0.017377447
134	0xbccdad80	-0.025107145
135	0x3cf63805	0.03005601
136	0xbdfd7df1	-0.12377537
137	0x3baba9ae	0.0052387333
138	0x3da7806c	0.081787914
139	0xbd8b8bda	-0.06813784
140	0x3c76688b	0.015039573
141	0xbe9e115e	-0.30872625
142	0xbf08ff28	-0.5351434
143	0x3f2e8407	0.6817021
144	0x3cf99e43	0.030470973
145	0xbfe0bed6	-1.7558239
146	0xbf3bfe3d	-0.7343481
147	0xbdda3a03	-0.10655596
148	0xbcad83db	-0.021181038
149	0x3c4fb34b	0.012677024
150	0x3bebdd17	0.007197987
151	0xbdd64c2d	-0.10463748
152	0xbd9c01a8	-0.076175034
153	0x3dbb181a	0.091354564
154	0x3cc5aba8	0.024129704
155	0x3d898988	0.06715685
156	0xbe10ac7a	-0.14128295
157	0xbe8a570f	-0.27019545
158	0x3ec2a99b	0.38020024
159	0xba71c51c	-0.0009222792
160	0xbbfd4da5	-0.007730203
161	0x3d7aa75c	0.061194763
162	0xbe0fb3c4	-0.14033419
163	0x3f2bad3f	0.6706123
164	0x3fb203ce	1.3907411
165	0x3c80e6cc	0.015735053
166	0xbc9f3e81	-0.019438984
167	0xbb862728	-0.0040940233
168	0xbc56f12c	-0.013119023
169	0xbd8cd969	-0.06877405
170	0x3cf548e0	0.029941976
171	0xbc1ea23f	-0.009682237
172	0xbcf0c27f	-0.029389618
173	0xbc1e3586	-0.009656316
174	0xbc58c0bb	-0.013229544
175	0x3ce6f660	0.028193653
176	0xbd116fda	-0.03550706
177	0x3d034f7a	0.032058217
178	0xbbb2b743	-0.0054539754
179	0xbdd4f58a	-0.10398395
180	0x3e0d08dc	0.13772911
181	0x3f00dd68	0.5033784
182	0x3f170c8f	0.5900354
183	0xbca72c74	-0.02040694
184	0x3c03449f	0.008011966
185	0x3d0ebc61	0.03484762
186	0xbccd4d13	-0.025061166
187	0xba2e8dc9	-0.0006658701
188	0x3c439e89	0.011939653
189	0xbd80d49a	-0.062905505
190	0x3d203aa2	0.039118417
191	0x3d2c3f5a	0.042052604
192	0xbcb57a03	-0.022152906
193	0xbca91f28	-0.02064474
194	0x3c923a1b	0.017849972
195	0x3cc5a915	0.024128476
196	0x3d7a2209	0.061067615
197	0x3bf209c6	0.007386419
198	0xbdcf1b60	-0.10112643
199	0x3edcebd5	0.43148676
200	0xc0024f68	-2.0360966
201	0x3c2e3c7c	0.010634538
202	0x3a94f7d2	0.001136536
203	0x3ba4c589	0.005028431
204	0x3c505813	0.012716311
205	0xbb82483e	-0.003975897
206	0xbb88b2df	-0.0041717137
207	0x3bd0f7de	0.0063772043
208	0x3b6443a2	0.0034830351
209	0x3c055757	0.008138499
210	0x3cb25626	0.021769594
211	0x3c6f57f2	0.01460837
212	0xbb1305bf	-0.0022433845
213	0x3cb1fe61	0.021727743
214	0x3c4cb84c	0.012495112
215	0xbd3b5623	-0.045736443
216	0x3f6ab385	0.91680175
217	0xbe4eac60	-0.20182943
218	0x3eea206f	0.4572787
219	0x3c11ab09	0.008890876
220	0xbb8daf3c	-0.004323868
221	0xbccc947e	-0.02497315
222	0xbc141f19	-0.009040617
223	0x3c3f4858	0.011674963
224	0xbcdd9823	-0.027050084
225	0x3cb428ea	0.021992166
226	0x3cee1159	0.029061006
227	0xbc890c32	-0.016729448
228	0xbc3a1ebf	-0.0113598695
229	0x3c41db4e	0.0118320715
230	0x3ca132e7	0.019677592
231	0xbe1b1964	-0.15146405
232	0xbdf5374b	-0.11973437
233	0xbb18087d	-0.0023198419
234	0x3dea18f2	0.11430539
235	0xbf0d02b5	-0.55082256
236	0x3e6a4c70	0.22880721
237	0x3d8b0823	0.06788661
238	0x3e16798a	0.14694801
239	0xbcf4a200	-0.029862404
240	0xbd0bdc3f	-0.03414559
241	0x3d3ede1b	0.046598535
242	0x3e136148	0.14392579
243	0xbe280f1d	-0.16412015
244	0xbf6afb9c	-0.91790175
245	0x3e94a8f1	0.29035142
246	0xbdce5fbc	-0.10076854
247	0xbe2fc0d2	-0.17163399
248	0x3d28ab1f	0.04117882
249	0xbe8fc85e	-0.28082556
250	0x3e713a93	0.235575
251	0xbc9e797f	-0.019345043
252	0x3f90099e	1.1252935
253	0xbfd36f07	-1.6518258
254	0xbe2e88f0	-0.17044425
255	0xbd1a4bf0	-0.037670076

conv.0.bias f4 [32]
0	0x3e11ba6a	0.14231268
1	0x3cdf8581	0.02728534
2	0x3eb0906b	0.34485182
3	0x3f05cac4	0.5226252
4	0x3e88ecdf	0.26743218
5	0xbd2c3c9d	-0.042049993
6	0x3dfd675b	0.12373229
7	0x3df3c946	0.11903624
8	0x3ebfa645	0.3743154
9	0xbefe0cce	-0.49619144
10	0xbe2d5806	-0.1692811
11	0x3ef410a9	0.4766896
12	0xbe3e76ef	-0.18600057
13	0xbdf4ef55	-0.119597115
14	0x3e324c32	0.17411879
15	0x3a7e8e91	0.0009710575
16	0xbee999c7	-0.45625135
17	0x3f0a1a4f	0.53946394
18	0x3e13c069	0.14428867
19	0x3f56d867	0.83923954
20	0xbeb2a850	-0.34894037
21	0x3f2452c1	0.6418877
22	0x3f0be141	0.54640585
23	0x3f045b50	0.5170183
24	0x3e32cd9f	0.1746125
25	0x3e1f0bbd	0.15531822
26	0x3e33fa9e	0.17576072
27	0x3e820716	0.2539603
28	0x3f2930e6	0.6609024
29	0x3f0733c0	0.5281334
30	0xbeb6c5df	-0.3569784
31	0x3eb5e999	0.35529783

conv.2.weight f4 [32, 32, 3]
0	0xbc1d762f	-0.009610697
1	0xbd6b5937	-0.05745813
2	0xbe05ae1d	-0.130547
3	0xbdd8a25b	-0.10577842
4	0xbe20cac0	-0.15702343
5	0xbc050716	-0.008119365
6	0xbdbc04d7	-0.091806106
7	0xbdb501bd	-0.08838222
8	0xbd3df9d3	-0.04638083
9	0xbad29dea	-0.001606879
10	0xbd38d71b	-0.045127016
11	0xbcad3f85	-0.021148453
12	0xbcb0f4dc	-0.021601133
13	0xbe398d72	-0.18120363
14	0xbdfe6e21	-0.12423349
15	0xbde64115	-0.11242882
16	0xbd8d6c24	-0.06905392
17	0x3d4c8e0f	0.049940165
18	0xbddc83e3	-0.10767343
19	0xbdbf522b	-0.09341844
20	0x3e0fc3db	0.14039557
21	0x3d229c0f	0.03969961
22	0x3cc7029f	0.024293242
23	0x3c1b5b7a	0.009482259
24	0xbcd7e85d	-0.026355917
25	0xbd9f2043	-0.07769825
26	0xbc19f50b	-0.009396802
27	0x3c7b02b1	0.015320466
28	0xbc533a2e	-0.012892289
29	0x3d33e2dd	0.043917526
30	0xbde1f849	-0.11033685
31	0xbde2fc34	-0.1108326
32	0xbc71d6a2	-0.014760645
33	0xbd4b4912	-0.049630232
34	0xbe0d8a97	-0.13822399
35	0xbd69d8a6	-0.057091378
36	0xbd84dcf4	-0.06487456
37	0x3c0ae4de	0.008477418
38	0xbc4f587b	-0.012655373
39	0xbdac0fde	-0.08401464
40	0x3d10f0b7	0.035385814
41	0x3d1907cd	0.037360955
42	0xbd9f0745	-0.077650584
43	0xbda902af	-0.08252465
44	0xbde76cf9	-0.11300082
45	0xbdb2622c	-0.08710131
46	0x3d10b14e	0.03532534
47	0x3d81b177	0.06332677
48	0x3d936d2c	0.07198557
49	0xbdc686d4	-0.09693685
50	0xbd15a824	-0.036537305
51	0xbe02efea	-0.12786832
52	0xbdbd9aaf	-0.09258019
53	0xbde218ac	-0.11039862
54	0xbdbd9201	-0.09256364
55	0xbd64b0a5	-0.055832524
56	0xbd093131	-0.03349418
57	0xbd45fe35	-0.048338134
58	0x3d68588e	0.056725077
59	0xbde98bf9	-0.11403651
60	0x3d608509	0.054814372
61	0x3d9b49d5	0.07582442
62	0x3c0626d1	0.0081879655
63	0xbd15a74e	-0.036536507
64	0x3dac8621	0.084240206
65	0xbd060287	-0.032717254
66	0xbd5682ce	-0.05237084
67	0xbc5417f2	-0.012945162
68	0xbd9c6c2d	-0.076378204
69	0x3d6283c1	0.05530143
70	0xbe11453a	-0.14186564
71	0xbd2a0a45	-0.0415137
72	0xbdd12e71	-0.10213936
73	0xbdb63ccd	-0.088983156
74	0xbd4fe0f2	-0.050751634
75	0x3dd0901b	0.10183736
76	0xbd5e8747	-0.05432823
77	0xbde290e1	-0.1106279
78	0xbda74c1b	-0.08168813
79	0xbd023051	-0.03178436
80	0xbdc86151	-0.09784187
81	0xbc2d95ad	-0.0105947675
82	0x3d20880e	0.03919225
83	0xbd699f04	-0.057036415
84	0xbe3db774	-0.18527013
85	0xbe1583b6	-0.14601025
86	0xb9b71994	-0.00034923537
87	0xbd7cd795	-0.061729033
88	0x3d86dd71	0.06585205
89	0xbcb2e833	-0.021839237
90	0xbd4a64cc	-0.049412534
91	0x3da9a430	0.082832694
92	0x3d2ca6ac	0.04215114
93	0xbda402dc	-0.08008358
94	0x3bd383e9	0.006454934
95	0xbd4559e0	-0.048181415
96	0xbdeae379	-0.11469168
97	0x3d36679a	0.044532396
98	0xba8804db	-0.0010377424
99	0xbe02d454	-0.12776309
100	0xbe0df828	-0.13864195
101	0xbc66da00	-0.014090061
102	0xbdcb84b9	-0.09937424
103	0xbcf85950	-0.030316025
104	0xbdd72204	-0.10504535
105	0xbbbc0edb	-0.0057390756
106	0xbcaa56dc	-0.02079337
107	0x3cdddccb	0.027082821
108	0xbd84a6ad	-0.064771034
109	0xbd36fc87	-0.044674423
110	0xbdcb5301	-0.09927941
111	0xbccc68e3	-0.024952358
112	0xbcec0238	-0.028809652
113	0x3d270d2b	0.040784042
114	0x3d21a36a	0.039462484
115	0xbd5cd42f	-0.05391329
116	0xbdb1b888	-0.08677775
117	0xbcf006ea	-0.029300172
118	0xbdc13163	-0.09433248
119	0xbd90dcad	-0.070733406
120	0xbdac1c55	-0.084038414
121	0xbda9f69c	-0.0829899
122	0x3d46a4c6	0.048496984
123	0xbd16805d	-0.03674351
124	0xbdc3f27e	-0.09567736
125	0xbe1a09c5	-0.1504279
126	0x3c2bf240	0.010494769
127	0xbddf014c	-0.10888919
128	0xbe17429c	-0.14771503
129	0xbe3ca9a5	-0.18424089
130	0xbcc502fb	-0.024049273
131	0xbcafb0de	-0.021446642
132	0xbd2931c7	-0.041307237
133	0xbe051049	-0.12994494
134	0xbc48241e	-0.012215642
135	0xbde10a99	-0.109883495
136	0xbd0b8017	-0.034057703
137	0xbd4dd709	-0.0502539
138	0xbdcec07a	-0.10095306
139	0xbd241d33	-0.04006691
140	0xbdf48eb3	-0.1194128
141	0x3da74190	0.08166802
142	0xbd089824	-0.033348218
143	0xbcc7372c	-0.0243183
144	0xbde7bc17	-0.11315172
145	0xbc104bfe	-0.00880718
146	0xbe08df07	-0.13366328
147	0xbd13ce48	-0.036085397
148	0xbd08dcb5	-0.033413608
149	0xbd2f537d	-0.04280423
150	0x3b20df0e	0.0024547013
151	0x3cfcd720	0.030864298
152	0xbdebccc2	-0.11513664
153	0x3d2e1edb	0.042509895
154	0xbdf54e16	-0.11977784
155	0xbddc1911	-0.107469685
156	0xbdb1525a	-0.086582854
157	0x3ca94ce7	0.020666553
158	0x3caecfd7	0.02133934
159	0xbd774a62	-0.06037367
160	0xbdbc8593	-0.09205165
161	0xbda9be83	-0.0828829
162	0xbd931340	-0.07181406
163	0xbb657a18	-0.00350154
164	0xbd0b02d2	-0.033938237
165	0xbd993c72	-0.07482232
166	0xbe192c9d	-0.14958425
167	0xbd109ed2	-0.035307713
168	0x3ce443ac	0.0278643
169	0xbc7d54c4	-0.015462104
170	0xbd1ec9b7	-0.03876659
171	0x3e0a9486	0.1353322
172	0xbd1a029b	-0.03760014
173	0x3cfe9ce0	0.031080663
174	0x3c876e5d	0.016532118
175	0x3d549115	0.051896174
176	0x3c4c0554	0.012452442
177	0xbe01c726	-0.12673625
178	0xbab7d0be	-0.0014024002
179	0xbdf6171f	-0.12016129
180	0xbdf866fc	-0.12129018
181	0xbdeca2b3	-0.1155447
182	0xbdb5bb05	-0.08873562
183	0xbe054af7	-0.13016878
184	0x3cced13c	0.025246255
185	0xbdaba31b	-0.08380719
186	0x3d34ac7e	0.044109814
187	0x3d190150	0.037354767
188	0x3c9d69b0	0.019215435
189	0x3d0bd154	0.034135178
190	0xbd7b6204	-0.06137277
191	0xbe139cca	-0.14415279
192	0x3ef248b5	0.47321096
193	0xbea808c5	-0.3281919
194	0x3db07916	0.08616845
195	0x3f44b4ff	0.7683868
196	0xbf67c482	-0.9053422
197	0x3dd055d2	0.10172619
198	0xbf7e224b	-0.99271077
199	0xbe593373	-0.21211033
200	0xbe9fa131	-0.31177667
201	0x3e23029c	0.15918964
202	0xbecfc48d	-0.40579644
203	0xbf3a7fe0	-0.7285137
204	0xbebb0cb8	-0.3653314
205	0x3eb77714	0.35833037
206	0x3de8c479	0.11365599
207	0xbf248d4a	-0.6427809
208	0x3ea011bb	0.31263527
209	0x3d287778	0.04112956
210	0xbd4f16d0	-0.050558865
211	0xbe00efbd	-0.12591453
212	0xbe3c1351	-0.18366744
213	0xbf3d2ff8	-0.7390132
214	0xbeeaf502	-0.4589005
215	0xbfd32539	-1.6495734
216	0xbe87427b	-0.26417908
217	0x3ed8de34	0.42357028
218	0x3cec80b4	0.028869964
219	0xbdcf0621	-0.10108591
220	0x3ee23997	0.44184563
221	0x3eb1e029	0.34741333
222	0x3daa953a	0.08329244
223	0x3dea7e32	0.11449851
224	0x3e2e0160	0.16992712
225	0xbec8c850	-0.39215326
226	0xbf66add0	-0.90108967
227	0x3f88ef45	1.0698019
228	0xbc8067ae	-0.015674438
229	0x3e084f8f	0.13311599
230	0xbe17a8ad	-0.14810438
231	0x3de112f5	0.10989944
232	0x3c99aa0b	0.01875784
233	0x3ec06259	0.37575033
234	0x3f5a2ced	0.852248
235	0x3ea51616	0.32243413
236	0x3efca912	0.4934774
237	0xbeadd70d	-0.33953133
238	0x3d734430	0.0593912
239	0xbdff1047	-0.124542765
240	0xbd68b934	-0.05681725
241	0xbf4aa6f4	-0.79161
242	0xbefb7acf	-0.49117133
243	0x3f99e821	1.2023965
244	0xbf12d4ce	-0.57355964
245	0x3d0e6966	0.034768485
246	0x3f3e085f	0.74231523
247	0x3e85eb29	0.26155975
248	0xbf558c87	-0.8341755
249	0x3f3d7af6	0.7401575
250	0xbeb007d2	-0.34380966
251	0xbdd611ca	-0.10452612
252	0x3f11cfed	0.56957895
253	0xbd2a419a	-0.04156647
254	0xbe0b3c4a	-0.13597217
255	0x3e0b24a7	0.135882

conv.2.bias f4 [32]
0	0xbd79586b	-0.060875338
1	0xbdab0e3b	-0.083523236
2	0x3cc05dec	0.023482285
3	0xbdb35242	-0.08755924
4	0xbdeaefbf	-0.11471509
5	0x3abb0096	0.0014267142
6	0xbe33d7f4	-0.17562848
7	0x3c12f200	0.00896883
8	0x3e5b05be	0.21388909
9	0xbe5f464f	-0.21804164
10	0x3e6a813d	0.22900863
11	0x3dd132fb	0.10214802
12	0x3dbf699a	0.09346314
13	0x3eec9e13	0.4621435
14	0x3d6e98b8	0.058251113
15	0x3eba1260	0.36342144
16	0xbda5dd60	-0.080988646
17	0x3e2d7521	0.16939212
18	0x3e257504	0.16157919
19	0x3ecbf802	0.39837652
20	0x3d1fe08d	0.039032508
21	0x3e46fd94	0.1943267
22	0xbd9de637	-0.077099256
23	0xbde31809	-0.11088569
24	0x3ece2c19	0.4026802
25	0x3f326251	0.6968127
26	0x3de19e90	0.110165715
27	0x3eb2b5c4	0.349043
28	0x39a29003	0.00031006345
29	0x3e16c357	0.14722954
30	0x3d9ddf42	0.07708599
31	0xbd19cacf	-0.03754693

conv.4.weight f4 [2, 32, 1]
0	0x3e1a134f	0.15046428
1	0x3d9c03d3	0.07617917
2	0xbea1d0d1	-0.31604627
3	0xbb59fc63	-0.0033262006
4	0x3ce180e4	0.02752728
5	0x3ca4e60a	0.020129222
6	0x3fc023a8	1.5010881
7	0xbe1adec1	-0.15124036
8	0x3ab6c65f	0.0013944617
9	0x3f418eaf	0.7560834
10	0xbe09fc75	-0.13475211
11	0xbdb51df4	-0.08843604
12	0xbfc32003	-1.5244144
13	0xbe5fac27	-0.21843015
14	0x3de5c2e2	0.112188116
15	0x3e185da0	0.14879465
16	0x3fab70a0	1.3393745
17	0xbddf404f	-0.10900938
18	0xbe4fa870	-0.20279098
19	0x3f129207	0.5725407
20	0x3eac38a6	0.3363697
21	0x3f23a61e	0.6392535
22	0xbda5a2ef	-0.08087718
23	0xbf1572e4	-0.58378434
24	0xbef7923f	-0.48353764
25	0xbd4ada4d	-0.049524594
26	0xbf88617f	-1.0654753
27	0x3ea0253c	0.31278408
28	0x3d06507b	0.032791596
29	0x3f4e688c	0.80628276
30	0xbf8929f2	-1.0715926
31	0x3d4522f5	0.04812904
32	0x3db66498	0.089059055
33	0x3d870e78	0.065945566
34	0x3e793727	0.24337445
35	0x3df5b4b4	0.11997357
36	0x3d73fae4	0.05956544
37	0x3cea16c0	0.028575301
38	0xbe8267ab	-0.25469717
39	0x3e307bd6	0.1723474
40	0xbf5db902	-0.86610425
41	0xbd039179	-0.032121155
42	0xbd674e70	-0.05647129
43	0xbe92ed26	-0.28696555
44	0x3e5da142	0.21643546
45	0xbebe736b	-0.37197432
46	0xbf21b984	-0.631737
47	0xbf304779	-0.6885906
48	0x3e7b9a03	0.2457047
49	0xbf2400b1	-0.64063555
50	0xbb661edf	-0.0035113615
51	0xbeb1da0d	-0.34736672
52	0xbe9174b7	-0.2840936
53	0x3e7049ff	0.23465727
54	0x3d14d499	0.03633556
55	0x3f1af0d8	0.6052375
56	0xbe075b99	-0.13218535
57	0xbf18bdf4	-0.59664845
58	0xbe5d84b9	-0.21632661
59	0x3f17a82c	0.59240985
60	0x3ddc6a53	0.10762467
61	0xbdb3af42	-0.08773662
62	0xbeaf78d2	-0.34271866
63	0xbc2f47c1	-0.01069826

conv.4.bias f4 [2]
0	0xbee1a949	-0.44074467
1	0xbf6483aa	-0.89263403
