codebase/dqn_row_based/models/model_cont.pth (torch, 18233 bytes, 6 tensors)

conv.0.weight f4 [32, 6, 3]
0	0xbe3e3950	-0.1857655
1	0x3e25afc0	0.16180325
2	0xbe18265c	-0.14858383
3	0x3ca5ecde	0.020254549
4	0xbd5e87cd	-0.05432873
5	0x3dd36489	0.1032191
6	0xbd9f530d	-0.077795126
7	0x3b81209c	0.003940655
8	0x3cd78b1d	0.026311452
9	0x3c883f98	0.016631886
10	0x3c0582a5	0.008148824
11	0x3c15d14d	0.0091441395
12	0xbd455e55	-0.048185665
13	0xbc562cab	-0.013072173
14	0xbcf33a33	-0.029690837
15	0xbd09194a	-0.033471383
16	0xbdccf584	-0.10007766
17	0x3dbc431d	0.09192488
18	0xbfea9324	-1.8326154
19	0x3fe92ce7	1.8216828
20	0xbf3c954c	-0.7366531
21	0xbba55b70	-0.0050463006
22	0xbc416bb0	-0.01180546
23	0xbb9368b8	-0.0044985674
24	0x3cd39b1d	0.0258308
25	0x3c3fdbe9	0.0117101455
26	0xbceae199	-0.028672026
27	0x3c955a3e	0.018231507
28	0x3c989fd8	0.018630907
29	0x3cb94e2e	0.022620287
30	0x3d1d65b9	0.03842709
31	0x3c913569	0.017725663
32	0x3c82c46d	0.015962804
33	0x3e0c7c5c	0.13719314
34	0x3e2620af	0.16223405
35	0x3e383bca	0.17991558
36	0xbf074057	-0.5283255
37	0xbe26fc40	-0.16307163
38	0xbed40ff8	-0.41418433
39	0xbd185435	-0.03718968
40	0x3cb4e755	0.022082964
41	0x3d112c10	0.035442412
42	0x3dda0a16	0.10646455
43	0x3cc9fa0e	0.024655368
44	0xbe1073a2	-0.1410661
45	0xbe256976	-0.16153511
46	0xbdd6fa7c	-0.10496995
47	0x3e184616	0.14870486
48	0x3ca8c566	0.02060194
49	0x3b97952e	0.004625938
50	0xbd813e4e	-0.06310712
51	0x3d093fae	0.033507995
52	0xbd1333c6	-0.035938047
53	0x3c6d2b43	0.014475646
54	0x3d10ec73	0.035381746
55	0xbf4cb0e3	-0.7995741
56	0xbf3d3f91	-0.7392512
57	0x3c4d97a1	0.012548358
58	0x3be0329b	0.00684197
59	0x3b03dc5a	0.0020120353
60	0xbb640569	-0.0034793264
61	0xbbb1365f	-0.005408093
62	0x3bd2aebd	0.006429522
63	0x3b8de540	0.0043303072
64	0x3c073c70	0.0082541555
65	0xbadd5103	-0.0016885105
66	0x3c247f7c	0.01004016
67	0xbbff2d2a	-0.0077873664
68	0x3c997e58	0.018737003
69	0x3c9c7e89	0.019103305
70	0xbd20b968	-0.039239317
71	0xbc03a885	-0.008035784
72	0xbfbfe3d1	-1.4991399
73	0x3e023b27	0.12717877
74	0x3e9c8ed3	0.30577716
75	0x3be2e69b	0.006924463
76	0xba83d4c9	-0.0010057922
77	0x3b7c5190	0.0038500763
78	0x3bae5aa3	0.0053208633
79	0xbb6299a1	-0.0034576433
80	0x3a194834	0.0005847246
81	0x3c1066c4	0.008813564
82	0xba13024e	-0.00056079484
83	0x3c334ad2	0.0109431315
84	0x3b5aa408	0.003336193
85	0x3bb0c4b4	0.0053945426
86	0x3c28bfa1	0.010299594
87	0xbc026157	-0.007957778
88	0xbbfb8d27	-0.007676739
89	0xbc06ad97	-0.008220098
90	0xbf2c75ca	-0.6736723
91	0x3ef3f53a	0.4764803
92	0xbfa87dcd	-1.3163391
93	0xbd01d370	-0.031695783
94	0xbcaff885	-0.021480808
95	0x3ac9ee7a	0.0015406155
96	0x3ba3a1d6	0.0049936576
97	0x3cbd22ec	0.023087941
98	0xba9d4b64	-0.0012000618
99	0x3cdf18ba	0.02723347
100	0x3b4a0504	0.0030825743
101	0xbc3c27f3	-0.011484134
102	0x3d467796	0.04845389
103	0x3d3c35f5	0.045949895
104	0xbcd025c2	-0.02540863
105	0x3e3bd2b1	0.18342091
106	0x3e068116	0.1313518
107	0xbd6a9123	-0.05726732
108	0xbd864e07	-0.06557851
109	0xbd185148	-0.03718689
110	0x3ee7fd5f	0.45310494
111	0xbc6a3f03	-0.01429725
112	0x3cde2bdd	0.027120525
113	0xbd20dbd9	-0.039272163
114	0xbdc0e371	-0.09418381
115	0xbd7b6d46	-0.06138351
116	0x3d191f46	0.03738334
117	0xbe82681b	-0.2547005
118	0xbce92c62	-0.028463546
119	0x3d41e1f3	0.047334623
120	0xbe8e900f	-0.27844283
121	0xbe271760	-0.1631751
122	0x3e871971	0.26386598
123	0xbe5522f7	-0.2081412
124	0x3e52580a	0.20541397
125	0x3d9b3e0b	0.07580193
126	0xbdbcaa9a	-0.09212227
127	0x3f964a4e	1.1741426
128	0x3e1e8b22	0.15482762
129	0x3b82a8ca	0.0039874064
130	0xbbd25f65	-0.0064200633
131	0x3be93d39	0.007117894
132	0xba5feea5	-0.00085423357
133	0xbbf93622	-0.00760533
134	0x3bb6c433	0.005577588
135	0x3b3e6e2b	0.0029057364
136	0x3a96c873	0.001150383
137	0xbbbb9f58	-0.0057257824
138	0x3c8f2692	0.017474446
139	0xbadaa258	-0.0016680462
140	0xbc7a0d4d	-0.01526196
141	0x3cc32c0b	0.023824712
142	0xbb25d48f	-0.0025303697
143	0x3cdf22f3	0.027238345
144	0x3d2f6bc8	0.042827398
145	0xbfa6ec07	-1.304078
146	0xbf523ad1	-0.82120997
147	0xbb50a4ec	-0.0031836582
148	0xbc3cd66c	-0.0115257315
149	0x3ce5b936	0.028042417
150	0xbc99b051	-0.018760832
151	0xbbc60aef	-0.006043784
152	0xbb259a97	-0.0025269145
153	0x3c7e9710	0.015538946
154	0xbd14cf15	-0.0363303
155	0x3bbf790d	0.005843288
156	0x3ce1ff09	0.02758743
157	0xbd08d106	-0.033402465
158	0xbbb6e887	-0.0055819186
159	0xbd88cf15	-0.06680123
160	0xbe8aa9f6	-0.27082795
161	0x3ec6e5f8	0.38847327
162	0xbe72ed96	-0.23723444
163	0x3ec78cd1	0.38974622
164	0x3ebd4033	0.36963043
165	0x3da2800f	0.079345815
166	0xbc1a6c0c	-0.009425174
167	0x3dcb9ff1	0.09942616
168	0x3d92ea28	0.07173568
169	0x3e0479e6	0.12937126
170	0x3d698555	0.05701192
171	0x3d3495fd	0.044088352
172	0xbc4ea084	-0.012611512
173	0xbacfb950	-0.0015848074
174	0xbd0481c9	-0.032350335
175	0xbcea9124	-0.028633662
176	0x3c8f5f38	0.017501459
177	0xbd392834	-0.045204356
178	0x3e0a50ed	0.13507433
179	0xbe630934	-0.2217148
180	0x3ebf4908	0.37360406
181	0x3eec5d11	0.46164754
182	0x3f1c0f89	0.60961205
183	0xbcf0ba4c	-0.029385708
184	0xbbe2d42d	-0.006922266
185	0x3ab5f9d9	0.0013883665
186	0xbd092e46	-0.033491395
187	0x3cbc85bb	0.023012986
188	0xbb3545ac	-0.0027659936
189	0xbd0b4df7	-0.0340099
190	0x3ca910cc	0.020637892
191	0xbc8e323c	-0.017357938
192	0xbc608d48	-0.013705559
193	0x3d3ed0dd	0.046585906
194	0xbd88ab87	-0.06673341
195	0xbd280955	-0.041024525
196	0x3d83995f	0.064257376
197	0xbd6d881f	-0.057991143
198	0x3e31171c	0.17293972
199	0x3d990bfd	0.0747299
200	0xbf8d0b10	-1.1019001
201	0xbc7235fc	-0.014783379
202	0xbc380bcc	-0.011233281
203	0xbc25e40a	-0.0101251695
204	0xbbb4aa33	-0.0055134534
205	0xbb0cc0af	-0.0021477153
206	0xbbd63b6e	-0.0065378463
207	0x3bf07e73	0.0073392927
208	0xbd79d7c1	-0.060996775
209	0xbcb54ffd	-0.022132868
210	0xbd2c665d	-0.04208981
211	0xbdce03ab	-0.10059293
212	0xbca5fde1	-0.02026266
213	0x3d8996d0	0.06718218
214	0xbdb2d5b1	-0.08732165
215	0xbd1e6e65	-0.0386795
216	0x3f0408d1	0.5157595
217	0x3ebe4490	0.37161684
218	0x3e4fa5ae	0.20278046
219	0x3cf2a60e	0.029620197
220	0x3c4d0ef2	0.01251577
221	0xbcd91217	-0.026497884
222	0x3d616612	0.055028982
223	0x3c9f5492	0.019449506
224	0x3cb8f857	0.022579355
225	0x3cd6b9aa	0.026211578
226	0x3cdc30ac	0.026878677
227	0x3d148844	0.036262766
228	0x3ac61f8f	0.0015115606
229	0x3cef6943	0.029224997
230	0x3da06728	0.078321755
231	0xbd60aa01	-0.05484963
232	0xbda8b388	-0.08237368
233	0x3dafffbb	0.085936986
234	0xbd06749b	-0.032826047
235	0xbf804529	-1.0021106
236	0xbe36108f	-0.17779754
237	0xbe17368e	-0.14766905
238	0xbcb3581d	-0.021892602
239	0x3d0923f0	0.03348154
240	0xbe25a1cf	-0.16175006
241	0xbe663ae5	-0.22483404
242	0x3e2aa293	0.1666358
243	0xbddb9679	-0.1072206
244	0xbe38a823	-0.18032889
245	0x3e3419bf	0.17587946
246	0xbe854843	-0.26031694
247	0xbe86b013	-0.2630621
248	0x3e9c876a	0.30572063
249	0xbe93eebb	-0.28893074
250	0xbc48adf7	-0.012248508
251	0x3e357bb8	0.17722976
252	0x3f1d4709	0.61436516
253	0xbf3debfa	-0.74188197
254	0xbeed6615	-0.46366945
255	0x3baba55f	0.0052382196

conv.0.bias f4 [32]
0	0x3ea917f2	0.3302608
1	0x3df60b1b	0.12013837
2	0x3e96f327	0.29482386
3	0x3ed700e6	0.41992873
4	0x3e928a7f	0.2862129
5	0x3e967b7e	0.29391092
6	0xbc52feaa	-0.012878099
7	0xbe9f48f8	-0.31110358
8	0x3e731b3f	0.23740862
9	0xbd4a2079	-0.049347375
10	0xbe95cc8c	-0.2925762
11	0x3e805051	0.25061277
12	0xbe1f479e	-0.15554664
13	0x3e7bbf11	0.24584605
14	0x3dcdb029	0.100433655
15	0xbd0e5087	-0.034744766
16	0xbeb30db9	-0.34971407
17	0x3ea587ec	0.32330263
18	0xbe15289e	-0.14566275
19	0x3ea36e0c	0.31919897
20	0xbe1d1a91	-0.15342166
21	0x3e68889f	0.22708367
22	0x3e941668	0.28923345
23	0x3e9da549	0.30790165
24	0x3e94eea3	0.29088315
25	0x3d382528	0.04495731
26	0x3ed27489	0.41104534
27	0x3d605896	0.054771982
28	0x3eaa4569	0.3325608
29	0x3e8d7a8b	0.27632555
30	0xbd283fc3	-0.041076433
31	0x3e738f41	0.23785116

conv.2.weight f4 [32, 32, 3]
0	0xbdb6b87c	-0.08921906
1	0x3e0e8c94	0.13920814
2	0x3e31bd4c	0.17357367
3	0xbe96360a	-0.29338104
4	0xbdf23488	-0.11826426
5	0xbe4c9485	-0.1997853
6	0x3e28f757	0.16500603
7	0xbc8429f8	-0.016133294
8	0x3e82eda7	0.2557194
9	0x3d86bbc7	0.065787844
10	0xbd96f668	-0.07371217
11	0x3ec70bda	0.3887623
12	0xbee81444	-0.4532796
13	0x3fdcda1b	1.725406
14	0x3f42db4f	0.7611589
15	0xbdc09451	-0.09403289
16	0x3e4a004a	0.19726673
17	0xbe3e7e03	-0.18602757
18	0xbe406e5f	-0.18792103
19	0xbe073345	-0.13203152
20	0xbe1d65a5	-0.15370806
21	0x3f89b379	1.0757896
22	0xbe33471c	-0.17507595
23	0xbcaf53b5	-0.02140222
24	0x3f27ac90	0.65497684
25	0x3d5dc54f	0.054143246
26	0x3e355105	0.17706688
27	0xbd120309	-0.035647426
28	0xbce7b4cb	-0.028284451
29	0xbd1c4951	-0.038155857
30	0xbec6e5a2	-0.3884707
31	0xbed09925	-0.4074184
32	0xbd7b3b0f	-0.06133562
33	0xbd561df4	-0.05227466
34	0xbeef22bc	-0.46706188
35	0x3f3ecd27	0.7453179
36	0xbeffd595	-0.49967638
37	0xbea91f1d	-0.3303155
38	0xbe720849	-0.23635973
39	0x3e291f3e	0.16515824
40	0x3dc6f38f	0.09714424
41	0x3ea34d39	0.31894854
42	0x3dccbf9f	0.09997486
43	0x3de6e920	0.11274934
44	0x3e36bc16	0.17845187
45	0x3d974505	0.07386211
46	0x3cb1c283	0.021699196
47	0x3cefbadb	0.029263904
48	0x3e3042cb	0.1721298
49	0xbd063d98	-0.032773584
50	0x3e001ac1	0.12510206
51	0x3c344bdc	0.011004414
52	0x3e8a3dab	0.27000174
53	0xbcf33b84	-0.029691465
54	0xbe529ea9	-0.20568337
55	0xbd8ea0e4	-0.06964281
56	0x3e83b2bf	0.2572231
57	0xbd251bd4	-0.040309742
58	0x3e8c6d58	0.27427173
59	0x3de6091a	0.11232205
60	0xbe8cdf1a	-0.27513963
61	0xbea97a31	-0.33101037
62	0x3f11603f	0.56787485
63	0xbe76d93a	-0.24106303
64	0x3e290497	0.16505657
65	0x3cc48d83	0.02399326
66	0xbd898992	-0.067156926
67	0x3e2cb2fc	0.16865152
68	0x3e0fccbf	0.14042948
69	0xbde4dfc9	-0.11175496
70	0x3d19bb92	0.037532397
71	0x3e0f45b5	0.13991435
72	0x3e148695	0.14504464
73	0x3db32a32	0.087482825
74	0xbd8dc760	-0.069227934
75	0xbcec04c2	-0.028810862
76	0x3e6bf6b8	0.23043334
77	0xbdc11d53	-0.09429421
78	0xbea5ec7d	-0.3240699
79	0x3e9f8ee2	0.31163698
80	0x3e97da95	0.29658952
81	0xbdc43c0e	-0.09581767
82	0x3e84cd00	0.25937653
83	0xbee36553	-0.44413242
84	0xbdc321d6	-0.09527938
85	0x3ce2c445	0.02768148
86	0x3e5af2a1	0.21381618
87	0xbd04f504	-0.032460228
88	0x3dcfd2b7	0.101476125
89	0x3dc79d63	0.09746816
90	0xbe435494	-0.19075233
91	0xbe61d7d4	-0.22054988
92	0x3d72119e	0.059098832
93	0xbd5fe84d	-0.0546649
94	0x3d984372	0.07434739
95	0x3eb8fff7	0.36132786
96	0x3e204454	0.15651065
97	0x3e412c63	0.18864588
98	0xbed908ff	-0.42389676
99	0xbd890c3b	-0.06691786
100	0xbdb30669	-0.08741457
101	0x3b46dde3	0.0030344657
102	0x3ea13c1a	0.31491166
103	0xbd6df529	-0.05809513
104	0xba9ec39a	-0.0012112737
105	0x3ec8dd9e	0.3923158
106	0x3ed8f167	0.42371675
107	0x3e26dc92	0.16295078
108	0x3fc8575f	1.5651664
109	0xbef25eab	-0.4733785
110	0x3f713982	0.94228375
111	0xbe1995a0	-0.14998484
112	0x3c992dc8	0.018698588
113	0x3e00a039	0.1256112
114	0x3e41601b	0.18884318
115	0xbe7d3a71	-0.24729325
116	0xbc81b5c7	-0.015833749
117	0xbf02f156	-0.511495
118	0xbdbc991d	-0.092088915
119	0x3f6d92e9	0.9280229
120	0x3d19438b	0.03741793
121	0x3db22ad1	0.08699573
122	0x3ddf8c91	0.10915483
123	0xbe00b05c	-0.12567276
124	0xbdc588db	-0.09645244
125	0xbe5d4acc	-0.21610564
126	0xbf484ad1	-0.7823916
127	0xbe9fac92	-0.31186348
128	0xbe6fe89e	-0.2342858
129	0xbe41abfc	-0.18913263
130	0x3e94e1b5	0.2907845
131	0xbea56cf1	-0.32309678
132	0xbef74f9a	-0.4830292
133	0xbeb2ec54	-0.3494593
134	0xbef36210	-0.47535753
135	0xbe19ec79	-0.15031613
136	0xbda88e38	-0.08230251
137	0xbe83629a	-0.25661165
138	0xbd1c7ac7	-0.038203027
139	0xbc9d5ca7	-0.01920922
140	0xbec3e425	-0.38259998
141	0xbe53d9db	-0.20688574
142	0xbea4d905	-0.32196823
143	0x3d3e2238	0.046419352
144	0x3dc24b1d	0.09486983
145	0xbc328903	-0.010896924
146	0xbe0fead2	-0.1405442
147	0x3da6f800	0.08152771
148	0x3e3f0afe	0.18656537
149	0xbcd13c01	-0.025541307
150	0xbe474007	-0.19458018
151	0xbcf7de32	-0.030257318
152	0xbf4893a1	-0.78350264
153	0xbc17a216	-0.009254953
154	0x3d8e6cc1	0.06954337
155	0xbda8f1dd	-0.08249257
156	0xbe86f48d	-0.26358452
157	0x3eedd856	0.46454114
158	0xbf0d4c48	-0.5519452
159	0x3e9c367a	0.30510312
160	0xbdd53491	-0.10410417
161	0xbe9bd930	-0.30439138
162	0x3e8e310d	0.27771798
163	0xbda37326	-0.07980947
164	0x3de1aa1b	0.11018773
165	0x3e58b3cb	0.21162336
166	0xbd020bd6	-0.03174957
167	0xbe7dd220	-0.24787188
168	0x3e82f6ff	0.25579068
169	0xbe00c1cd	-0.12573929
170	0xbdcb0973	-0.09913912
171	0xbd3730b9	-0.0447242
172	0x3e2bde84	0.16784102
173	0xbb2c74e0	-0.002631478
174	0x3e9f891a	0.31159288
175	0x3e99d9c1	0.30048946
176	0xbf0b99f8	-0.5453181
177	0x3f1d07c8	0.6134
178	0xbe5bf51b	-0.21480219
179	0x3dfdee15	0.12398926
180	0x3e275ced	0.16344042
181	0x3e91cc25	0.28476062
182	0xbe336e37	-0.17522512
183	0x3d14803c	0.036255106
184	0x3d206e58	0.039167732
185	0xbdcaf0de	-0.09909223
186	0xbec6185c	-0.3869046
187	0x3d32346e	0.043507032
188	0x3dba7a9d	0.09105418
189	0x3e6a3382	0.22871211
190	0xbdc324fd	-0.09528539
191	0xbeaddc54	-0.3395716
192	0x3e0d324b	0.13788716
193	0xbb4495c6	-0.0029996498
194	0x3da4c44e	0.08045255
195	0x3de0f197	0.109835796
196	0xbd69692c	-0.056985065
197	0x3e79a1b8	0.24378097
198	0x3c9e6681	0.019335987
199	0xbd5f02d8	-0.05444607
200	0x3dfca305	0.12335781
201	0x3e252440	0.1612711
202	0x3e62db3c	0.22153944
203	0x3eed3304	0.46327984
204	0x3e43b128	0.19110548
205	0x3f02717f	0.5095443
206	0x3eb83252	0.3597589
207	0xbd40d0cc	-0.047074124
208	0xbd81f781	-0.06346036
209	0x3dbc1568	0.091837704
210	0xbcef4aae	-0.029210415
211	0xbd11e6fa	-0.035620667
212	0x3d5d1689	0.05397657
213	0xbd84ad19	-0.06478328
214	0xbe2e898e	-0.1704466
215	0xbd7b064e	-0.06128531
216	0x3eacaa10	0.33723497
217	0x3e807306	0.25087756
218	0x3f0a73ae	0.54082763
219	0xbd96df44	-0.07366803
220	0xbb617f08	-0.0034407992
221	0x3df6071d	0.120130755
222	0xbddaedca	-0.10689886
223	0xbe10de01	-0.14147188
224	0x3cc2914d	0.023750925
225	0x3d4b2c6f	0.049602922
226	0x3e0363a1	0.12830974
227	0x3eb5944e	0.3546471
228	0x3dae8ec5	0.08523325
229	0x3d8379ad	0.06419692
230	0xbd678395	-0.05652197
231	0xbdfd17c3	-0.12358048
232	0x3db690da	0.08914347
233	0x3e367ae9	0.17820324
234	0xbe04e7a2	-0.12978986
235	0x3d30bee3	0.043150794
236	0xbd9034c7	-0.070413165
237	0xbddca72c	-0.10774073
238	0x3dc6cab2	0.0970663
239	0xbdf8b3f1	-0.12143696
240	0xbd8a41f7	-0.06750863
241	0x3dab7836	0.08372538
242	0x3e24718e	0.16058943
243	0xbd4ab215	-0.04948624
244	0xbd459ccf	-0.048245247
245	0x3e61adec	0.22039002
246	0x3d682dab	0.056684177
247	0x3e84e91b	0.25959095
248	0xbcfd1c44	-0.030897267
249	0x3d91d038	0.07119793
250	0x3de26b22	0.1105559
251	0xbca9f85b	-0.020748308
252	0x3ddf4fc8	0.10903889
253	0x3e32ea1c	0.17472118
254	0x3d5ab642	0.05339647
255	0xbd23093c	-0.03980373

conv.2.bias f4 [32]
0	0xbd551339	-0.052020285
1	0xbd9270a9	-0.071503945
2	0x3d01b025	0.031662125
3	0xbd82e1d2	-0.06390728
4	0xbba44932	-0.0050136084
5	0x3d002f7f	0.031295296
6	0x3e2e3ae5	0.17014654
7	0x3cec02c1	0.028809907
8	0x3bec705e	0.0072155437
9	0xbcc2827b	-0.023743859
10	0x3e3039ce	0.1720955
11	0x3da5c612	0.080944195
12	0x3e3910ae	0.18072769
13	0x3e351697	0.17684399
14	0x3d6d5235	0.057939727
15	0x3d9bc52f	0.07605969
16	0xbddef718	-0.10886973
17	0x3dd608fc	0.104509324
18	0x3e13db25	0.14439066
19	0x3e14de70	0.14537978
20	0x3d9454df	0.072427504
21	0x3e244cd6	0.16044936
22	0xbda8ba54	-0.08238664
23	0xbd0f6448	-0.035007745
24	0x3e93d26f	0.28871486
25	0x3e829833	0.25506744
26	0x3ae60980	0.0017550439
27	0x3dd395cc	0.10331306
28	0x3d420788	0.047370464
29	0xbd5e9b04	-0.054347053
30	0x3d273e9b	0.04083119
31	0xbd05ff92	-0.032714434

conv.4.weight f4 [2, 32, 1]
0	0x3ff11844	1.883553
1	0x40015ce1	2.0212939
2	0xbd9af59d	-0.07566378
3	0xbccf7aab	-0.025327047
4	0xbfc6e457	-1.5538434
5	0x3d321ff7	0.043487515
6	0x3ebf82d9	0.37404516
7	0xbe04ab5d	-0.12955995
8	0x3ac00e19	0.0014652639
9	0x3bc27fb4	0.0059356336
10	0xbe34c8f9	-0.1765479
11	0xbe0962dc	-0.13416618
12	0xbfada6b0	-1.3566494
13	0xbc1336a2	-0.008985193
14	0x3ccee8c1	0.02525747
15	0x3eca2275	0.39479414
16	0x3f8925f9	1.0714713
17	0xbc07d6d8	-0.008290969
18	0xbcf5ff17	-0.030028863
19	0xbce7ca9e	-0.028294858
20	0x3d1ba9bd	0.038003672
21	0x3f9bc985	1.2170874
22	0xbdb347bd	-0.08753917
23	0x3ec4ba84	0.3842355
24	0xbec0573b	-0.37566552
25	0xbbea4c13	-0.007150182
26	0x3dced540	0.10099268
27	0x3ea44d73	0.3209034
28	0x3c83eec4	0.016105063
29	0x3ee8fc68	0.4550507
30	0xc002c7d5	-2.0434468
31	0x3dae6dc2	0.085170284
32	0x3ee671cb	0.45008692
33	0x3f867794	1.0505242
34	0xbdeb6aac	-0.114949554
35	0x3dfb5513	0.12272086
36	0x3f2888de	0.6583384
37	0x3ca643d4	0.020296015
38	0x3f3b861c	0.7325151
39	0x3e1c52eb	0.15266006
40	0xbf0b10da	-0.5432259
41	0x3dfc42b5	0.12317411
42	0xbe6b4370	-0.22974944
43	0xbe33f02a	-0.17572084
44	0xbf3e8e31	-0.74435717
45	0xbeb3e688	-0.3513682
46	0xbec3cfc5	-0.38244453
47	0xbf0f1b2e	-0.5590085
48	0x3e25c7c3	0.16189484
49	0xbe9a837b	-0.30178437
50	0xbe8319e3	-0.25605687
51	0xbe905601	-0.28190616
52	0xbf6bc395	-0.9209531
53	0xbf6f19c2	-0.9339868
54	0x3c867aa9	0.01641591
55	0x3eb191ab	0.34681448
56	0xbe098058	-0.13427866
57	0xbec623c4	-0.38699162
58	0xbe91db22	-0.28487498
59	0xbe87745b	-0.2645596
60	0x3e0d1a9b	0.1377968
61	0xbe7e556a	-0.2483727
62	0x3f818d19	1.0121185
63	0x3d9e4033	0.07727089

conv.4.bias f4 [2]
0	0xbe9548f9	-0.29157236
1	0xbe2808b3	-0.16409568
