codebase/dqn_row_based/models/ct_like/model_cont.pth (torch, 503349 bytes, 18 tensors)

row_encoder.0.weight f4 [64, 1, 7]
000000 ea d2 1d be 4e 20 4d 3c 7c 39 40 be d6 f4 11 3e
       -0.15412489 0.012519909 -0.18771929 0.14253554
000010 49 e3 a4 be 68 db 8d 3e 13 a8 8c be b6 76 66 bf
       -0.32204655 0.27706456 -0.2747198 -0.9002489
000020 dd 3d 45 bf c8 3c 96 be 04 51 c8 be f6 94 41 3e
       -0.7704752 -0.29343247 -0.3912431 0.1890448
000030 ba cb a4 ba ac 79 5d 3e b4 9d ba be 65 b9 6b be
       -0.0012572922 0.21628445 -0.36448443 -0.23019941
000040 61 b0 ba be 32 ad 83 3e 77 f2 1e bc 76 4b 81 3e
       -0.3646269 0.25718075 -0.009701363 0.25252885
000050 16 eb ef 3e d7 1c 0e 3e 5b 64 1f 3e 13 76 cd 3e
       0.46859044 0.13878189 0.15565626 0.40129146
000060 58 e7 53 be 62 19 43 3d 8f 0c 49 be 24 16 b8 3e
       -0.2069372 0.04763163 -0.19633697 0.35954392
000070 31 b6 43 3e df 3d 0a bf 29 17 4f 3e 0e d2 84 3d
       0.1911247 -0.5400066 0.20223679 0.06485377
000080 ba 40 8e bc 72 e6 29 bd 20 24 36 3e f8 2a 64 bf
       -0.017364848 -0.041479535 0.17787218 -0.89128065
000090 45 d8 e3 bf eb e1 0f c0 d3 b1 3d bf b3 c1 72 3e
       -1.7800375 -2.248164 -0.74099463 0.23706703
0000a0 d7 fe 09 3e 08 b2 a9 bc bf 1c c6 bd a8 94 b1 3e
       0.1347612 -0.020714775 -0.09673452 0.34683728
0000b0 79 f9 a0 bd a8 9c 1a be 4a 8b 82 be b1 5a 85 bd
       -0.07860083 -0.15098822 -0.25496894 -0.06511439
0000c0 c9 fd b3 3e 1a 60 89 3e 5e 74 07 3e cb eb 2c 3d
       0.3515456 0.26831132 0.13227984 0.042217057
0000d0 eb ff 63 3c 3f d5 0f 3d c0 b8 3e be 1d e9 07 bf
       0.013915996 0.035115477 -0.18625164 -0.5309008
0000e0 f1 58 6f be 1d 2f a5 3e 5c 13 b9 3c 7e c3 9c be
       -0.23373772 0.32262507 0.02259224 -0.306179
0000f0 42 2f 74 3d f6 e5 9f 3e d0 df b6 be 70 c2 b5 be
       0.05961538 0.31230134 -0.3571763 -0.35499907
000100 b8 8e 78 be 07 c4 99 bd 04 62 58 be b0 88 63 be
       -0.24273193 -0.075080924 -0.2113114 -0.22220111
000110 35 74 16 bf 61 fe 7a bd a5 6a c8 3e 77 79 8b 3e
       -0.5877107 -0.06127775 0.39143863 0.27241108
000120 ad 8d 7c be 1d 43 94 be 17 2f 3c 3e 2a 8c 45 3d
       -0.2466342 -0.28957453 0.18377338 0.048229374
000130 10 06 57 3e da 5f fa be 58 7c c6 bd a1 f7 5c 3e
       0.20998406 -0.48901254 -0.096916854 0.21578838
000140 1f be fa 3d f7 24 17 bd 56 f0 d0 3c ac c3 db bd
       0.12243294 -0.036900487 0.025505226 -0.10730681
000150 6b 0d 86 be 5d 9e 2c be 94 c1 71 be 25 93 a1 3e
       -0.26182112 -0.16857286 -0.23609 0.31557575
000160 0e a9 5a 3e 1b 64 01 3e ff 29 b0 be b3 bf 94 3e
       0.21353552 0.12635843 -0.3440704 0.29052505
000170 8f c5 ec 3d 8f a4 4f 3e 5a b2 8a be f6 9c a0 bc
       0.11561119 0.20277618 -0.27089196 -0.019606095
000180 ed 58 a7 3e fa 3d 8e 3e 98 0a d9 3e a4 9b 58 bb
       0.32685032 0.2778166 0.42390895 -0.0033051753
000190 b4 01 ac 3e 15 b3 a3 be 20 d2 bf bd 78 3b c8 be
       0.3359505 -0.31972566 -0.0936625 -0.3910787
0001a0 21 d6 90 be 10 7f cc bd fb 4a 0d 3d f4 3a b7 3e
       -0.28288367 -0.09985173 0.034495335 0.35787165
0001b0 25 30 4c 3e f7 22 5e 3a 9f 34 86 3e a8 2e 5b be
       0.1994024 0.0008473838 0.26212022 -0.21404517
0001c0 25 95 1d 3e c2 d4 9e bd 75 ce cd bd 48 6e af bb
       0.15388925 -0.07755424 -0.10049144 -0.0053537227
0001d0 82 21 bf be 9e cd 5f bd 11 5a 71 3d c7 65 97 3e
       -0.37330252 -0.05463945 0.058923785 0.29569837
0001e0 3a 29 54 be b3 e2 8b 3d ed 21 a8 3e 27 b2 84 be
       -0.20718852 0.06830349 0.32838383 -0.2591717
0001f0 2e 05 5f 3e 4f be ac be 72 6f 9b 3d c1 ec 34 3d
       0.2177932 -0.33738944 0.07589616 0.0441711
000200 31 bf c6 3b e5 2e 43 3e 15 6f 8d be 5a 47 a2 bc
       0.0060652723 0.19060858 -0.2762381 -0.019809414
000210 77 4f c0 bd e3 a2 a9 be 52 9d bf bd 8e 9c 72 be
       -0.09390157 -0.33132085 -0.09356178 -0.23692533
000220 77 03 57 3e 4a b7 a8 3d 1b 52 8a 3d d7 57 dc bd
       0.20997415 0.082380846 0.067539416 -0.107589416
000230 d0 37 ee 3a 01 c5 f0 bd 2a 6b de 3d 4a f0 bb 3e
       0.0018174592 -0.117563255 0.10860284 0.36706764
000240 7b 7f 6a 3d d7 6c 2b be 86 69 6c be e0 96 b9 bb
       0.05725048 -0.16740738 -0.23087129 -0.0056637377
000250 f2 12 98 be e3 a3 98 be cd bc 7a be cc c8 c8 bd
       -0.29701954 -0.29812536 -0.24486084 -0.09803924
000260 c1 9a ed 3d 40 97 f2 3e 04 ea 15 3e f4 41 94 3e
       0.116017826 0.4738102 0.14640051 0.28956568
000270 c6 04 73 be 15 a5 02 3d a6 03 ac be 98 06 5e 3e
       -0.2373229 0.031895716 -0.33596534 0.21682203
000280 f9 52 a1 3d 60 43 7d 3e c8 c0 d5 be 84 af 2b 3e
       0.07877154 0.24732733 -0.41748643 0.16766173
000290 3a 6d 59 3e d5 fe 49 3e 39 1f 96 bd 2a dc 99 3e
       0.21233073 0.19726117 -0.07330174 0.30050784
0002a0 8d 05 d2 3e d1 27 cc 3e 9f 9b c8 3c 35 c6 a7 be
       0.4101986 0.39874128 0.024488268 -0.32768407
0002b0 fd ef 8a bd 14 24 4b bc 20 cd de be cf 04 5e be
       -0.067840554 -0.012398738 -0.43515873 -0.21681522
0002c0 d5 88 b9 be a2 ac 07 be 38 91 a8 3e f7 5c 84 3d
       -0.36237207 -0.13249448 0.32923293 0.06463044
0002d0 13 1f bd bc 72 ae 78 3c 99 55 71 3e 76 e3 aa be
       -0.023086106 0.01517831 0.23567809 -0.33376664
0002e0 fb 50 95 be 8a ad 00 be fb be 5e be 90 a0 47 3e
       -0.29163346 -0.125662 -0.21752541 0.19494843
0002f0 8b bc 88 3e 87 c1 bb be 11 3c a4 be 7b 73 bc be
       0.26706347 -0.36671087 -0.32077077 -0.36806855
000300 cc 02 12 3e f1 c0 9b 3e c8 0a 96 be 3d 2e 33 be
       0.1425888 0.3042064 -0.293051 -0.17498107
000310 6c db ea 3d ab 3d 81 be 26 7c a1 3e 3e cd a8 3d
       0.11467633 -0.2524236 0.3154003 0.08242272
000320 58 2d e3 bd d2 35 9a 3c ef 8a e5 3d 63 dc 08 be
       -0.11092633 0.018824492 0.1120814 -0.13365321
000330 cb f2 95 be 0e 7f 26 3b 37 98 e1 3b b7 bf f9 3b
       -0.292868 0.002540532 0.0068846005 0.007621731
000340 bf eb 61 bd 5c 81 78 3e fd 02 d8 bd 51 d9 15 bd
       -0.055156466 0.24268097 -0.10547445 -0.036584202
000350 ee 24 1f 3e 5b 9d 73 be a5 43 cf 3d c8 28 ab bd
       0.15541431 -0.23790495 0.10120324 -0.08357388
000360 96 a6 39 3e c2 df d2 bd ee 7c e8 3d 81 f3 de 3d
       0.18129954 -0.10296585 0.113519534 0.108862884
000370 03 bd 9e be cf 7a be be bb 3e 9f 3c 2e 12 7b be
       -0.3100358 -0.3720307 0.019439092 -0.24518654
000380 06 2c 14 3f f6 b9 24 be e8 fa 74 be 70 2e e8 be
       0.57879674 -0.16086563 -0.23923838 -0.4534793
000390 37 e8 21 3e 80 18 eb 3d e0 55 05 bc 84 c8 80 bd
       0.15811239 0.114792824 -0.00813815 -0.06288245
0003a0 52 43 97 be d0 85 db 3d dd 5a 1a 3c 95 8c 85 be
       -0.2954355 0.10718882 0.009421078 -0.26083818
0003b0 01 a3 11 3e f1 ed f8 bb 08 29 bb be bd 31 50 3e
       0.14222337 -0.007596724 -0.36554742 0.20331474
0003c0 36 05 4f 3e c7 d7 91 bd b1 9c 85 be c8 a1 78 3c
       0.20216832 -0.071212344 -0.2609611 0.01517529
0003d0 4e 06 92 3e ae e2 91 3e fd dc b9 be 68 bf 83 be
       0.28520435 0.28493255 -0.36301413 -0.2573197
0003e0 8e 3c 5d 3e 23 6b e1 3d 97 1b 25 3e 69 e6 93 be
       0.21605131 0.11006763 0.16123806 -0.28886726
0003f0 e6 b8 a6 3e 9b 15 9f be 07 25 95 bc 6a 93 00 3c
       0.3256294 -0.3107117 -0.018206133 0.007847646

row_encoder.0.bias f4 [64]
000000 4d 0a 97 be 02 7c 34 3e c9 da d2 3c 31 25 aa be
       -0.29500046 0.1762543 0.02573909 -0.332315
000010 4c c0 bb bb 9b 29 4a 3e 61 b9 ab bb 86 aa 0d 3e
       -0.0057297107 0.19742434 -0.0052406047 0.13834581
000020 f6 64 1b be 7a 91 b9 3e a3 07 63 be 26 78 51 3e
       -0.15175232 0.36243802 -0.22170882 0.20455989
000030 0a 73 45 3e 0b d8 0a bf 28 7b a5 3d f4 05 4d be
       0.19282165 -0.54235905 0.08080131 -0.20021802
000040 6c d9 81 3e 4f 54 7f bc 1f 9e c2 3d c2 de 76 3e
       0.25361192 -0.015584066 0.095028155 0.24108413
000050 97 39 95 be 2e f8 2c 3e 39 56 a8 be 1c c0 e2 bd
       -0.291455 0.16891548 -0.32878283 -0.11071798
000060 89 3f ac bc ff fd b4 be 08 47 b6 be f5 92 ba be
       -0.02102639 -0.35350034 -0.35601068 -0.36440244
000070 0b a3 98 be a2 43 58 be 04 24 ff bd 12 f7 73 3e
       -0.29811892 -0.2111955 -0.12458041 0.23824719
000080 9a 02 31 bb 1a 9a bf be 7f 90 8c be 11 40 a3 3d
       -0.0027009607 -0.37422258 -0.27453992 0.07971204
000090 33 d5 bc be 3c 14 03 be 76 c5 9c be 7c 6f 87 3e
       -0.36881408 -0.12800688 -0.306194 0.26452243
0000a0 b0 82 1a 3e ff e3 da ba c0 da 53 be 13 1c 48 bc
       0.15088916 -0.0016700028 -0.20688915 -0.012213725
0000b0 86 9f a3 3c f3 1b 1d 3e 88 b1 36 bc 4e 74 34 be
       0.019973528 0.15342693 -0.011150725 -0.17622492
0000c0 e9 4b bc 3c 1e f2 1d 3d 1e 20 54 3c 18 54 e1 3c
       0.022985416 0.03856098 0.01294711 0.02750592
0000d0 87 bb 77 be 29 bf aa bb 8d b9 8e bb 88 67 d8 bb
       -0.2419263 -0.0052107763 -0.0043556155 -0.0066041388
0000e0 56 ec 6c be 5b 4b 97 be 91 8e 96 be 55 92 db 3d
       -0.2313703 -0.2954968 -0.29405645 0.1072127
0000f0 15 b6 54 3e ae 81 8a 3e c8 46 13 3c 13 14 d6 bd
       0.20772584 0.27052063 0.0089890435 -0.104530476

row_encoder.2.weight f4 [64, 64, 5]
000000 13 b2 28 3c 4c 6d 62 bd d2 77 d3 3b fc 2a 97 bc
       0.010296362 -0.055280015 0.0064534927 -0.018453114
000010 27 0f 8b bb d8 26 1e be 80 0e 84 bc 36 67 e8 3c
       -0.0042437497 -0.15444505 -0.016120195 0.028369527
000020 51 d2 c7 3d 31 f4 d9 3c a4 b7 b2 3d cb b6 fb 3b
       0.097569115 0.026605697 0.08726433 0.0076817027
000030 7d 39 8a bd d4 88 a0 bd 27 cc 47 be 83 43 04 be
       -0.06749246 -0.07838598 -0.19511472 -0.12916379
000040 24 99 ef bc 4e e4 76 bd b3 1b 5d bd 91 15 0f bd
       -0.029247828 -0.060276322 -0.053981494 -0.034932677
000050 55 eb 3b 3d 93 e2 3e bc 59 04 d9 3c cd 92 02 bd
       0.045878727 -0.011650699 0.026491331 -0.03187828
000060 c9 7a 05 3d d2 aa 97 be 75 52 50 be 22 fb 29 bc
       0.0325878 -0.29622513 -0.20343955 -0.010374816
000070 0f 99 00 3e 76 9f b0 3c 35 1a 05 3d a2 3b bd 3d
       0.12558387 0.021560412 0.032495696 0.0923989
000080 b3 44 bb 3c b6 59 24 bd 7a fd 81 bd 5a 60 36 3d
       0.022859907 -0.040124618 -0.06347175 0.04452548
000090 f3 51 cd 3d 54 36 44 3d 4a 09 28 3d 97 e5 05 3d
       0.10025396 0.047903374 0.041024484 0.032689657
0000a0 55 d0 4a 3d 96 69 83 3c 7a 6f 4f bd 66 20 54 3d
       0.049515087 0.016041558 -0.05064342 0.05178871
0000b0 fe a3 0b 3d dc 93 15 be 16 00 c5 bd c3 bd c0 bd
       0.034091942 -0.14607185 -0.09619157 -0.09411194
0000c0 a7 df 2c be 07 fe 17 be 12 1f 7e be 73 10 67 be
       -0.16882192 -0.14842997 -0.2481654 -0.22564869
0000d0 02 99 38 be 9e f5 56 be 67 01 ba bd 2f 60 c7 3d
       -0.18027118 -0.20992133 -0.09082299 0.097351424
0000e0 82 af 9e 3d d4 7c b5 3d 67 c4 0a bb 28 14 b5 3d
       0.07748319 0.088617 -0.0021174194 0.08841735
0000f0 93 9f e1 3b 8d 7d 76 bc 0b fc 7b bb 22 81 40 3d
       0.006885478 -0.015044582 -0.003844979 0.04699815
000100 3c d0 5e 3d 3e f5 05 be d9 72 05 be 32 81 0d be
       0.054397807 -0.13081834 -0.13032092 -0.13818815
000110 5f 8c 60 be b6 f2 31 be f6 96 75 be c1 46 be be
       -0.21928547 -0.17377743 -0.23983368 -0.37163356
000120 d8 c4 df be 98 58 c6 be 2c 5d 28 bf 2a 00 bd 3d
       -0.43704867 -0.38739467 -0.6576717 0.09228547
000130 5b 81 d4 bb bf b0 11 3d ab 9a 30 3d aa c0 ad bc
       -0.006485147 0.03556895 0.043116253 -0.021210033
000140 74 82 f1 3c 09 1d a0 3d 19 c2 d2 3d 39 4c 6c 3d
       0.02948115 0.07818038 0.102909274 0.05768988
000150 69 88 b2 3d 59 a1 97 3d 7c cb 7a 3d df 94 e1 3d
       0.087174244 0.074038215 0.061229214 0.11014723
000160 0f bc 3f 3c ef e3 84 bc 1d d4 b2 3d bb ea b1 3d
       0.0117025515 -0.016221968 0.08731864 0.086873494
000170 ac 5f 09 3e 0c 45 01 3e 78 06 bf 3d 72 f3 40 3d
       0.13415402 0.12623996 0.09327406 0.047107168
000180 8c 2f 33 3d 7d 7b 97 3c 17 31 fd bc c4 f4 96 3b
       0.043746516 0.018491501 -0.030907197 0.004606815
000190 8e 61 42 bd df a5 22 3d e9 86 f7 bc 8a 8c 34 bd
       -0.047456317 0.03970897 -0.030215697 -0.04407934
0001a0 00 40 f0 bb 2a e4 58 ba f6 bf f4 3c ed 81 15 3d
       -0.007331848 -0.0008273745 0.02987669 0.03650086
0001b0 79 2a 15 bd 34 69 12 be 29 b5 07 bd a6 a6 41 bd
       -0.03641746 -0.14297944 -0.033131752 -0.04727807
0001c0 8a a1 88 bc a5 da 1d 3d 2b d2 17 bd 65 65 13 3d
       -0.01667859 0.038538594 -0.037065666 0.03598537
0001d0 c6 60 e0 3d 4d 4f c0 3d d3 12 8e 3d 4d 7e b1 3d
       0.10955958 0.093901254 0.06937184 0.08666668
0001e0 ed 66 53 3e e8 28 dc 3c 91 55 b0 bc be 1b cb bd
       0.20644732 0.026874974 -0.021525176 -0.09917401
0001f0 b5 de fa be 7f a7 30 3d f1 27 23 bd 6d 7a 9a ba
       -0.48998037 0.043128487 -0.039833013 -0.0011785753
000200 95 1f 39 3d 8d 58 93 3c 85 b3 33 bd 6a 0e 15 3c
       0.045196135 0.01798656 -0.043872375 0.009097675
000210 09 03 03 bc 44 29 bd 3c 4c f7 00 3d f1 0e 22 bd
       -0.007996329 0.023090966 0.03148584 -0.03956503
000220 1a d2 96 bc f3 47 3e 3d 28 f8 26 bd 31 9a 4f bc
       -0.018410731 0.046455335 -0.040764004 -0.012671039
000230 d1 54 c9 bc cb 60 a1 bc e5 0b 64 bc 3e b5 d1 3c
       -0.024576576 -0.019699475 -0.0139188515 0.025599118
000240 dd 2d e6 3c 8c 1a a4 bc bb 3b d5 3b 7b 6d 54 bd
       0.028098041 -0.02003219 0.0065073646 -0.05186222
000250 39 f3 ac bc 15 30 ab bb 51 f5 04 bb 5b 23 27 3c
       -0.021112071 -0.0052242377 -0.0020287822 0.0102013005
000260 65 12 49 3b 58 33 88 bc cf e1 24 3d 71 79 c1 bd
       0.003068113 -0.016626045 0.04025441 -0.09446991
000270 6e 4c 36 bd 1d d2 9c bd 75 7c 0a be e6 e1 33 be
       -0.044506483 -0.076572634 -0.13524039 -0.17566642
000280 df f8 6a be 0a d7 29 3f 3c 32 b3 3f ac 48 64 3f
       -0.229465 0.6634375 1.3999705 0.8917339
000290 57 12 45 3e 03 b8 5b 3d 7d 2f 61 bd b8 48 5f 3c
       0.19245277 0.053642284 -0.05497693 0.013628177
0002a0 63 3c 51 bd 2a ec cb bc 2d 1d b4 bb 73 06 3a 3d
       -0.05108298 -0.024892885 -0.005496642 0.045416307
0002b0 0e 67 be bc 4e fb 04 bd 46 44 6f bb 78 a4 5f 3c
       -0.0232425 -0.032466225 -0.00365092 0.013650052
0002c0 2c 14 c3 bc 6f 1e ae 3c cd 71 08 3d 9e c4 fd bc
       -0.02381333 0.021254746 0.033311654 -0.030977543
0002d0 6a d7 35 bd 93 04 22 bd 5c 97 d9 3c 28 5a 5f bb
       -0.044394888 -0.039555144 0.026561432 -0.0034080837
0002e0 b5 16 26 3d a2 d0 0a bb 06 61 18 3c 06 36 7f 3d
       0.040549 -0.0021181484 0.009300476 0.06230738
0002f0 9c 5a 08 3d 96 2f d2 bc ab 97 84 3a 0e b6 d5 3c
       0.033289537 -0.025657456 0.0010116001 0.026087787
000300 85 16 15 3c be fa a2 3d 52 47 ed 3c 35 02 0e 3c
       0.009099607 0.079579815 0.028964672 0.008667518
000310 7f f9 9d 3c 2c e2 88 3d 9e 85 ab bd ed 66 8e bd
       0.019284008 0.06683764 -0.08375095 -0.06953225
000320 75 51 2f 3d 89 b8 b0 3d 61 b8 cd 3d 91 27 e0 3d
       0.042802293 0.08628947 0.10044933 0.10945047
000330 af a1 46 3d 2d 0c 57 be 25 2b 92 be db 0a 81 be
       0.048494037 -0.21000738 -0.28548542 -0.25203595
000340 41 92 43 be 18 85 52 be e8 2d e9 3c 2f d7 51 bd
       -0.1909876 -0.20558584 0.028464273 -0.051230606
000350 25 f7 9b bd 86 22 99 bd 37 b5 0e be 69 88 67 bd
       -0.076154985 -0.07477288 -0.13936315 -0.056526575
000360 c4 68 32 bc 8c 39 ab 3c 91 b4 03 3e 1d 92 9d 3d
       -0.010889236 0.020901464 0.1286185 0.076938845
000370 46 d6 80 3d 47 16 bb bd a8 23 91 3d aa 4a f2 3c
       0.062908694 -0.091351084 0.07086879 0.029576618
000380 95 8e f4 bd 56 86 20 be 1e 3f 7d bd b9 29 e4 bd
       -0.11941258 -0.15676245 -0.06182777 -0.111407705
000390 77 61 27 be eb 25 66 be e5 fa 87 3d c9 83 cf 3c
       -0.16345774 -0.22475402 0.06639651 0.025331395
0003a0 c1 4a b9 3d bc 4e da 3d be f2 6e bb 9e d1 ce ba
       0.09047461 0.10659549 -0.0036460604 -0.0015779024
0003b0 ff 1d 33 bd 15 93 3e 3d c8 ab b4 bc 09 75 c9 3c
       -0.04372978 0.046526987 -0.022054568 0.02459194
0003c0 40 d4 a4 3d 3f 04 2c 3d 06 9a c4 bc 2e 38 9e 3c
       0.08048296 0.041996237 -0.023999225 0.019313898
0003d0 0b a9 e4 3b 31 46 e4 3d bb 79 75 3d 4e 5a 5a 3d
       0.0069781593 0.111462004 0.059930544 0.053308778
0003e0 b4 71 df bc 99 83 df bc 3a b6 10 bd 78 3d 0b bc
       -0.027275898 -0.02728443 -0.035330035 -0.008498542
0003f0 56 18 06 3e 35 34 44 3e 30 59 c3 3c 32 bd f2 3b
       0.13095221 0.1916054 0.023846239 0.0074078077

row_encoder.2.bias f4 [64]
000000 bb 2e c8 3d 03 5c b4 3b 0d 18 4d 3d 05 86 44 bd
       0.09774538 0.0055041327 0.050071765 -0.047979373
000010 b5 26 a1 bc 79 2e 17 bb fb 1b a3 3d 98 ae 5b bd
       -0.019671777 -0.0023068471 0.07964321 -0.053633302
000020 9a 7a 82 bc 5a 62 8d 3d aa e3 09 bd 58 f9 17 3b
       -0.015927602 0.06903525 -0.033664383 0.0023189392
000030 7c ad 4e 3d 43 cf 91 bb 61 b2 2b bd 99 83 2e bd
       0.050458416 -0.0044497564 -0.041918162 -0.04260597
000040 19 d6 d8 bb a8 0b 7c bc 01 70 3e bd 9c 1a a4 bc
       -0.0066173193 -0.015383638 -0.046493534 -0.02003222
000050 dc ed 3e bd 4d 1a 68 bd 99 d1 ab bc d4 4e 27 3d
       -0.04661356 -0.056665707 -0.020973967 0.04084666
000060 e4 b8 1a bd 40 30 b3 bb 2e 2d ea bc 8f a8 63 3d
       -0.03777398 -0.0054683983 -0.028585996 0.055580672
000070 94 38 71 3c f9 74 2d bc e9 55 be 3d 6b 7e 1e bd
       0.014722962 -0.0105869705 0.0929373 -0.03869478
000080 e4 31 54 bd fd ae 50 bc 10 af 43 3d bf 1b 93 3d
       -0.051805392 -0.012737033 0.047774374 0.071830265
000090 a5 ef 76 bc f9 77 ce bd 05 8d 67 bc 2d 1e 65 3c
       -0.015071784 -0.10081477 -0.014132743 0.013984245
0000a0 37 f8 5b 3c d2 1a 1d bd 54 f8 14 3d 33 a4 7f 3d
       0.013425878 -0.038355656 0.036369637 0.062412452
0000b0 3f 2f fb bc 3f 9b f4 bc 15 e5 8e 3d 87 72 0c bd
       -0.030662177 -0.029859183 0.06977288 -0.03428891
0000c0 b3 02 38 3d e0 b7 1c bd 84 ed cd bc 2e e0 c1 bc
       0.04492445 -0.038261294 -0.02513767 -0.023666468
0000d0 9d 8c d3 bc 00 03 88 3d ee 1a 5d bd 35 d2 a0 3d
       -0.025823886 0.06641197 -0.05398076 0.07852594
0000e0 3d d9 72 bd 0c 94 08 3d 28 e2 1e bd 0f 2a 21 bc
       -0.059289206 0.033344314 -0.0387899 -0.009836688
0000f0 cb 4b 38 bc cc 01 f0 3d 37 61 99 3c f7 6b 65 3d
       -0.011248539 0.11719093 0.018723113 0.056011166

history_encoder.0.weight f4 [32, 5, 7]
000000 17 be 9d 3e cd 42 ca bd f3 48 6b 3e 64 ee 47 be
       0.3080909 -0.098760225 0.22977047 -0.19524533
000010 6a d0 22 3e f3 cc 58 be c0 f9 1d be 6c 45 94 be
       0.15899816 -0.21171932 -0.15427303 -0.28959215
000020 ad fa a4 bc e7 b4 42 be 59 9d 90 3b 9a 9c 3f be
       -0.020139063 -0.19014321 0.0044132886 -0.18712083
000030 5a 35 08 3e 12 98 7d be fe a5 16 bd 7e 33 6b 3d
       0.13301602 -0.24765041 -0.036779396 0.057422154
000040 0b f5 5f 3d 34 3e 46 be e6 fb 0b be 11 7d 57 be
       0.05467705 -0.19359666 -0.1367031 -0.21043803
000050 02 46 db bd 78 ad 47 be d7 2f 7d be bb 00 92 3e
       -0.10706712 -0.19499767 -0.2472528 0.28516182
000060 8e e8 b4 3d b0 e8 a1 3d 73 8f 3e 3d 0e ed af bb
       0.08833419 0.0790571 0.046523523 -0.0053688353
000070 01 ea 6d be 50 dd fc 3d b4 e7 2f be 1e 56 20 3e
       -0.23233797 0.123468995 -0.17178231 0.15657851
000080 3d b8 e0 bd db 27 0c 3e c7 4e ca bd e3 68 01 be
       -0.10972641 0.13687079 -0.09878307 -0.12637667
000090 df 6f 80 3e fb 8a 25 be 64 5f d1 3d 0d 52 08 be
       0.2508535 -0.16166298 0.102232724 -0.1331255
0000a0 96 db 0a 3d d7 eb 03 bd bd 79 e3 bd 35 e7 56 bd
       0.03390082 -0.032207336 -0.11107204 -0.05246659
0000b0 81 ad 3d 3e fb a6 b0 be 83 74 a1 3d 6e 08 4e 3e
       0.18523218 -0.34502396 0.07883551 0.20120403
0000c0 64 45 78 3d ee bf 52 3d aa 6d 8b 3d 9c 49 fb bd
       0.06061305 0.05145257 0.06808026 -0.12269899
0000d0 de 36 ed 3c 8d f3 be bc 51 d3 67 bd e0 b8 62 be
       0.028956827 -0.023309493 -0.05659801 -0.22140837
0000e0 e0 c6 a9 be 3c 61 97 3d 58 94 0d b9 0a 85 3e be
       -0.33159542 0.07391593 -0.0001350207 -0.18605438
0000f0 d9 18 34 3d 8d dc 2c 3e 64 ff 43 3d 76 d6 73 3d
       0.04396901 0.16881008 0.04785098 0.059530698
000100 50 a0 31 3d 0e ad b7 bd a7 2c 7e 3d b6 82 20 be
       0.043365777 -0.089685544 0.062054303 -0.15674862
000110 57 ed 6a 3d 2e bb 63 3e 1f 8c ce 3c f3 ef a0 bd
       0.05735525 0.22239372 0.0252133 -0.07858267
000120 f3 be 2e bc 45 d6 0c be 42 5f 44 3e 81 cd 0a 3d
       -0.010665643 -0.13753612 0.19176963 0.03388739
000130 5f cd c4 3d 54 47 a9 be a2 74 23 3e 22 f2 b8 bd
       0.09609484 -0.33062232 0.1596246 -0.09030558
000140 20 b6 07 3e d3 ee 26 3d 64 c6 35 3d 14 a8 23 bd
       0.13253069 0.040755104 0.044378653 -0.039955214
000150 50 b4 0e 3e 8c d4 db bd 22 50 35 3e 7d 3b 23 3e
       0.13935971 -0.107338995 0.1770635 0.15940662
000160 ce ff bd bd a8 a3 3f bd 8f de e3 3d c9 6e c5 bd
       -0.092773065 -0.046786934 0.11126434 -0.09640271
000170 58 61 97 3d 0f fa 3a 3d 3b df 88 be 03 49 41 be
       0.07391614 0.04564863 -0.2673281 -0.18875508
000180 6a 07 46 3d 4c 1f 40 be f8 31 80 be 32 3d 37 bd
       0.048346914 -0.18761939 -0.25038123 -0.044736095
000190 d6 d4 c1 3d 90 64 06 be 5c 7e a5 bd 90 d0 96 3c
       0.09464423 -0.13124299 -0.08080742 0.018409997
0001a0 0a 6e f8 bd 7e 74 59 3b 32 4f 17 3b f0 36 aa ba
       -0.12130363 0.0033181007 0.0023087976 -0.0012986343
0001b0 f1 ac 61 3c bd 96 bd bb 13 86 96 bb f8 a3 85 3b
       0.013774143 -0.0057857917 -0.0045936196 0.0040783845
0001c0 c0 98 8a 3a c3 4c 86 ba 07 c5 c8 3b 70 d1 32 3d
       0.0010574088 -0.0010246265 0.006127003 0.043656766
0001d0 94 33 a7 bb 23 2e 97 3b 35 44 ee 3a d0 a4 09 3c
       -0.005102584 0.004613654 0.0018178286 0.008401111
0001e0 f5 47 d5 3b 04 d1 68 3c 51 b9 bd 3d 35 2b 38 bc
       0.006508822 0.014209989 0.09263862 -0.01124077
0001f0 86 57 45 3c 69 ec 79 3b 06 35 67 3b 92 2e b2 3c
       0.012044793 0.0038135296 0.0035279407 0.021750722
000200 8b 28 29 3d a8 e2 49 3e 9d b8 e0 bb 93 92 83 3c
       0.04129843 0.19715369 -0.006857945 0.016061103
000210 65 1b 51 3c f2 d8 b1 3c 58 4a 58 3d 2d 01 b2 3d
       0.012762879 0.021709893 0.052805275 0.086916305
000220 48 25 ca 3e 28 37 d3 bc 0c 4a e5 3c 76 e2 99 3c
       0.39481568 -0.025783136 0.02798941 0.018784743
000230 7f 44 8d bd b0 d9 c5 bd b1 8c e8 bd 70 d8 c3 bc
       -0.0689783 -0.09660661 -0.1135496 -0.023906916
000240 bf 47 40 3d 4e 69 1f 3e 92 6f 1f be 4f 1a 13 be
       0.046943422 0.15567514 -0.15569904 -0.14365505
000250 93 e0 16 bd f3 19 0a 3e f4 8d 07 be 28 01 1e 3e
       -0.036835264 0.13486461 -0.13237745 0.15430129
000260 21 83 f1 bd 97 49 75 3c 43 2c f9 3d ac e1 35 bd
       -0.11792589 0.0149711585 0.121666454 -0.04440467
000270 df 8e 97 bd 13 ae 89 3c 51 c3 ec bd 0e 90 14 bc
       -0.074002974 0.016806638 -0.11560691 -0.009067548
000280 68 79 06 3e a5 5b b2 3d d5 15 9a 3d fe e8 e0 3d
       0.1313225 0.08708886 0.075236954 0.1098194
000290 1d 57 f9 3d d3 24 bc bb 7d 95 93 3d 5c 87 14 bd
       0.12174819 -0.0057416945 0.07206247 -0.0362619
0002a0 22 0e 6f 3d 8a a2 6e bd e9 fa b6 bd 4d 6a d1 3d
       0.058363087 -0.058260478 -0.08934576 0.102253534
0002b0 71 d1 20 bd 43 9a f4 3b ff aa b1 3c 2c 9f 10 bc
       -0.03926224 0.0074646785 0.021687983 -0.008827012
0002c0 c5 e3 5f 3d 1f bb 97 bd e1 a4 c0 bc c0 ba cc bd
       0.054660577 -0.074087374 -0.02351612 -0.09996557
0002d0 6f f5 75 be ba a0 5a bd 23 85 4f bd e2 cc b7 3d
       -0.24019407 -0.053375937 -0.05066408 0.08974625
0002e0 ec 35 0f 3d 5b b6 d5 3d ca 1b cd bd 5a b2 19 bc
       0.034963533 0.10435172 -0.10015066 -0.009380901
0002f0 b3 3c e8 3d b6 d9 0a 3e 52 13 3e bd 9c 5a 0c be
       0.113397025 0.13559613 -0.046405144 -0.1370644
000300 bc ce 9d be d7 69 69 3e 68 17 56 be 5b 59 98 3c
       -0.30821788 0.22794281 -0.20907366 0.018597296
000310 ea c6 29 3e 33 91 39 3e d5 15 e0 3d 56 bc ec 3b
       0.16579786 0.18121795 0.10941664 0.0072246
000320 6a 8c 4d be b9 9c 31 bd 43 d8 c3 3d e9 35 07 be
       -0.20073095 -0.043362353 0.09562733 -0.13204159
000330 12 ae 52 be b1 4f 2a 3e e5 16 60 3d cc 85 53 3e
       -0.20574215 0.16631962 0.054709334 0.20656508
000340 49 b8 03 be 00 1c 41 3e d7 d8 45 be 19 ea 17 be
       -0.12863268 0.18858337 -0.19320999 -0.14835395
000350 bc f7 cb 3d 90 9f 4c be 8a e5 c1 bc 0a 7c 0a 3e
       0.09959361 -0.19982743 -0.023669023 0.1352388
000360 cf 3a f6 bd d7 3a d4 3d 11 a6 f1 bd 62 e2 48 be
       -0.120229356 0.10362785 -0.11799253 -0.19617608
000370 eb 1b 59 bd c9 c2 ad bc 91 f2 35 be cd 47 8b 3d
       -0.05300514 -0.021211045 -0.17768313 0.06800804
000380 f4 63 64 bd 6c f1 94 bd 6e 85 07 3e e8 3d 17 3e
       -0.055759385 -0.0727261 0.13234493 0.14769709
000390 53 34 b4 3d 46 3a 4d be 97 5d fa bc 37 07 ea 3b
       0.087990426 -0.20041761 -0.030562205 0.0071419734
0003a0 1e 4f 97 3c 23 16 32 be df c8 9e bd a6 9f 48 be
       0.018470343 -0.17391257 -0.07753157 -0.19592151
0003b0 cf 11 22 3e 9c ec ce bd 94 a7 71 3e 63 e8 c7 bd
       0.15827106 -0.101037234 0.23599082 -0.09761121
0003c0 d2 0c 6b 3e e3 af 01 bb 8f bd d6 be 21 d8 87 bc
       0.2295411 -0.0019788675 -0.41941497 -0.01658255
0003d0 f1 8f 82 3e 12 34 22 3e 3a d3 21 3e 83 d3 67 3d
       0.25500444 0.15840176 0.15803233 0.056598198
0003e0 67 3c 17 be 0b 4c 9e 3d 57 a4 e3 bd 9a b1 55 3e
       -0.14769135 0.07729348 -0.1111533 0.20868531
0003f0 a7 a3 cc be 84 2e f8 bd 39 37 c7 be 16 f6 da 3b
       -0.39968607 -0.12118247 -0.3890932 0.0066821678

history_encoder.0.bias f4 [32]
000000 32 7a 8b 3e 5d f7 a3 bd ea 5e fd 3d 0c 91 b5 bd
       0.27241665 -0.08006165 0.12371619 -0.08865556
000010 2e cd 90 3c 0a 71 0c be b4 e6 4c 3e 86 6b 20 bd
       0.017675962 -0.13714996 0.20009881 -0.039165042
000020 18 83 1e be cf 4a 1f bd 0f f8 2e 3d 56 ce 64 3c
       -0.15479696 -0.038889702 0.042717036 0.01396521
000030 53 6a 08 3e de 89 2b be 14 78 3c bd 68 90 22 3e
       0.1332181 -0.16751811 -0.046012953 0.15875399
000040 4a ff df bd 7c c5 16 3d ca b8 1d 3e 6f 59 47 3e
       -0.109373644 0.03680943 0.15402523 0.1946771
000050 d6 94 9b bd 2e 3f 96 3e 7a 95 77 3b 61 fb 12 be
       -0.075967476 0.29345077 0.0037778304 -0.14353706
000060 0c fd 0a be c2 9f 3f be 1b 78 98 3d 73 aa 57 3d
       -0.13573092 -0.18713287 0.07444783 0.052652787
000070 1a 45 a3 bc ff 67 52 bc a2 c4 72 3e ce 2b f2 3c
       -0.019930411 -0.012842177 0.23707822 0.029561903

history_encoder.2.weight f4 [32, 32, 5]
000000 4b 51 58 3d e4 6e 7d bd 22 6b fb 3c 8a 7a 05 bd
       0.052811902 -0.06187333 0.030690733 -0.032587565
000010 03 cb a8 3d 15 ef eb 3d 77 5f ac 3c 98 67 e1 bd
       0.082418464 0.11520211 0.021041615 -0.11006087
000020 11 17 e8 bc 00 f9 9b 3d 04 f4 98 bd 1d 18 06 3e
       -0.028331311 0.07615852 -0.07468417 0.13095136
000030 d3 9e bf bd 67 10 b1 bc 62 52 38 3c cd df d5 3c
       -0.09356465 -0.021614267 0.01125011 0.026107693
000040 fe b1 7a bc 0e b8 ad bd 88 be 35 be 39 74 88 bd
       -0.015301226 -0.08482371 -0.17748463 -0.06662793
000050 24 cb df bc 86 10 93 be 31 33 12 3c 7c c4 a8 3c
       -0.027318545 -0.28723544 0.008923338 0.020601504
000060 f3 cd 23 3d ed 61 6b bb bc 2d a3 3d 76 f2 96 3d
       0.03999133 -0.0035916523 0.079677075 0.073704645
000070 d2 cd c0 3d 8b f6 f2 3d ee 4a 07 be d1 3f 4d bc
       0.09414257 0.118634306 -0.13212177 -0.012527422
000080 76 f1 da 39 35 fd 01 3c 30 75 23 be e1 b2 db bd
       0.00041760103 0.007933904 -0.15962672 -0.10727478
000090 a5 e3 88 3d b1 46 a7 3c 25 34 c5 bd bd 90 23 3a
       0.06684045 0.02041945 -0.096290864 0.0006239524
0000a0 0a bf b1 bd a8 45 5a be ce 7b 28 3d fe 4a c6 3d
       -0.08679016 -0.21315634 0.041133694 0.096822724
0000b0 21 7c 65 bb fa 48 08 bd 4b 86 69 3c 07 13 60 3d
       -0.0035016614 -0.03327272 0.014253209 0.054705646
0000c0 55 56 84 3d 9d 88 62 bd 56 03 5e 3d da e7 c1 bd
       0.06461779 -0.055306066 0.0542024 -0.0946805
0000d0 6b 8b 2a 3d 6e fd 0a bd c5 12 22 bd 27 ce a8 3d
       0.041636866 -0.033933096 -0.03956868 0.082424454
0000e0 41 93 a6 3d f1 e6 13 bd 73 4d a9 bd 24 b9 03 3d
       0.08133555 -0.036108915 -0.082667254 0.032158986
0000f0 95 44 f7 3d bd e6 45 3c d8 72 bc bd 60 c8 d6 bd
       0.12073628 0.012078938 -0.09201592 -0.10487437
000100 b8 34 01 bd 46 f7 e9 3d 8a d6 0c bd b3 cb 58 bd
       -0.031544417 0.11424117 -0.034384288 -0.052928638
000110 cf e3 f9 bd f9 eb a6 bd 4d 98 75 3d 1c 9b e1 bc
       -0.12201654 -0.08150477 0.0599597 -0.027539782
000120 3b 16 ab 3b a2 cf a4 bd 63 3c 8f 3c 8f 91 eb bc
       0.005221156 -0.08047415 0.01748485 -0.028755931
000130 32 73 b0 3a ea 08 05 bd 35 df 26 bd 2c d9 ad 3d
       0.0013462065 -0.032479204 -0.04074021 0.08488688
000140 78 79 3e be f3 36 2d 3e e5 bb 1d bd 97 ee b7 3c
       -0.18601024 0.16915493 -0.03850927 0.022452636
000150 0f f3 46 be f9 3b 9b bd 7b 2a 05 3e 49 39 02 3e
       -0.19428657 -0.07579798 0.13004486 0.12717165
000160 0e 6f 75 3d 38 a0 ee bd c2 f3 0e 3d 2e 9d e1 3c
       0.059920363 -0.11651653 0.034900434 0.02754077
000170 9c 62 02 3e 00 59 95 ba 43 5c ba bd 27 8b 66 bd
       0.12732929 -0.0011394322 -0.09099629 -0.05628505
000180 a5 fc 53 3d c9 e6 3b be 93 b3 b0 bc 15 6d ab be
       0.051754612 -0.18349756 -0.021570003 -0.3348166
000190 51 89 1d 3c 5f 86 0a be 8a 56 af 3d 95 e1 1f bd
       0.009615258 -0.13527821 0.08561428 -0.03903349
0001a0 48 47 52 be 01 52 a0 bd e0 75 8e bc 01 f4 32 3d
       -0.20535004 -0.07828141 -0.017390192 0.04368973
0001b0 fe 62 9e bc cc 5d bb bd ae 45 b8 bd 6b d8 20 3e
       -0.019334313 -0.0914875 -0.08997665 0.15707557
0001c0 9a 24 fb bd c8 f6 9e 3d 96 7c f2 3d 96 58 6e 3c
       -0.122628406 0.077619135 0.11840169 0.014547488
0001d0 3a e5 76 bd c7 29 4c bd 16 71 ac bc e8 7c b0 ba
       -0.0602772 -0.04984453 -0.021050017 -0.0013464959
0001e0 ab e3 68 bc 9a fe 05 3e 17 45 75 bd 71 de f7 3c
       -0.0142144365 0.13085404 -0.059880342 0.030257436
0001f0 c0 ea 91 3c 9c dc b1 be 20 d0 90 3d 6c 55 e3 3d
       0.017812133 -0.34738624 0.07070947 0.11100277
000200 7b b3 8f be ed 3f ac bd 6e 5c 5e 3c 17 96 2d be
       -0.2806662 -0.084106304 0.013571842 -0.16951786
000210 cc b5 93 3d fa c5 ea bd a1 91 ff bc 62 c5 d0 be
       0.072124094 -0.11463542 -0.031197371 -0.4077559
000220 48 75 ae 3b ba 3d 1c bd 9e b9 b4 3d 44 f3 89 3d
       0.0053240396 -0.038144805 0.08824466 0.06735852
000230 47 cb 52 3d 00 35 7d 3d 6b df f2 bc 6f ce eb bd
       0.05146339 0.061818123 -0.02964755 -0.115139835
000240 4c 00 57 3d 82 e4 09 bd 80 dc 60 bc 41 9a 0b bd
       0.052490517 -0.033665188 -0.013724446 -0.034082655
000250 1b e6 14 3e 86 b0 fe bc d1 2a 4d ba 74 5a f4 bd
       0.14540903 -0.031090032 -0.00078265095 -0.11931315
000260 b4 ea 9f be 9f 19 01 bd 41 54 dc bc 13 22 43 bc
       -0.31233752 -0.031518575 -0.026895644 -0.011909979
000270 4f ba c8 3d 5e 3e 8a bc 62 9c 1a be 81 d6 e8 3c
       0.098011605 -0.016875442 -0.15098718 0.028422596
000280 eb 3f 52 3c ee 6d e7 3c d8 8b 08 bd e7 49 98 3c
       0.012832622 0.02825066 -0.03333649 0.018589927
000290 f7 64 c0 bc ed 88 bf bb 4a 57 9a bb b4 ab b7 3b
       -0.023485644 -0.0058451802 -0.0047101127 0.0056051854
0002a0 98 e7 13 3c 86 53 78 bb 44 52 b7 bc 41 3a cd 3c
       0.009027384 -0.003789158 -0.022378094 0.025052192
0002b0 2b c3 cc bb 2a a2 af bb f2 42 0b bc c8 f0 95 3d
       -0.006248852 -0.0053599076 -0.008499848 0.07321316
0002c0 6e 6b 66 3b e0 19 9f 3d 9e 35 8c 3d 14 ec 95 3d
       0.0035159248 0.07768607 0.06846164 0.07320419
0002d0 5d 5b bf 3c 81 04 88 3c f9 1a 89 bc 94 15 7a 3c
       0.023358995 0.01660371 -0.016736494 0.015263934
0002e0 07 3e 50 bc 66 11 c3 bb f0 bc 95 3c fa 75 e2 bc
       -0.012710101 -0.005953002 0.018278569 -0.027644146
0002f0 3b 76 e0 3b f2 7f dd ba 02 16 b0 bc 50 be 46 bd
       0.0068500317 -0.0016899093 -0.02149487 -0.04852134
000300 64 3a 8d bc 97 2b 0b 3a f9 c0 38 3c 9f e7 fa bc
       -0.017239757 0.00053089246 0.011276477 -0.030628024
000310 b3 46 82 bc ee d5 2b 3c 9a 6a 3e bc b6 d4 ac 3c
       -0.015902853 0.0104880165 -0.0116220955 0.021097522
000320 8a c0 a0 bc c3 0b 3c 3d 26 4c 77 3d 94 99 29 3c
       -0.01962306 0.045909654 0.060375355 0.010351557
000330 33 de a3 3b 08 87 10 3b 9d 8f ec 3c c6 5e 36 bb
       0.0050008534 0.002205314 0.028877074 -0.0027827485
000340 1c d9 fa bc 27 b6 fb bb a5 2a 38 bc 80 37 2c 3d
       -0.030621104 -0.0076816264 -0.011240636 0.042045116
000350 55 c2 aa bc 72 9f 3d 3b f1 91 ec bb 37 7f de 3a
       -0.020844618 0.0028934148 -0.007219546 0.0016975169
000360 70 23 0a 3a 0b 69 06 3d 27 b7 b4 bc df 9c 6b bd
       0.0005269563 0.03281502 -0.02205999 -0.05752265
000370 57 6c 62 bb 6a 07 b6 bc 7e 2e bd bc 2b 7f b8 3b
       -0.003454944 -0.022220332 -0.023093458 0.005630394
000380 c2 57 4e 3c 4d 60 0a 3d 9d 7e 8d 3b ae 8b e0 3c
       0.012594165 0.033783246 0.004318072 0.027410354
000390 0a 47 31 bd 08 e0 67 3c 95 f9 fc 3a c5 9c c1 bc
       -0.04328064 0.014152534 0.0019300455 -0.023634324
0003a0 d5 e4 14 3c 03 84 eb bc 56 34 ba bc ef 70 4f bc
       0.009087761 -0.028749472 -0.022730034 -0.012661203
0003b0 99 72 11 3d 6f db dd 3c 43 ae 74 bc b7 16 04 bd
       0.03550968 0.027082173 -0.014934125 -0.032248225
0003c0 b1 7a 71 bc 0d ce 2f 3c 63 31 23 3d ce 78 7b bc
       -0.014738725 0.010730279 0.03984202 -0.015348626
0003d0 70 9f 4c bb 97 3e ec bc 06 ea e8 bb e9 5f e6 3c
       -0.0031222962 -0.028838439 -0.007107976 0.028121905
0003e0 0b 35 74 bc 94 f2 1e bc ff bb 27 3a a3 42 9f 3b
       -0.014905225 -0.00970139 0.0006398558 0.0048602386
0003f0 8b f7 1b bd e4 5c 08 bb e4 06 db bc f6 a8 43 bc
       -0.038077872 -0.002080732 -0.026736684 -0.011942139

history_encoder.2.bias f4 [32]
000000 b5 c4 d0 3d ac 27 cf bd 73 77 dc 3c d2 57 c6 3a
       0.10193769 -0.10114989 0.026912427 0.0015132374
000010 e6 59 7b bd 10 64 56 bc 78 ae cd bd a0 c7 eb bc
       -0.06136503 -0.01308538 -0.10043043 -0.028781712
000020 a0 75 12 3c 4d a0 48 39 41 48 01 bd 4b 5d f9 3c
       0.008939177 0.00019133203 -0.031563047 0.030439993
000030 21 45 59 bd be a4 48 3e af 2d 29 3d 50 19 ee bd
       -0.053044442 0.19594094 0.041303333 -0.11625922
000040 c1 51 04 3d fe 36 1c 3d 9f 0c 22 bd 3d 82 22 3d
       0.03230453 0.038138382 -0.039562818 0.039674986
000050 33 e5 89 bb ca e3 64 bd 6b 78 ba bc c7 3d a9 3d
       -0.004208231 -0.0558813 -0.022762498 0.08263736
000060 fa a8 57 bd cc 64 ea bc d7 35 8e bd fe eb 4a bd
       -0.052651383 -0.028612517 -0.06943863 -0.049541466
000070 f4 64 cc bd 40 ea c5 bd 36 44 a3 bd 9b 6f 00 bd
       -0.09980193 -0.0966382 -0.079719946 -0.031356435

attention.0.weight f4 [64, 96, 1]
000000 8a 63 18 be c8 f0 c1 bc 24 f0 91 be eb 2e bf 3e
       -0.14881721 -0.023674384 -0.28503525 0.37340483
000010 c3 3a 80 bd f9 ae 4c 3f 9f 09 6d 3d 96 05 c6 bd
       -0.06261208 0.7995449 0.057870504 -0.09669034
000020 44 12 b9 3c 74 a9 ec bb 3b 7a b7 bd 60 1c 75 bd
       0.022591718 -0.007222349 -0.089588605 -0.059841514
000030 a4 0b 69 be db d4 e8 3e 44 66 a8 3e 94 5f 91 3d
       -0.22758347 0.45474896 0.32890522 0.07098308
000040 01 69 01 bf df 91 28 3f 4e 7d d2 3b 61 31 c6 3d
       -0.5055085 0.6584758 0.006423629 0.09677387
000050 b3 ff 17 bd dd b1 f1 3e 73 f8 af 3e 73 84 c4 bd
       -0.03710909 0.4720601 0.3436924 -0.09595575
000060 1b 68 ab 3e 46 79 74 bd 5b 54 ba 3d 02 c5 6e be
       0.33477864 -0.059685968 0.09098121 -0.2331734
000070 db f8 b7 3d 17 ee d9 3b 18 a2 9b 3d ea 8f cb 3e
       0.08983012 0.006650697 0.07599276 0.39758235
000080 56 3a 9e 3e 2b 24 08 bd c0 a3 f9 3e b9 32 1d be
       0.30903882 -0.033237617 0.48757744 -0.1535138
000090 05 53 bc bd 7b d0 d3 3e c3 d1 c0 bc 56 25 0b 3d
       -0.09195522 0.41369995 -0.023537522 0.033971153
0000a0 16 b2 8d bd a8 ee cd 3c 9e 73 c8 3e e0 ec 45 bd
       -0.06918733 0.025138214 0.3915071 -0.048321605
0000b0 58 f7 54 3f 65 49 ad 3e 28 26 55 3d de f9 ad 3d
       0.83189917 0.33845058 0.05203834 0.08494924
0000c0 70 21 ec 3e bc ce 88 bd 02 7a a7 3d af 82 a2 3e
       0.4611926 -0.066800565 0.08177568 0.3174033
0000d0 81 17 b7 bd da 11 35 3e 69 73 9e 3d d7 c1 66 bf
       -0.0894003 0.17682591 0.077368565 -0.90139526
0000e0 f5 4a bf 3c 5f aa 3a 3e 97 0a a2 3d da 77 44 3d
       0.023351172 0.18229054 0.07912176 0.04796586
0000f0 fc 16 81 bb ee 73 20 3e f8 96 c4 3d 8b 10 78 be
       -0.0039395075 0.15669224 0.095991075 -0.2422506
000100 1c f4 ac 3d 83 39 ad 3e f9 a6 09 3e fc 7e ca bd
       0.08444998 0.3383294 0.13442601 -0.098875016
000110 c8 2f 83 3e a3 09 4b 3d f8 af d3 3e f6 4d 4b 3e
       0.25622392 0.049569737 0.4134519 0.19853958
000120 f8 22 89 3e a2 e6 54 3e 64 3f 44 3e 03 e7 d8 3b
       0.26784492 0.20791104 0.19164807 0.0066193356
000130 aa f2 bd bd 9d dc de 3d af 1b a2 bd c7 41 8c 3d
       -0.092748 0.108819224 -0.079154365 0.068484835
000140 81 58 99 3d ae c1 2f 3d 03 6f 98 3e 35 b5 8b bc
       0.07487584 0.042909317 0.29772195 -0.01705418
000150 55 38 9b 3e d7 8b 82 bd f3 15 ea bd 7e be 22 be
       0.30316415 -0.063743286 -0.11429968 -0.1589298
000160 3e 78 95 bd 56 a7 92 bd a4 61 d2 3d d1 71 4a be
       -0.07298325 -0.07160823 0.1027253 -0.1976998
000170 3d 4b 05 3e 7a b6 cd be f0 0b ee bb 2f cf f8 3e
       0.13016982 -0.4017828 -0.0072646067 0.4859557
000180 7d a0 10 bf 7b d8 9b be 6e a7 eb 3e 0c 99 09 3d
       -0.56494886 -0.304386 0.46026176 0.033593222
000190 ef 99 cd 3c e0 66 d0 be ce 17 c4 bd 36 b2 28 3d
       0.025097815 -0.40703487 -0.09574853 0.04118558
0001a0 93 b1 36 38 2b fc c3 bd 56 31 04 3a c1 c6 c8 bd
       4.355756e-05 -0.095695816 0.0005042752 -0.09803534
0001b0 93 1e 8e be 85 35 b8 bf dc 26 ad be 0d 21 9c 3d
       -0.277577 -1.4391333 -0.3381871 0.076234914
0001c0 4e 53 8a 3d 52 a2 80 bd a9 0e b0 bd 72 b9 bc bd
       0.0675417 -0.0628096 -0.08596546 -0.092150584
0001d0 c4 2c 48 bf 50 f2 0a bf 6b a7 5b 3e b7 5c bf 3d
       -0.78193307 -0.5427599 0.21450584 0.09343856
0001e0 13 7a 9e be 65 5e 37 bd c0 c7 f1 3a 96 0c b0 be
       -0.3095251 -0.044767756 0.0018446371 -0.34384602
0001f0 eb 2a a0 3e 10 ac 00 3b 9b 87 07 bd 3d 66 de be
       0.31282744 0.0019633807 -0.033088308 -0.43437377
000200 31 e6 25 3e 88 00 de bd c0 1e 49 bf 83 7a 8b 3e
       0.16201092 -0.10839945 -0.78562546 0.27241907
000210 68 0f 2e bf ca 1a 92 3e b3 61 79 3d 0a 48 6b 3d
       -0.6799226 0.28536063 0.06088419 0.05744175
000220 2a 6a 33 bd 1d 96 0b bd f2 5e 58 3e 38 8a aa 3d
       -0.043802418 -0.034078706 0.21129969 0.083271444
000230 4f 20 0f bf 11 a8 60 be e1 d1 2d 3e 6c e8 e8 3c
       -0.55908674 -0.21939112 0.16974594 0.02843114
000240 fb 94 b4 3d 57 6f 83 3c 02 06 25 bd 44 ce 93 3e
       0.08817478 0.016044302 -0.040288933 0.28868306
000250 5d 45 a3 bd 24 64 66 be 7c ba 9e 3d 07 74 af 3e
       -0.07972214 -0.22499138 0.07750413 0.3426821
000260 0e 45 5b 3b 85 b9 43 bf e8 ad d7 3a 5c 75 b9 bd
       0.0033457908 -0.76454955 0.0016455026 -0.09055588
000270 4e 25 9a 3d 21 a3 f5 3d 5c b0 38 bd 4b 32 c7 3e
       0.075266466 0.11994005 -0.045090064 0.38905558
000280 1c 62 94 be 2d a3 d9 3c b2 e8 00 3e 6b 9c 03 be
       -0.28981102 0.026567066 0.12588766 -0.12852637
000290 34 64 16 3c cd ba 2e 3d 4f 12 4f be 07 82 43 3d
       0.009179164 0.042658616 -0.20221828 0.047731426
0002a0 d1 76 c0 be a9 f4 b5 be 90 09 26 3d 67 a1 a3 3a
       -0.3759065 -0.35538223 0.040536463 0.0012484015
0002b0 97 1e f2 bc 5f 8b d2 bd 5d e3 ac be 43 20 25 be
       -0.029555602 -0.10280489 -0.33767214 -0.16125588
0002c0 ee cd 8e 3e b9 5a 1d be 0e f2 1d be ec ed 6c be
       0.27891487 -0.15366639 -0.15424368 -0.23137635
0002d0 cd 65 f2 bd 4c 02 5a 3e b4 79 b1 be 25 74 f8 bd
       -0.11835823 0.21289939 -0.34663165 -0.12131528
0002e0 5f 1d 72 3d 85 12 2a be cb 61 75 3d 0d de 1f 3e
       0.05911004 -0.16608627 0.059907716 0.1561205
0002f0 ed d8 87 be 23 27 ea bc 3a 36 46 bd 66 ac 85 3d
       -0.2653269 -0.028583115 -0.04839156 0.06527023
000300 cb 45 09 3e ff e0 6f 3d 6c e8 2c bd 5a ae 47 3e
       0.1340553 0.058564182 -0.042213842 0.19500104
000310 d8 c2 02 bd 17 af ff 3e 51 d1 25 3d d8 58 d1 3d
       -0.0319241 0.4993827 0.040482823 0.10222024
000320 6e 5d 45 3d 9e a7 cf bc f3 13 9d 3d 4f 84 44 3d
       0.048184805 -0.02534848 0.07669821 0.04797774
000330 7d 40 e3 3d d9 ba dc 3e c0 50 78 3d ce 2a 2c 3d
       0.110962845 0.43111303 0.060623884 0.04203301
000340 9e 42 c6 3e 96 88 13 3e a6 bb 93 bd 51 5e 7b 3d
       0.387227 0.14407572 -0.072135255 0.061369244
000350 a9 8b 1c 3e 4d 84 b2 3e 88 b2 07 3d 21 1c 2f 3e
       0.15287651 0.34866562 0.033129245 0.17100574
000360 fa e8 1f 3e 28 fe ee bd 68 22 cd bd f1 5d 08 3b
       0.15616217 -0.1166957 -0.10016328 0.0020807947
000370 c0 a5 87 3e b3 df 94 3d aa d7 12 3e 2e 82 5b 3d
       0.26493645 0.0726923 0.14340082 0.053590946
000380 d5 e1 06 3f d7 67 60 3d 1c a5 1f 3e 43 45 5b bd
       0.5268834 0.05478653 0.15590328 -0.05353285
000390 74 73 29 3e 7c c7 3b be 8e b8 3f bd 7e 4d 24 3d
       0.16547948 -0.18337816 -0.046806864 0.040112965
0003a0 bc 83 66 3c ab 8e 05 3e d5 6c 18 3e 25 ae 80 3c
       0.014069494 0.13042705 0.14885266 0.015708039
0003b0 57 e0 5c bd b0 05 53 3e a8 75 c9 3d 49 d7 b6 bd
       -0.053924885 0.20607638 0.09836894 -0.08927781
0003c0 38 5e 4b 3e 8c f0 ab 3d 93 b6 2d bd 47 8f 5d bc
       0.1986016 0.0839549 -0.042410444 -0.0135229295
0003d0 12 a6 8b 3d 94 62 ce 3d 11 e5 ef bc 50 50 38 3e
       0.06818785 0.10077396 -0.029284032 0.17999387
0003e0 ca 50 91 3c 96 c3 8d 3e 7d ab 3f 3d 11 c3 99 3d
       0.017738719 0.27688283 0.046794403 0.07507909
0003f0 64 84 b7 3c 0a 85 b9 3d fb 90 4a bd 86 17 a3 3e
       0.022401996 0.09058578 -0.04945467 0.31853884

attention.0.bias f4 [64]
000000 ef b6 f8 bd a1 ef 06 3d f6 0e 9c bd 3f 08 b2 3d
       -0.12144267 0.03294337 -0.07620041 0.08692979
000010 9a 8b 14 be b3 b1 1e 3e 45 af 8d bd a4 0b a8 3d
       -0.14506379 0.15497474 -0.06918196 0.08205345
000020 69 75 04 be bb e4 97 3c e3 26 fb 3d f9 96 d8 bd
       -0.12935413 0.018541684 0.122632764 -0.10575671
000030 fb 17 9d 3d d8 57 93 3d ed 57 82 3d 0a 04 15 3d
       0.076705895 0.07194489 0.06364427 0.036380805
000040 2f b6 ab bd 26 35 d6 bd 98 d4 6e 3d 15 d4 b8 bd
       -0.08384358 -0.10459356 0.058308214 -0.090248264
000050 b1 2f 5f 3d d5 36 1f 3e 93 2f d2 bc 99 38 06 bd
       0.05448884 0.1554826 -0.02565745 -0.03276882
000060 96 3d a0 bd 27 36 dd bd 6c 50 0d 3e 70 5b 9a 3d
       -0.078242466 -0.10801344 0.1380021 0.075369716
000070 fc 19 55 bc ac 7f 91 bd 29 0b 8b bd af 98 b8 3e
       -0.013006683 -0.071044296 -0.06789238 0.36053988
000080 df 59 5a 3c 11 0e 09 3e c9 05 8d bd 90 e7 98 be
       0.013327091 0.13384272 -0.06885869 -0.29864168
000090 7b 34 fe 3d 49 5c de 3c cf be 7b 3e 38 08 0f 3e
       0.124123536 0.027143614 0.24584506 0.13967979
0000a0 a3 19 0a 3d a4 ea cb 3d 11 5d 5c 3c fc bc af 3d
       0.033715855 0.099568635 0.013449923 0.08580968
0000b0 b4 6f ee bd 60 38 b1 bd fc 58 29 3e 33 9d 2f 3e
       -0.116423994 -0.08653331 0.16537851 0.1714981
0000c0 74 73 50 3d b9 15 a1 be 5b 02 4e 3d b1 f9 2b 3c
       0.050891355 -0.31461886 0.050295215 0.010496543
0000d0 d8 d0 c1 3d 57 71 9a bd 64 d4 cb 3c 4b 17 05 3e
       0.09463662 -0.07541149 0.02488155 0.12997167
0000e0 1b 7e 11 bd 1d e2 f6 bd 26 b4 bd bd 2f e1 3e bc
       -0.035520654 -0.120548464 -0.09262876 -0.011650368
0000f0 83 cb 7b bc d8 25 f8 bb 88 93 76 3e 8a 20 98 3c
       -0.015368345 -0.0075728707 0.24079716 0.018570203

attention.2.weight f4 [64, 64, 1]
000000 61 d5 58 be 33 2a 96 3d c7 61 0c be 21 52 1a 3d
       -0.21175148 0.073322676 -0.13709174 0.03767598
000010 6b b0 a7 be 8e b7 ed bd a4 b1 ac be c7 e1 10 be
       -0.32751784 -0.11607276 -0.3372928 -0.14148627
000020 c3 02 8d be 60 57 3e be 2c a8 02 be 95 28 ba 3d
       -0.2754117 -0.18588018 -0.12759465 0.09089772
000030 1a 7b 53 bd 26 43 0c be 47 f0 7d bd 18 86 06 3f
       -0.05163107 -0.1369749 -0.061996724 0.5254836
000040 ea 41 40 bf 90 9c 34 bc 9f dd 44 3c 86 3d f2 3d
       -0.75100577 -0.0110236555 0.012015729 0.11828141
000050 24 76 4a be 81 2d 3f be 52 20 64 be c1 ab 60 be
       -0.1977163 -0.18669702 -0.22277954 -0.21940519
000060 f0 27 07 bd cd bf 7c 3c 43 32 32 bc b3 e6 40 be
       -0.03299707 0.015426588 -0.010876241 -0.18838005
000070 d8 32 05 be 28 48 9a be 58 91 6a bd 2a 2d dc bd
       -0.13007677 -0.30133176 -0.057267517 -0.10750802
000080 c6 62 cc bc 20 6f 3b be 1d 00 16 be ea 10 69 3f
       -0.024949443 -0.1830411 -0.1464848 0.91041434
000090 86 ee 36 bd 17 e6 5b bd 67 1e 18 3d 47 df e3 bc
       -0.044661067 -0.053686228 0.03713837 -0.027816428
0000a0 b1 e3 2b bc 0a 8e 3b be c8 a3 bc bd 49 a8 f6 3c
       -0.010491298 -0.18315902 -0.09210926 0.030109541
0000b0 2f bd 8e be d9 08 ec bb 01 33 6a bd c2 87 0b be
       -0.2787871 -0.007203203 -0.057177547 -0.13626006
0000c0 5a 66 1c bb cd a1 5b 3f 96 f6 8c bd 63 09 3d be
       -0.0023864717 0.85793763 -0.0688297 -0.18460612
0000d0 73 f8 0c be 27 7b 26 be 36 99 40 be d7 a4 4e 3e
       -0.13766651 -0.16257916 -0.18808445 0.20180069
0000e0 54 32 9c be ff d7 06 bf 45 f7 4a be 94 05 98 bd
       -0.30507147 -0.52673334 -0.19820888 -0.07422939
0000f0 eb a6 31 be 46 5f d2 bd 01 9a 7e bd 05 08 09 be
       -0.1734883 -0.10272078 -0.06215859 -0.13381965
000100 6e c0 b6 bd 1b f4 85 3e ca 60 ca bd 5c 23 db 3e
       -0.08923422 0.261628 -0.09881742 0.42800415
000110 b8 7e ad be 5f 91 33 3d 06 36 77 be 52 fe a8 3e
       -0.3388574 0.04383981 -0.24141702 0.3300653
000120 d8 2b cc bd d4 e9 22 3e 58 e0 6e be af 8b e5 3d
       -0.099693 0.15909511 -0.23327768 0.11208283
000130 e7 75 16 be 50 ee b8 bd c2 fe 3e be b5 70 b9 3e
       -0.14693414 -0.090298295 -0.1865187 0.362188
000140 c7 57 6e bd 6e 59 00 3e ff 1b 3f be 7c 8c 4d bd
       -0.05818918 0.12534115 -0.18663023 -0.050182804
000150 e7 3d b9 bd 42 5f ee bd 3f 3f bc 3e c3 85 a4 3c
       -0.0904501 -0.11639263 0.36767003 0.020083314
000160 cc 24 cd bd 43 28 a6 3c 96 dd 11 be e0 3e be 3e
       -0.10016784 0.02028287 -0.14244685 0.37157345
000170 93 b2 4a be 4a 84 6d be 53 1b 22 3d 42 b3 ed bd
       -0.19794683 -0.23194996 0.03957684 -0.11606456
000180 f9 ee be bd 16 34 03 be 99 59 89 be a2 eb e8 bd
       -0.09322924 -0.12812838 -0.2682617 -0.113730684
000190 22 39 25 bd a2 75 2f bc 85 57 2a bd 36 33 d4 bc
       -0.04033769 -0.010709198 -0.04158737 -0.025903326
0001a0 a5 75 34 be d4 d2 58 bd 17 8f 3d be 67 49 5c be
       -0.17623003 -0.052935436 -0.18511616 -0.21512376
0001b0 cf cd 3c bd bc bc 75 3c 48 5c dd bd 27 06 d8 bd
       -0.046094712 0.014998611 -0.10808617 -0.105480485
0001c0 7b c7 da bd 04 c8 1c bf ab 79 72 bd 91 8a 44 be
       -0.10682579 -0.612427 -0.059198063 -0.19193484
0001d0 9a fe fc bd 05 6f c3 3e 25 7d c0 3d f4 e3 d3 3e
       -0.12353249 0.3817064 0.093988694 0.41384852
0001e0 fd b3 a7 3d 43 9a 17 bf 6c 36 1f 3e fe fa e5 bc
       0.08188627 -0.5921976 0.15548104 -0.028073784
0001f0 93 7a 0d be 4c 47 e9 bd a2 8e 4c bb 85 93 f6 bc
       -0.1381629 -0.11390552 -0.0031212945 -0.03009964
000200 2d ce 24 be 74 bd 7a 3f ae 3c 7e be 3d 36 f4 3e
       -0.16094275 0.9794533 -0.24827835 0.4769763
000210 00 34 9a 3f 86 17 61 3d ed b9 7a be ba a8 01 bd
       1.2047119 0.054954074 -0.24484988 -0.03165505
000220 f0 ce 48 be 15 08 c9 be 1f 00 22 3f 56 6b bf 3d
       -0.1961019 -0.3926398 0.63281435 0.093466446
000230 6c 18 f9 3c 5b 3f ed be 07 3e 10 3e 9c 76 95 bf
       0.030407153 -0.463374 0.14086162 -1.1676822
000240 71 af 21 be 94 e9 4b 3d e5 ff c4 3e a8 23 7f 3b
       -0.15789582 0.049783304 0.38476482 0.0038931165
000250 90 28 84 3e bd f2 a0 3e 56 84 db be 13 0c 1f 3e
       0.25812197 0.31435195 -0.42874402 0.1553195
000260 39 2a 12 bf 14 67 d4 3d 14 1f 8d 3d e5 21 dc 3e
       -0.57095677 0.10371223 0.06890693 0.4299461
000270 15 63 68 ba a1 9f 2d be 32 48 bb 3d 6c 6e b5 3e
       -0.0008864862 -0.16955425 0.091446295 0.35435808
000280 e7 25 e7 3e a6 02 a0 3e f9 34 09 bf 02 29 6d bf
       0.45146105 0.3125202 -0.53596455 -0.926407
000290 96 4a 5c 3e 72 e4 16 3e 92 b1 ae 3e 5c 9c 12 3e
       0.21512827 0.14735582 0.3411985 0.14317459
0002a0 5e 51 77 3d 64 d6 84 3e 30 41 e1 3e e7 ba ff 3d
       0.060380332 0.25944817 0.43995047 0.12486821
0002b0 a6 77 8f be 2f 78 4e 3d dd 29 82 be a8 dd 7a 3e
       -0.28020972 0.050407585 -0.25422564 0.24498618
0002c0 94 41 c0 3e b9 7c 25 c0 4f 51 3f be ae 59 40 3e
       0.37550032 -2.5857375 -0.1868336 0.1878421
0002d0 31 39 45 3e 72 a8 4f be 14 7e 34 3e e5 8e 38 3f
       0.19260098 -0.202791 0.1762622 0.7209304
0002e0 17 7b 05 3e 37 66 84 3f 31 02 65 bf d2 a5 99 3e
       0.13035236 1.0343693 -0.8945647 0.30009323
0002f0 39 f3 35 3e 60 99 fe 3e 51 4b fa 3c 69 5a d9 bd
       0.17768563 0.4972639 0.030553492 -0.106129475
000300 d6 33 07 bf 29 c7 5d 3f cb 89 b2 bd 04 5b 3d 3f
       -0.5281347 0.8663202 -0.08717688 0.73967004
000310 dd fc 92 bc 9e 40 ab 3e 91 fc 99 bd 09 b0 f2 be
       -0.01794284 0.33447737 -0.07518876 -0.4739993
000320 7a 7b b7 be 3b ff 67 be d8 d0 42 3d d9 4c 20 3d
       -0.35836393 -0.22655956 0.04756245 0.039135788
000330 f2 f1 11 3e 85 28 30 3f ca d2 e3 bd 9b bc de be
       0.14252451 0.6881183 -0.11124189 -0.4350327
000340 3d f9 10 be f1 23 b0 bd 5f 91 8b 3e de a0 99 bd
       -0.14157577 -0.08600605 0.27259347 -0.07501386
000350 90 a2 b3 3d a4 31 41 3e 63 a3 ce 3e d8 38 67 3e
       0.08771241 0.18866593 0.4035903 0.22580278
000360 03 8b 07 bf 83 9e 9f 3d 4d 5a a0 3e 7b 95 99 bf
       -0.5294649 0.077939056 0.31318894 -1.1998743
000370 4b c8 fb bc e9 55 82 be 68 dc b4 3d 38 15 ac 3e
       -0.030735156 -0.2545617 0.08831102 0.3360994
000380 93 1f 49 3f c1 39 5e 3e a4 3e 22 be 53 7f 53 3e
       0.78563803 0.21701719 -0.15844208 0.20654039
000390 32 e7 ce 3d c6 24 41 3e 90 22 37 be 2f 3f 23 3d
       0.10102691 0.18861684 -0.17884278 0.03985518
0003a0 44 ec 65 be a7 32 cf 3e f7 69 28 be 86 99 32 3e
       -0.2245341 0.40468332 -0.16446672 0.17441377
0003b0 c1 02 73 be 4e 59 a7 bc a9 c8 7c bc 46 1a 08 3f
       -0.2373152 -0.020428326 -0.0154287005 0.5316509
0003c0 a5 31 77 3d ba 72 ba be 4c 8a 86 bd 2f 00 da 3b
       0.06035008 -0.36415654 -0.06569347 0.006652854
0003d0 1e 25 85 3d c5 08 34 bc bc ab 24 3f 79 b4 9a 3e
       0.0650122 -0.010988419 0.64324546 0.30215815
0003e0 4b 22 a9 bd 17 ea 93 bf db 4f af 3c 3a e7 83 3e
       -0.08258494 -1.1555814 0.021400383 0.2576235
0003f0 b5 06 44 3e c9 27 1c 3f a2 b4 25 3e c2 20 12 3f
       0.19143184 0.6099821 0.16182187 0.57081234
