codebase/dqn_row_based/models/ct_like/model_cont.pth (torch, 18233 bytes, 6 tensors)

conv.0.weight f4 [32, 6, 3]
0	0xbf9d7594	-1.2301507
1	0x3e091045	0.13385113
2	0xbe76210d	-0.24036045
3	0xbc1f89ee	-0.009737475
4	0xbd00e4d8	-0.031468242
5	0x3cab4628	0.020907477
6	0xbcd892ec	-0.026437245
7	0x3d008bdf	0.03138339
8	0xbd824329	-0.06360466
9	0xbd22b6cc	-0.03972511
10	0x3dd66538	0.10468525
11	0x3c616d32	0.013758944
12	0xbe9a3f60	-0.30126476
13	0xbd567138	-0.052354068
14	0xbe18c68f	-0.14919494
15	0x3e929b69	0.28634194
16	0x3e367fa0	0.17822123
17	0x3de98b31	0.11403502
18	0x3f3e5bec	0.7435901
19	0xbdfc12a5	-0.12308244
20	0xbf7256d5	-0.94663745
21	0xbd01124b	-0.031511586
22	0x3cfe87a6	0.031070542
23	0x3d8d51ef	0.06900393
24	0xbe48da11	-0.19614436
25	0xbd363396	-0.04448279
26	0xbe1b6756	-0.15176138
27	0x3d083032	0.033249088
28	0x3d902a8e	0.07039367
29	0xbd8a02d8	-0.06738824
30	0x3c7232fc	0.014782663
31	0xbe38e4d4	-0.18056041
32	0x3e887c92	0.2665754
33	0x3e01e49c	0.12684864
34	0x3e358ae2	0.17728761
35	0xbdc1aa3d	-0.094562985
36	0xbea47978	-0.32123923
37	0x3cc68cfd	0.02423715
38	0xbe3fa208	-0.18714154
39	0xbcf8f29d	-0.030389125
40	0xbd61c7fc	-0.05512236
41	0xbd2b9af5	-0.041895825
42	0xbd0f4bc5	-0.03498437
43	0xbbb14f6b	-0.0054110787
44	0xbd36b7c8	-0.04460886
45	0xbd30b91d	-0.043145288
46	0xbe26a33b	-0.16273205
47	0x3da5681e	0.080764994
48	0x3e9a9b93	0.3019682
49	0x3dfa741b	0.122291766
50	0x3e536309	0.20643248
51	0x3e53d1b0	0.20685458
52	0x3dfbbbc4	0.12291673
53	0x3e69e4dd	0.2284121
54	0xbd3c2c0b	-0.04594044
55	0xbe6fb1d0	-0.23407674
56	0xbe1d2731	-0.15346982
57	0x3e3bb75b	0.18331663
58	0xbb3eb51b	-0.0029099646
59	0xbe4384c4	-0.19093615
60	0x3ca93379	0.020654427
61	0x3e371038	0.1787728
62	0xbe641594	-0.22273856
63	0xbe321ae6	-0.17393073
64	0xbddf74f5	-0.1091098
65	0x3c1b003d	0.009460506
66	0xbd8fe164	-0.07025412
67	0xbd293984	-0.041314617
68	0xbe6b4c72	-0.2297838
69	0x3dc2a6d8	0.09504479
70	0x3e44910b	0.19195955
71	0x3e0baa2b	0.13639133
72	0xbe2aea09	-0.1669084
73	0xbe428f76	-0.19000039
74	0x3dc8732b	0.097875915
75	0x3bad755d	0.005293532
76	0x3dc5e192	0.09662165
77	0xbe6bd82a	-0.23031679
78	0xbc663fb7	-0.014053277
79	0x3e2a378d	0.16622753
80	0x3ddff041	0.10934497
81	0x3c0d0556	0.008607229
82	0x3d3dd2bc	0.04634355
83	0xbcb6d0b0	-0.022316307
84	0xbe04b514	-0.12959701
85	0xbdb66b3b	-0.08907171
86	0xbe12fb99	-0.1435379
87	0x3e4879a0	0.19577646
88	0x3e04d113	0.1297038
89	0x3da8d147	0.082430415
90	0xbe4a789c	-0.19772571
91	0x3e70a05b	0.23498671
92	0x3d367ce5	0.044552702
93	0x3e39772e	0.1811187
94	0xbddbbe80	-0.10729694
95	0x3db494a9	0.08817417
96	0x3e402ffd	0.18768306
97	0x3d343277	0.04399344
98	0x3deff1c7	0.11716037
99	0xbc9d040b	-0.019166967
100	0x3e318694	0.17336494
101	0xbe29d535	-0.16585238
102	0x3caf168c	0.021373056
103	0xbe30cfd1	-0.17266776
104	0xbdc2bb31	-0.0950836
105	0x3c5a4190	0.013321295
106	0xbb769a00	-0.0037628412
107	0x3e51754e	0.20454904
108	0xbf2e9169	-0.6819063
109	0x3c7e6f6c	0.015529495
110	0x3e93b6fe	0.2885055
111	0xbe897919	-0.26850203
112	0x3e12ab2f	0.14323114
113	0x3e0f1679	0.13973416
114	0xbe8182b0	-0.2529502
115	0x3e2c89ee	0.16849491
116	0x3dfb7249	0.122776575
117	0xbeab3e24	-0.33445847
118	0x3e7ca8f0	0.2467382
119	0x3dd03e50	0.10168135
120	0xbf03c19f	-0.5146732
121	0x3eb7cc0f	0.35897872
122	0xbd33b8f3	-0.043877553
123	0xbf7c3e8f	-0.98532957
124	0x3f2e1cba	0.68012583
125	0xbe40b9fe	-0.1882095
126	0x3dd4c79e	0.103896365
127	0x3dbd1adc	0.09233639
128	0x3d86d637	0.06583827
129	0x3e3ede16	0.18639407
130	0xbdc318f8	-0.09526247
131	0x3d7dbc2f	0.061947044
132	0x3aad6190	0.0013227928
133	0xbe358946	-0.17728147
134	0xbd6a6be3	-0.057231795
135	0xbe212f68	-0.1574074
136	0x3dd56fbb	0.104217015
137	0x3cad93e3	0.021188682
138	0x3cbd2843	0.023090487
139	0xbd92714d	-0.07150517
140	0x3a948e17	0.001133385
141	0xbd96256d	-0.07331357
142	0x3d8ab3cf	0.06772577
143	0x3e6a6692	0.2289069
144	0x3d123c35	0.03570195
145	0xbdd5ce03	-0.10439684
146	0xbe136dcd	-0.14397354
147	0x3c939813	0.01801685
148	0xbe330d25	-0.17485483
149	0xbe356aea	-0.17716566
150	0xbe1d1858	-0.15341318
151	0xbda3f3e6	-0.08005504
152	0x3c8eeb1f	0.017446099
153	0x3e2633e4	0.16230732
154	0x3dbaf9cc	0.09129676
155	0x3e38e8e5	0.18057592
156	0xbe178c7b	-0.14799683
157	0x3ca2f159	0.019890474
158	0xbe568a1a	-0.20951119
159	0x3e0a7517	0.13521229
160	0x3d4934df	0.049122687
161	0x3e697233	0.2279747
162	0xbfac60f8	-1.3467093
163	0x3f0ff0a1	0.56226546
164	0x3e99033d	0.29885283
165	0xbba46cd2	-0.005017855
166	0x3c9305d0	0.017947108
167	0xbdb54e32	-0.08852805
168	0x3b0513b2	0.0020305929
169	0xbd1e7700	-0.038687706
170	0xbdf9a40b	-0.12189492
171	0x3d43298a	0.047647037
172	0x3d81b3fb	0.06333157
173	0xbde807e1	-0.11329628
174	0xbe3a0628	-0.18166411
175	0xbe9b67d7	-0.3035266
176	0xbca2a47d	-0.019853825
177	0xbed6526a	-0.41859752
178	0xbf089405	-0.5335086
179	0xbef4d13e	-0.4781589
180	0xbc6be035	-0.014396717
181	0x3c1b1483	0.00946534
182	0x3e167f99	0.14697112
183	0xbe5522ac	-0.20814008
184	0xbe3a3aee	-0.18186542
185	0xbda07d52	-0.07836403
186	0xbe0ae813	-0.13565092
187	0x3df8fa97	0.12157171
188	0x3e2a8a56	0.16654333
189	0xbe6a2c3f	-0.22868441
190	0xbe4cd62a	-0.20003572
191	0xbe6b0a31	-0.22953106
192	0x3db61b8d	0.08891974
193	0x3e42424c	0.18970603
194	0xbe3b22a9	-0.1827494
195	0xbddf7a3e	-0.10911988
196	0x3d999c63	0.075005315
197	0xbe1d9a9d	-0.15391012
198	0x3b9c561a	0.0047710063
199	0xbe18bfa2	-0.14916852
200	0xbe12b0cc	-0.14325255
201	0xbe34f3c1	-0.1767111
202	0x3e0a96fa	0.13534155
203	0xbd57ef73	-0.05271859
204	0xbeb27c53	-0.34860477
205	0xbd05dba1	-0.032680158
206	0xbd958792	-0.073012486
207	0xbdf2ed40	-0.11861658
208	0xbc868ded	-0.016425097
209	0x3e0b2048	0.13586533
210	0xbe8ed50b	-0.27896914
211	0xbd2f6c3f	-0.04282784
212	0x3dffb78f	0.12486183
213	0xbed4c332	-0.41555172
214	0xbd8ae082	-0.06781103
215	0x3d83b5a7	0.06431132
216	0x3de78c12	0.11306013
217	0xbe02edc1	-0.12786008
218	0x3c0eb945	0.008711164
219	0x3cbce562	0.023058597
220	0xbe42325c	-0.18964523
221	0xbe2f809d	-0.17138906
222	0x3db920fe	0.09039496
223	0xbd8c7f90	-0.06860268
224	0x3e0f57a5	0.13998277
225	0xbe6e6dfd	-0.23284145
226	0xbdee9f16	-0.11651437
227	0xbe46cc5e	-0.19413897
228	0x3dc0d506	0.09415631
229	0xbbdfea15	-0.0068333247
230	0xbd341317	-0.043963518
231	0xbd209ef7	-0.0392141
232	0xbe3ca878	-0.1842364
233	0x3d88e57e	0.06684397
234	0xbe44a9d4	-0.1920541
235	0xbeaee9ee	-0.3416285
236	0x3f6ecd3c	0.9328191
237	0xbd213612	-0.039358206
238	0xbdcd3cf8	-0.100213945
239	0x3c05cd1a	0.008166576
240	0xbddc49dc	-0.10756275
241	0xbe5d7e1e	-0.21630141
242	0x3c88c938	0.016697511
243	0x3e447274	0.19184285
244	0x3e0603db	0.13087408
245	0x3de1dd37	0.110285215
246	0xbedc7139	-0.43055132
247	0xbde66d48	-0.112513125
248	0x3e52ea06	0.20597085
249	0x3cd89089	0.026436107
250	0x3d5724eb	0.052525442
251	0x3d8e1bb4	0.06938878
252	0x3e7d308b	0.24725549
253	0xbe8b8586	-0.27250308
254	0x3de293c5	0.11063341
255	0xbdfc5a63	-0.123219274

conv.0.bias f4 [32]
0	0x3eb70878	0.3574865
1	0x3d8e9c32	0.06963386
2	0x35bcea00	1.4075194e-06
3	0xbd76be2e	-0.060239963
4	0xbe61cf16	-0.22051653
5	0x3e8a3f69	0.27001503
6	0x3e58eb3c	0.21183485
7	0xbe5d79e8	-0.21628535
8	0xbe34f0b0	-0.1766994
9	0x3f3600de	0.71095073
10	0xbe67f2b0	-0.22651172
11	0x3ed60f06	0.41808337
12	0xbe4752fe	-0.19465253
13	0x3b88f915	0.0041800835
14	0x3e00d82e	0.12582466
15	0x3d9d7987	0.07689195
16	0xbd8615af	-0.065471046
17	0x3eae53a7	0.34048197
18	0x3e3befc1	0.18353178
19	0x3ea315a6	0.31852454
20	0x3eb3c230	0.3510909
21	0x3eb12b7e	0.34603494
22	0x3daee77a	0.085402444
23	0x3e9d9e95	0.3078505
24	0xbe12845b	-0.14308302
25	0xbedaf796	-0.42767018
26	0x3f2d0490	0.67585087
27	0xbd2822a2	-0.041048653
28	0x3ebfd305	0.37465683
29	0x3ebc86e0	0.3682165
30	0x3dc262f5	0.09491531
31	0x3ea43d90	0.32078218

conv.2.weight f4 [32, 32, 3]
0	0x3d066598	0.03281173
1	0xbcad2c7d	-0.021139378
2	0xbddf7935	-0.1091179
3	0xbd52844a	-0.051395692
4	0xbdc80faa	-0.09768613
5	0x3d7b8541	0.061406378
6	0xbd87b262	-0.06625821
7	0xbdbbdbfa	-0.091728166
8	0xbccb9431	-0.024850937
9	0x3d8172ce	0.063207254
10	0x3d458554	0.048222855
11	0x3cef501a	0.029213
12	0xbbcb84f4	-0.0062109176
13	0xbdbf1851	-0.0933081
14	0xbd77c464	-0.060490027
15	0xbdc78a2d	-0.09743152
16	0xbd2ac92a	-0.04169575
17	0x3d720961	0.059090976
18	0xbda1565e	-0.07877801
19	0xbd19df7d	-0.03756665
20	0x3db60b5e	0.08888887
21	0x3d8f9bd3	0.07012143
22	0x3d17fa0a	0.03710369
23	0x3d84ca12	0.06483854
24	0xbca9e47a	-0.020738829
25	0xbd606f42	-0.054793604
26	0x3d5333cb	0.051563065
27	0x3c86bedb	0.016448429
28	0xbd2fbf3e	-0.042906992
29	0x3d8a5035	0.067535795
30	0xbd94f0bd	-0.0727248
31	0xbb0d04c9	-0.0021517745
32	0x3da8fe66	0.08251648
33	0x3cb27f17	0.021789117
34	0xbdbafe75	-0.09130565
35	0x3bb2a1d3	0.00545142
36	0xbc6f319f	-0.014599233
37	0x3d2cae05	0.042158145
38	0x3d6b756a	0.05748502
39	0xbda97add	-0.082753874
40	0xbd34f1c0	-0.044175863
41	0x3d97d231	0.07413138
42	0xbdaf1584	-0.08549026
43	0xbd0c605b	-0.03427158
44	0xbd392fa2	-0.04521144
45	0xbd12bf67	-0.035827067
46	0xbcca70f0	-0.024712056
47	0x3d44e03a	0.0480654
48	0x3d578f3f	0.052626844
49	0xbd45acb3	-0.048260402
50	0x39c6c714	0.00037913828
51	0xbdc1eb46	-0.09468703
52	0xbd0a4c07	-0.03376391
53	0xbc71f36d	-0.01476751
54	0xbc771260	-0.015080065
55	0x3bed49da	0.00724147
56	0xbbc45490	-0.005991526
57	0xbd28027e	-0.041018
58	0x3d80aed0	0.06283343
59	0xbd34fad7	-0.044184532
60	0x3d904da8	0.07046062
61	0x3d492506	0.049107574
62	0xbc5bfc7b	-0.013426895
63	0xbd48c1f8	-0.049013108
64	0x3d51559b	0.05110703
65	0xbc2a5d15	-0.010398169
66	0xbd8853ca	-0.066566065
67	0x3d345ec5	0.04403569
68	0xbb5afa76	-0.0033413447
69	0x3db21dfe	0.08697127
70	0xbde42602	-0.11140062
71	0x3c6283e5	0.013825391
72	0xbdbf0160	-0.09326434
73	0xbd3a27ab	-0.045447987
74	0xbc246bba	-0.01003545
75	0x3d9468d7	0.07246559
76	0xbd5913bd	-0.05299734
77	0xbd9046d4	-0.070447594
78	0x3aa68067	0.0012703062
79	0x3acb1166	0.0015492856
80	0xbd8fbde1	-0.070186384
81	0xbc0ac5fa	-0.008470053
82	0x3d2e32d2	0.042528935
83	0xbd6335fa	-0.055471398
84	0xbdbcbb67	-0.09215432
85	0xbdab4829	-0.08363373
86	0x3d18602a	0.037201084
87	0xbc8cf47a	-0.01720642
88	0x3d80f58e	0.06296836
89	0xbca69cc2	-0.02033842
90	0xbc14e554	-0.009087879
91	0x3d96f2f6	0.0737056
92	0x3cb5bf79	0.022186028
93	0xbdaaa160	-0.08331561
94	0x3bfb0414	0.0076603983
95	0xbc6812c2	-0.014164628
96	0x3f395599	0.72396237
97	0x3f87daad	1.061361
98	0x3f51b9f7	0.81924385
99	0xbe9ee79d	-0.31036082
100	0xbf1ae8cd	-0.60511476
101	0xbe0685dc	-0.13137001
102	0xbdd63a0e	-0.10460292
103	0xbe1049ae	-0.14090607
104	0xbe5cdcad	-0.21568556
105	0x3c27c75a	0.0102404
106	0x3d1a1f21	0.037627343
107	0x3d3ee7b5	0.04660769
108	0xbcf9c132	-0.03048763
109	0xbab0b4c5	-0.0013481608
110	0xbd601510	-0.054707587
111	0xbdf7bbf6	-0.120963976
112	0xbc40fa2e	-0.0117783975
113	0xbde07d49	-0.10961396
114	0xbf1bfeb8	-0.60935545
115	0x3e3e1435	0.18562396
116	0xbcf99ae5	-0.030469367
117	0xbc596fa3	-0.013271245
118	0xbd8a3568	-0.06748468
119	0xbd3fe405	-0.046848316
120	0xbd884426	-0.06653623
121	0xbd875c8e	-0.0660945
122	0x3da3512d	0.079744674
123	0xbf9702ea	-1.1797764
124	0xbe01353a	-0.1261796
125	0x3cc9d259	0.024636434
126	0x3d365eba	0.044523932
127	0xbd816c13	-0.06319442
128	0xbdcee12f	-0.10101544
129	0xbe230cd4	-0.15922862
130	0x3ee49c20	0.44650364
131	0x3df49790	0.11942971
132	0x3a9bc61a	0.00118846
133	0xbdc89c01	-0.097953804
134	0x3d07ef5e	0.033187263
135	0xbe70d8c0	-0.23520184
136	0xbe9faa81	-0.31184772
137	0x3efda7d6	0.4954211
138	0xbe3ddead	-0.18541975
139	0xbd3ad333	-0.04561157
140	0xbe051fd9	-0.1300043
141	0x3e7bee4a	0.24602619
142	0x3f1c5a3b	0.6107518
143	0x3f9ac9a9	1.2092792
144	0x3ebd376a	0.3695634
145	0x3ef61998	0.480664
146	0xbe7c1579	-0.24617566
147	0x3f106855	0.564092
148	0x3f325b55	0.6967061
149	0x3fdcbb37	1.7244633
150	0x3d8e0d9f	0.06936192
151	0x3e26d84e	0.16293451
152	0xbe34bdc4	-0.17650515
153	0x3f585c5d	0.84515935
154	0x3f7589fe	0.95913684
155	0x3facba27	1.3494309
156	0xbdbf312a	-0.09335549
157	0x3ec5d9ce	0.38642734
158	0x3c0dac59	0.008647048
159	0x3ecd3375	0.4007832
160	0x3ee792b8	0.45229125
161	0x3e889794	0.26678145
162	0xbd79b8a7	-0.060967114
163	0x3f434a6d	0.7628544
164	0x3f373586	0.71566045
165	0x3d1d6953	0.038430523
166	0x3e2d2520	0.16908693
167	0x3df56c25	0.119835176
168	0x3d812c6a	0.063072994
169	0x3d83f9a6	0.06444101
170	0x3c1045d1	0.008805708
171	0x3d3a185b	0.045433383
172	0xbef45275	-0.4771916
173	0x3ef34a85	0.4751779
174	0x3f8248b6	1.017844
175	0x3eaad166	0.33362883
176	0x3f2472bd	0.64237577
177	0xbcf40039	-0.029785262
178	0x3d9303d7	0.07178467
179	0xbe56b6ed	-0.20968218
180	0xbdfff623	-0.12498119
181	0x3e808421	0.25100806
182	0xbdabda6a	-0.083912686
183	0xbe05af57	-0.13055168
184	0x3e073632	0.13204268
185	0xbe2bc6cc	-0.16775054
186	0xbe4d67ed	-0.20059176
187	0x3c1f1ac7	0.009710974
188	0xbe09b7bd	-0.13448997
189	0x3e919f7d	0.28441992
190	0x3e2fb0f7	0.1715735
191	0xbdb4a942	-0.08821346
192	0x3fc898d7	1.5671643
193	0x3f816276	1.0108173
194	0x3f00c1f0	0.50295925
195	0xbcebb97e	-0.028774973
196	0x3ed0c730	0.40776968
197	0x3e90c77c	0.28277194
198	0x3cfbaed3	0.030723011
199	0xbb8ec4d6	-0.0043569608
200	0x3deebefb	0.116575204
201	0xbd0391c6	-0.032121442
202	0xbdab3a48	-0.08360726
203	0xbd8853b5	-0.06656591
204	0xbdc80dcd	-0.09768257
205	0x3d9aa326	0.07550649
206	0x3d9d041c	0.076667994
207	0x3de8c6a0	0.1136601
208	0x3e02b336	0.12763676
209	0x3e0f18db	0.13974325
210	0xbe1e2c6e	-0.15446636
211	0x3ef5306b	0.47888502
212	0x3e888301	0.26662448
213	0xbd4931db	-0.04911981
214	0xbd83b73d	-0.06431434
215	0xbd4db75b	-0.05022369
216	0xbbfa256c	-0.0076338556
217	0xbc48d9f5	-0.012258996
218	0xbd9e7583	-0.07737257
219	0xbec3c1ae	-0.38233703
220	0x3edcd148	0.4312842
221	0x3e8672d9	0.26259497
222	0x3d0ae4c2	0.033909567
223	0xbd925e84	-0.07146934
224	0x3d6178f7	0.055047
225	0x3e1c96ad	0.15291853
226	0xbd225729	-0.039633904
227	0x3e837336	0.25673836
228	0x3cd16489	0.025560634
229	0x3d18b90c	0.03728585
230	0xbdc94e8e	-0.09829436
231	0x3e2dd4d8	0.16975725
232	0x3da754db	0.08170482
233	0xbcb97160	-0.02263707
234	0xbd99b05c	-0.07504341
235	0x3dfc48bb	0.1231856
236	0x3d15f6df	0.036612388
237	0xbd93210b	-0.07184037
238	0x3e48dd88	0.19615757
239	0xbda40b64	-0.08009985
240	0x3e23e1c3	0.1600409
241	0x3c5cc119	0.013473772
242	0x3d40601b	0.046966653
243	0x3eebced6	0.4605624
244	0x3f04c552	0.51863587
245	0x3fc1adc5	1.5131155
246	0x3d6c3d54	0.057675675
247	0x3e1c5de3	0.1527019
248	0x3e6cf122	0.2313886
249	0xbe64ab16	-0.22330889
250	0x3f59adc3	0.85030764
251	0x3fd14b88	1.6351175
252	0x3e8f7423	0.28018293
253	0x3dd27ae3	0.10277345
254	0x3dc82115	0.09771935
255	0x3e743506	0.23848352

conv.2.bias f4 [32]
0	0xbd04f60c	-0.03246121
1	0xbd2b754f	-0.04185992
2	0x3e0b6cd0	0.13615727
3	0xbd9b3eda	-0.07580347
4	0xbde01467	-0.109413914
5	0x3c990333	0.018678283
6	0x3e2ba179	0.16760816
7	0x3c98c490	0.018648416
8	0x3d98a4e3	0.07453325
9	0xbcc3d779	-0.023906456
10	0x3d414238	0.04718229
11	0x3e330225	0.17481287
12	0x3e746393	0.2386611
13	0x3e6e4881	0.23269846
14	0x3e0d7598	0.1381439
15	0x3e6cea15	0.2313617
16	0xbbe6bbed	-0.0070414455
17	0x3e47fcae	0.19529983
18	0xbd530eb6	-0.0515277
19	0x3e73b3b1	0.23799016
20	0x3d813701	0.06309319
21	0x3e139f01	0.14416124
22	0xbd469d83	-0.04849006
23	0xbd96fdcd	-0.073726274
24	0x3eb6a306	0.35671252
25	0x3e9bc387	0.30422613
26	0x3e05aa84	0.13053328
27	0x3e7511b7	0.23932539
28	0xbc89da47	-0.016827716
29	0xbdd1b2f7	-0.10239213
30	0xbd8538a0	-0.06504941
31	0xbe36fb8c	-0.17869395

conv.4.weight f4 [2, 32, 1]
0	0x3e1d31db	0.1535105
1	0x3faa61a6	1.331105
2	0xbe999851	-0.2999902
3	0xbc052ab3	-0.008127856
4	0x3ce5f897	0.028072638
5	0x3d4f27d7	0.050575104
6	0x3e2e6b63	0.17033152
7	0xbe1a32d4	-0.15058452
8	0x3eaa2d63	0.33237752
9	0xbb6f69be	-0.0036531533
10	0xc001b8d0	-2.026905
11	0xbec39295	-0.3819777
12	0x3f3c0d31	0.7345763
13	0xbe500ed9	-0.20318164
14	0x3e5ac6ca	0.21364895
15	0xbce02114	-0.027359523
16	0x3e3a8184	0.18213469
17	0x3db21b46	0.08696608
18	0xc044d4b0	-3.0754814
19	0xbea87953	-0.32905063
20	0x3f3d8ead	0.7404583
21	0x3e68618d	0.22693463
22	0xbdbb6fef	-0.09152209
23	0x3e26fe13	0.16307859
24	0xbef8373d	-0.48479643
25	0xbe94cd8b	-0.29063067
26	0xbe4a032c	-0.19727772
27	0x3ca24ba4	0.019811459
28	0x3ebf5da9	0.37376145
29	0x3f4cb848	0.7996869
30	0xbd2b16ac	-0.04176967
31	0x3fb7eb5d	1.4368702
32	0x3d81ba35	0.06334344
33	0x3f9c9f8e	1.2236192
34	0xbe4b2b0d	-0.19840641
35	0x3e0ad815	0.13558991
36	0x3d79109a	0.060806848
37	0xbc8fc508	-0.017550007
38	0xbf225f63	-0.634268
39	0x3e1fa465	0.15590055
40	0xbf12066f	-0.57041067
41	0x3e0138bc	0.12619299
42	0x3fb9f140	1.4526749
43	0xbe6424f1	-0.22279717
44	0xbfe3bc11	-1.7791768
45	0xbe9b4efb	-0.30333695
46	0xbede8190	-0.43458223
47	0xbe232cc5	-0.15935047
48	0x3c216c58	0.009852491
49	0xbea60ea9	-0.3243306
50	0x3f634831	0.8878203
51	0xbe350781	-0.17678644
52	0xbf02f55e	-0.5115565
53	0xbebf0088	-0.37305093
54	0x3d23f6bd	0.04003023
55	0x3f5a117a	0.8518292
56	0xbe4cb3dd	-0.19990487
57	0xbe841e84	-0.25804532
58	0xbe5ac27f	-0.21363257
59	0xbe9052c9	-0.2818816
60	0x3f6aa83b	0.9166295
61	0x3f2241c0	0.63381577
62	0x3e14b25b	0.14521162
63	0x3f8b5302	1.0884707

conv.4.bias f4 [2]
0	0xbebb7b5f	-0.36617562
1	0xbdc7106b	-0.09719928
