codebase/dqn_row_based/models/ct_like/model.pth (torch, 502882 bytes, 18 tensors)

row_encoder.0.weight f4 [64, 1, 7]
-0.15412489 0.012519909 -0.18771929 0.14253554 -0.32204655 0.27706456 -0.2747198 -1.5297506
-0.29132718 0.6554222 0.037145913 0.49531594 -0.28980547 -1.2832398 -0.48548284 -0.09591617
-0.70124567 1.4660757 -0.52069545 0.40993407 1.0314422 0.07041705 0.10335466 0.3648335
-0.17046553 0.11972071 -0.1681625 0.2701122 0.52738905 -1.4885534 1.107568 -0.07669983
0.1304541 -0.4102427 0.72182685 -0.24055438 -1.5115587 -0.25146106 -0.4734581 0.66655225
-0.037016816 -0.29600787 -0.7981496 1.3890184 -0.52959377 0.5945655 -0.608697 -0.100255884
1.0829116 0.088252 0.0002957058 -0.061690178 0.23180749 0.2661008 -0.4043554 -1.6676468
-0.23373772 0.32262507 0.02259224 -0.306179 0.05961538 0.31230134 -0.3571763 -0.64790714
-0.2811795 -0.07261074 -0.060224533 -0.008542634 -0.7640716 0.2708257 0.33175576 0.23102638
-0.26764888 -0.3046784 0.15695062 0.008488535 0.15493932 -1.4862763 -0.27836317 0.2962085
0.3777841 -0.28300983 0.01610588 0.043861106 -0.6680093 -0.13089672 -0.6993316 0.51299596
0.383901 0.21179603 -0.9148835 0.59878206 0.3052271 0.4605078 -0.1939935 0.062057212
0.6539515 0.53683066 0.9932987 0.18908307 0.819154 -0.8149331 -0.36438853 -0.5127604
-0.5737657 -0.18763793 0.16984127 0.8661512 0.36348426 0.17266907 0.6559803 -0.48677558
0.03836555 -0.5079412 -0.7963418 -0.173555 -1.5272622 -0.03915276 0.69628304 0.7357571
-0.49250868 0.117047474 1.0180645 -0.6569741 0.8551142 -0.45834345 0.13534874 -0.0571058
-0.63957185 1.5453167 -1.2423061 0.39366588 -0.1361288 -0.79141974 -0.46942577 -0.4917933
0.28730923 0.027562255 -0.034989964 -0.26726225 0.0018174592 -0.117563255 0.10860284 0.36706764
0.05725048 -0.16740738 -0.23087129 -0.13032384 -0.48654333 -0.5413124 -0.51788855 -0.27837387
0.022077728 0.43107325 0.14640051 0.28956568 -0.2373229 0.031895716 -0.33596534 0.21682203
0.07877154 0.53693193 -0.6958897 0.5229244 0.5878295 0.3307246 -0.069691196 0.5196404
0.24259579 0.271607 -0.03239834 -0.295997 -0.005215389 0.070377104 -0.2574577 -0.21681522
-0.36237207 -0.13249448 0.32923293 0.06463044 -0.023086106 0.01517831 0.23567809 -0.33376664
-0.29163346 -0.125662 -0.21752541 0.19494843 0.26706347 -0.36671087 -0.32077077 -0.36806855
0.1425888 0.3042064 -0.293051 -0.17498107 0.120276086 -0.24680525 0.32107309 0.08812665
-0.10521911 0.024549013 0.11783743 -0.13365321 -0.292868 0.002540532 0.0068846005 0.007621731
-0.055156466 0.24268097 -0.10547445 -0.036584202 0.15541431 -0.23790495 0.10120324 -0.08357388
0.18129954 -0.32249275 0.07370874 0.14006019 -0.7686177 -0.7875456 0.23905191 -0.15415996
0.22447182 -0.37337697 -0.18683866 -0.31131494 0.150986 -0.010957697 -0.07049847 -0.06288245
-0.2954355 0.10718882 0.009421078 -0.26083818 0.14222337 -0.007596724 -0.36554742 0.20331474
0.20216832 -0.071212344 -0.2609611 0.01517529 0.28520435 1.0687765 -1.0371633 -0.399814
0.7938591 0.07914616 0.134452 -0.5815065 0.3256294 -0.3107117 -0.018206133 0.007847646
00000000: ead2 1dbe 4e20 4d3c 7c39 40be d6f4 113e
00000010: 49e3 a4be 68db 8d3e 13a8 8cbe dece c3bf
00000020: d628 95be c0c9 273f 5026 183d 0d9a fd3e
00000030: 6261 94be 3441 a4bf 3591 f8be b26f c4bd
00000040: d684 33bf 5ea8 bb3f 4c4c 05bf e1e2 d13e
00000050: 4c06 843f d036 903d 9cab d33d 75cb ba3e
00000060: 848e 2ebe 2230 f53d ca32 2cbe 254c 8a3e
00000070: f802 073f eb88 bebf cac4 8d3f cd14 9dbd
00000080: c295 053e 550b d2be a5c9 383f e353 76be
00000090: c17a c1bf 81bf 80be 1a69 f2be 2ba3 2a3f
000000a0: f29e 17bd 588e 97be 8853 4cbf 5bcb b13f
000000b0: 7593 07bf 7235 183f 91d3 1bbf f552 cdbd
000000c0: d99c 8a3f 77bd b43d f608 9b39 d7ae 7cbd
000000d0: f15e 6d3e 5d3e 883e ac07 cfbe 7375 d5bf
000000e0: f158 6fbe 1d2f a53e 5c13 b93c 7ec3 9cbe
000000f0: 422f 743d f6e5 9f3e d0df b6be 3edd 25bf
00000100: c2f6 8fbe f1b4 94bd 00ae 76bd 67f6 0bbc
00000110: 329a 43bf aba9 8a3e e4db a93e 2e92 6c3e
00000120: 4609 89be cffe 9bbe aab7 203e 7f13 0b3c
00000130: 6aa8 1e3e 4d3e bebf 9e85 8ebe a4a8 973e
00000140: eb6c c13e aae6 90be 7af0 833c b4a7 333d
00000150: a802 2bbf ca09 06be 6507 33bf b453 033f
00000160: ac8e c43e 0fe1 583e ce35 6abf c849 193f
00000170: ba46 9c3e aec7 eb3e 3ba6 46be b42f 7e3d
00000180: 5e69 273f bc6d 093f d348 7e3f fe9e 413e
00000190: 14b4 513f 759f 50bf 2291 babe 4444 03bf
000001a0: 4fe2 12bf 2824 40be dfea 2d3e 16bc 5d3f
000001b0: 9c1a ba3e 29d0 303e 53ee 273f a63a f9be
000001c0: 3225 1d3d 6f08 02bf 0edd 4bbf 67b8 31be
000001d0: 547d c3bf a55e 20bd 9b3f 323f 945a 3c3f
000001e0: 192a fcbe 96b6 ef3d f04f 823f 742f 28bf
000001f0: c4e8 5a3f feab eabe dc98 0a3e c5e7 69bd
00000200: fbba 23bf f0cc c53f e303 9fbf 938e c93e
00000210: 5965 0bbe 7c9a 4abf 9358 f0be 55cc fbbe
00000220: 321a 933e 3dca e13c a351 0fbd 99d6 88be
00000230: d037 ee3a 01c5 f0bd 2a6b de3d 4af0 bb3e
00000240: 7b7f 6a3d d76c 2bbe 8669 6cbe 9d73 05be
00000250: 351c f9be 7393 0abf 5894 04bf 0587 8ebe
00000260: 5adc b43c a2b5 dc3e 04ea 153e f441 943e
00000270: c604 73be 15a5 023d a603 acbe 9806 5e3e
00000280: f952 a13d 5f74 093f d425 32bf 60de 053f
00000290: fe7b 163f bc54 a93e 42ba 8ebd 2707 053f
000002a0: 086b 783e 1310 8b3e 1fb4 04bd eb8c 97be
000002b0: dbe5 aabb df21 903d 7fd1 83be cf04 5ebe
000002c0: d588 b9be a2ac 07be 3891 a83e f75c 843d
000002d0: 131f bdbc 72ae 783c 9955 713e 76e3 aabe
000002e0: fb50 95be 8aad 00be fbbe 5ebe 90a0 473e
000002f0: 8bbc 883e 87c1 bbbe 113c a4be 7b73 bcbe
00000300: cc02 123e f1c0 9b3e c80a 96be 3d2e 33be
00000310: 4f53 f63d 84ba 7cbe b163 a43e bf7b b43d
00000320: 1e7d d7bd 031b c93c c054 f13d 63dc 08be
00000330: cbf2 95be 0e7f 263b 3798 e13b b7bf f93b
00000340: bfeb 61bd 5c81 783e fd02 d8bd 51d9 15bd
00000350: ee24 1f3e 5b9d 73be a543 cf3d c828 abbd
00000360: 96a6 393e c51d a5be 9cf4 963d f06b 0f3e
00000370: 21c4 44bf 979c 49bf 06ca 743e 1cdc 1dbe
00000380: f1db 653e 442b bfbe a252 3fbe ac64 9fbe
00000390: 139c 1a3e ea87 33bc 8061 90bd 84c8 80bd
000003a0: 5243 97be d085 db3d dd5a 1a3c 958c 85be
000003b0: 01a3 113e f1ed f8bb 0829 bbbe bd31 503e
000003c0: 3605 4f3e c7d7 91bd b19c 85be c8a1 783c
000003d0: 4e06 923e abcd 883f c4c1 84bf 6cb4 ccbe
000003e0: 5a3a 4b3f 6217 a23d c9ad 093e 9cdd 14bf
000003f0: e6b8 a63e 9b15 9fbe 0725 95bc 6a93 003c

row_encoder.0.bias f4 [64]
-0.29500046 0.46812418 -0.20539434 -0.3345657 -0.08786948 0.5503794 -0.21772034 0.43814135
-0.15175232 0.44143492 -0.28806713 0.40163967 0.36296126 -0.61370903 0.059024718 -0.3130723
0.46978787 -0.2786603 0.040365215 0.51506585 -0.291455 0.40281045 -0.32878283 -0.4294338
-0.17071547 -0.35350034 -0.35601068 -0.36440244 -0.29236794 -0.2111955 -0.12458041 0.45064458
-0.060758296 -0.37422258 -0.27453992 0.055545364 -0.36881408 -0.3429762 -0.3420615 0.49563465
0.16397926 0.15883517 -0.20820473 -0.36875087 -0.14053063 0.22591186 -0.21157809 -0.17622492
0.12027583 -0.012259485 0.059562642 0.035907473 -0.33609387 -0.049903512 0.13496634 0.113104075
-0.2313703 -0.2954968 -0.6047649 0.1379505 0.4764163 0.622588 0.123855986 -0.07705884
00000000: 4d0a 97be f9ad ef3e e552 52be 324c abbe
00000010: eaf4 b3bd aae5 0c3f 15f2 5ebe 1054 e03e
00000020: f664 1bbe c203 e23e 897d 93be b7a3 cd3e
00000030: 0fd6 b93e 091c 1dbf e7c3 713d 034b a0be
00000040: 0988 f03e 90ac 8ebe ff55 253d 5bdb 033f
00000050: 9739 95be 2c3d ce3e 3956 a8be bfde dbbe
00000060: 09d0 2ebe fffd b4be 0847 b6be f592 babe
00000070: 40b1 95be a243 58be 0424 ffbd e3ba e63e
00000080: b1dd 78bd 1a9a bfbe 7f90 8cbe 8983 633d
00000090: 33d5 bcbe 949a afbe af22 afbe d3c3 fd3e
000000a0: 2eea 273e b0a5 223e 9f33 55be eacc bcbe
000000b0: 43e7 0fbe 7055 673e eda7 58be 4e74 34be
000000c0: 2d53 f63d 02dc 48bc f5f7 733d b713 133d
000000d0: 7f14 acbe a067 4cbd 9e34 0a3e 1ca3 e73d
000000e0: 56ec 6cbe 5b4b 97be dfd1 1abf e542 0d3e
000000f0: d6ec f33e ed61 1f3f 35a8 fd3d 06d1 9dbd

row_encoder.2.weight f4 [64, 64, 5]
0.010296362 -0.055280015 0.0064534927 -0.018453114 -0.0042437497 0.5528813 -0.4477946 0.22150609
1.0679176 1.1159459 0.50525355 0.8141449 -0.055141754 0.2116068 -0.0024800284 -0.029668828
0.035642866 0.008647415 0.03209316 0.043095306 0.096229546 -0.20407942 0.28407785 -0.38134858
0.633934 0.65639704 -0.79295295 1.4672853 -0.6694499 -1.5569662 0.23281345 0.56254846
-0.16365431 0.20325945 0.15046161 -1.2184445 -1.0988348 0.49182442 0.7659209 -0.55733883
0.049515087 0.016041558 -0.05064342 0.05178871 0.034091942 -0.016602546 -0.21526136 -0.04888806
0.4941548 -0.1972291 -0.04177323 -0.033807546 0.0001405238 -0.043373168 0.050712828 -0.12861893
0.50499576 0.46251306 -0.29191282 0.033287454 -0.7376783 -0.12493344 0.043656655 0.102798544
-0.00957746 -0.18601848 0.85943437 0.5921781 -0.23571146 0.638964 -0.3462601 -0.1541895
-0.1854168 0.31487355 -0.37521407 -0.58473235 0.5061947 0.5798016 0.39899707 0.6624864
-0.8587928 0.6615979 -0.22919309 -0.95500326 0.36986092 -0.3609813 0.29809254 -0.05463417
0.3097072 0.5464533 -0.06446995 0.11175483 -0.62264717 0.0005132111 0.62968045 -0.647796
0.08390191 0.3513922 0.08930526 -0.10335904 -0.047456317 0.03970897 -0.030215697 -0.04407934
-0.007331848 -0.5588954 0.49575227 0.1318616 -0.17308253 -0.6318155 -0.033131752 -0.04727807
-0.01667859 0.038538594 -0.037065666 0.31211692 -0.15117751 -0.107736215 0.19752476 0.39810106
-0.011359124 -0.030011691 0.028218249 0.015072955 -0.014373523 0.043128487 -0.039833013 -0.0011785753
0.045196135 0.01798656 -0.043872375 0.009097675 -0.007996329 0.023090966 0.03148584 -0.03956503
-0.018410731 0.046455335 -0.040764004 -0.012671039 -0.01861549 -0.0136756115 -0.0076940167 0.03209845
0.034932505 -0.02003219 0.0065073646 -0.05186222 -0.021112071 -0.0052242377 -0.0020287822 0.0102013005
0.003068113 -0.016626045 0.04025441 -0.71000296 0.60490143 0.025797771 -1.031924 -0.21989977
0.034413517 0.0006148941 -0.030404516 0.03027522 0.0043090237 0.053642284 -0.05497693 0.013628177
-0.05108298 -0.024892885 -0.005496642 0.045416307 -0.0232425 -0.032466225 -0.00365092 -0.08903989
0.009854507 0.07588576 0.53299373 -0.23488113 -0.044394888 -0.039555144 0.026561432 -0.0034080837
0.040549 0.29727283 0.10546473 0.67295855 0.21940987 -0.14890729 0.01032813 -0.0015960151
-0.036772475 0.04811103 0.025542326 -0.41852474 -0.5503441 0.025242427 0.5217852 -0.4513661
-0.13571821 0.10033174 0.40060252 -0.7200759 0.51656085 -0.0037302524 0.29580978 -0.3582718
0.22219187 0.28735676 0.03311528 -0.02553582 -0.022875665 -0.007452309 -0.036850862 -0.28232056
0.0984871 1.0034536 -0.030318025 -0.3246474 -0.8478369 0.87847805 0.5211294 0.042259514
0.55311936 -0.038190402 -0.38971102 -0.34902224 0.8223499 -0.021104531 -0.46362072 0.42815617
0.95471025 -0.3401724 -0.06729032 -0.0015779024 -0.04372978 0.046526987 -0.022054568 0.02459194
0.0564915 -0.06214328 -0.079745926 -0.4709981 0.68655604 0.32416105 0.44884723 0.96461016
-0.3765905 -0.121279515 -0.30143374 0.18366449 0.42998782 -0.5530868 0.41148195 -0.32858002
00000000: 13b2 283c 4c6d 62bd d277 d33b fc2a 97bc
00000010: 270f 8bbb a189 0d3f 5545 e5be 7ed2 623e
00000020: 86b1 883f 51d7 8e3f 4c58 013f cd6b 503f
00000030: 52dc 61bd 74af 583e f987 22bb 0b0c f3bc
00000040: 41fe 113d e3ad 0d3c 1e74 033d b484 303d
00000050: ff13 c53d 32fa 50be a772 913e 1f40 c3be
00000060: 8049 223f a309 283f f7fe 4abf 01d0 bb3f
00000070: 1261 2bbf ab4a c7bf a666 6e3e 2d03 103f
00000080: ff94 27be 3f23 503e 9c12 1a3e fdf5 9bbf
00000090: 9ea6 8cbf 69d0 fb3e 6413 443f c2ad 0ebf
000000a0: 55d0 4a3d 9669 833c 7a6f 4fbd 6620 543d
000000b0: fea3 0b3d 1002 88bc 796d 5cbe d93e 48bd
000000c0: dc01 fd3e 6df6 49be 681a 2bbd c879 0abd
000000d0: 9259 1339 10a8 31bd 41b8 4f3d aeb4 03be
000000e0: 6747 013f 83ce ec3e 9975 95be 6d58 083d
000000f0: 7cd8 3cbf 1add ffbd 52d1 323d 0b88 d23d
00000100: c7ea 1cbc a17b 3ebe e403 5c3f fc98 173f
00000110: 585e 71be 2593 233f 0149 b1be dae3 1dbe
00000120: e7dd 3dbe 1b37 a13e 0f1c c0be 05b1 15bf
00000130: fa95 013f e16d 143f 5849 cc3e b598 293f
00000140: d8d9 5bbf 7b5e 293f 98b1 6abe 187b 74bf
00000150: 695e bd3e 8ad2 b8be 969f 983e 14c8 5fbd
00000160: f191 9e3e 5de4 0b3f d208 84bd b7df e43d
00000170: ce65 1fbf 0489 063a bd32 213f f5d5 25bf
00000180: c4d4 ab3d aee9 b33e ade5 b63d e8ad d3bd
00000190: 8e61 42bd dfa5 223d e986 f7bc 8a8c 34bd
000001a0: 0040 f0bb c513 0fbf 3ed3 fd3e ba06 073e
000001b0: 8c3c 31be a9be 21bf 29b5 07bd a6a6 41bd
000001c0: 8aa1 88bc a5da 1d3d 2bd2 17bd cacd 9f3e
000001d0: 47ce 1abe cea4 dcbd ee43 4a3e e7d3 cb3e
000001e0: 9f1b 3abc 14db f5bc f529 e73c 8ef4 763c
000001f0: ed7e 6bbc 7fa7 303d f127 23bd 6d7a 9aba
00000200: 951f 393d 8d58 933c 85b3 33bd 6a0e 153c
00000210: 0903 03bc 4429 bd3c 4cf7 003d f10e 22bd
00000220: 1ad2 96bc f347 3e3d 28f8 26bd 319a 4fbc
00000230: 837f 98bc ac0f 60bc 171e fcbb aa79 033d
00000240: 6315 0f3d 8c1a a4bc bb3b d53b 7b6d 54bd
00000250: 39f3 acbc 1530 abbb 51f5 04bb 5b23 273c
00000260: 6512 493b 5833 88bc cfe1 243d c1c2 35bf
00000270: d2da 1a3f d955 d33c 1616 84bf 682d 61be
00000280: 30f5 0c3d d830 213a e412 f9bc bd03 f83c
00000290: b632 8d3b 03b8 5b3d 7d2f 61bd b848 5f3c
000002a0: 633c 51bd 2aec cbbc 2d1d b4bb 7306 3a3d
000002b0: 0e67 bebc 4efb 04bd 4644 6fbb 8c5a b6bd
000002c0: cc74 213c fe69 9b3d 4772 083f ae84 70be
000002d0: 6ad7 35bd 9304 22bd 5c97 d93c 285a 5fbb
000002e0: b516 263d 2534 983e e4fd d73d 0347 2c3f
000002f0: fbac 603e 277b 18be 5137 293c 6131 d1ba
00000300: bc9e 16bd 1210 453d 243e d13c e048 d6be
00000310: 5ae3 0cbf 35c9 ce3c b793 053f 7519 e7be
00000320: b7f9 0abe ba7a cd3d c61b cd3e e556 38bf
00000330: 553d 043f 4077 74bb 6174 973e 676f b7be
00000340: 4486 633e 6d20 933e e3a3 073d 7f30 d1bc
00000350: bf65 bbbc 8032 f4bb eef0 16bd 528c 90be
00000360: 9bb3 c93d 2b71 803f 825d f8bc 2f38 a6be
00000370: d70b 59bf f0e3 603f bd68 053f 5018 2d3d
00000380: 3b99 0d3f 8a6d 1cbd 3488 c7be 0bb3 b2be
00000390: 8685 523f 69e3 acbc b25f edbe 4937 db3e
000003a0: e467 743f 142b aebe 82cf 89bd 9ed1 ceba
000003b0: ff1d 33bd 1593 3e3d c8ab b4bc 0975 c93c
000003c0: a263 673d f489 7ebd d551 a3bd aa26 f1be
000003d0: 23c2 2f3f 70f8 a53e 4ecf e53e b1f0 763f
000003e0: 78d0 c0be 6561 f8bd 8655 9abe 8b12 3c3e
000003f0: 5d27 dc3e 1997 0dbf c3ad d23e a43b a8be

row_encoder.2.bias f4 [64]
-0.0033736029 -0.057569835 -0.00435809 0.42045152 0.9593961 -0.09310103 0.12480043 -0.06356941
-0.08097258 0.1683807 -0.062381957 0.029951839 0.39105788 -0.032273747 0.28444362 -0.04957129
0.30467722 -0.68147486 -0.054817133 -0.040574916 -0.057511467 0.41326374 0.01157216 -0.39762023
-0.014832044 -0.58363247 -0.034005307 -0.014329739 -0.06429282 -0.018094199 0.3453362 -0.11084873
-0.0053656204 -0.81045145 0.15496662 -0.482393 -0.076925755 -0.03288843 0.35933104 -0.008866487
-0.16292743 -0.02043486 0.007315556 -0.33863342 -0.048721157 -0.0045247697 0.110700436 -0.05413537
0.42373306 -0.045606043 0.20581153 -0.56890565 0.2683085 0.34784165 -0.0576201 -0.28250656
-0.041315146 -0.01942804 -0.013126235 -0.004756674 -0.9255943 0.9593384 0.04450186 0.015349693
00000000: aa17 5dbb 59ce 6bbd 4fce 8ebb 6c45 d73e
00000010: fc9a 753f c1ab bebd 5e97 ff3d ae30 82bd
00000020: f4d4 a5bd fd6b 2c3e 3984 7fbd 8f5d f53c
00000030: bd38 c83e 7a31 04bd 98a2 913e 440b 4bbd
00000040: a7fe 9b3e 2375 2ebf ee87 60bd e231 26bd
00000050: 2591 6bbd 4e97 d33e 2899 3d3c e194 cbbe
00000060: 1a02 73bc f068 15bf 2649 0bbd 48c7 6abc
00000070: f4ab 83bd 493a 94bc e8cf b03e a904 e3bd
00000080: 16d2 afbb bf79 4fbf 92af 1e3e 37fc f6be
00000090: 408b 9dbd 05b6 06bd 3dfa b73e be44 11bc
000000a0: 73d6 26be 0267 a7bc 55b7 ef3b 5c61 adbe
000000b0: d68f 47bd 8544 94bb e9b6 e23d 0dbd 5dbd
000000c0: 8af3 d83e 67cd 3abd 42c0 523e cda3 11bf
000000d0: bb5f 893e 4d18 b23e 0e03 6cbd b3a4 90be
000000e0: 123a 29bd 8e27 9fbc 6c0f 57bc e0dd 9bbb
000000f0: bff3 6cbf 3497 753f 9547 363d 477d 7b3c

history_encoder.0.weight f4 [32, 5, 7]
0.8706787 -0.23223394 0.07874863 0.061403908 -0.13396326 -0.3177897 0.004982286 -0.24769396
0.43481758 -0.30229563 -0.07166288 -0.35763946 0.032770958 0.086183034 -0.22397366 0.15457787
0.2056805 -0.14687674 0.00701388 0.1110895 0.081220716 -0.11021121 -0.30147576 0.030830681
0.46943748 0.03832767 0.2874816 -0.34707946 -0.07855597 0.43414196 -0.057210732 0.23980144
-0.16884337 0.12813264 -0.56692183 -0.21512663 0.33188176 -0.056421995 -0.08484283 -0.09505582
0.23931034 -0.2343708 -0.24734338 -0.13593084 0.4308228 -0.19897072 0.025897456 0.24573438
-0.12115437 -0.19083372 0.15410954 0.10444083 0.01083485 -0.08245576 0.26450577 -0.12243543
-0.3532044 -0.23142911 0.041612517 0.153898 0.21892543 0.24763659 -0.14256802 0.043728314
-0.3286225 -0.19007045 -0.48964208 -0.8206325 0.8648623 0.111685775 0.64331055 -0.18001667
-0.020310435 -0.39675403 -0.1586793 -0.23317355 0.19735809 0.087389834 0.17234759 0.055450708
0.03752012 -0.14436904 -0.010376815 -0.27033508 0.1833541 -0.11101551 0.17488454 0.1515083
-0.20561628 0.35633188 0.05529113 0.29806805 -0.40535942 0.2250958 -0.16735986 -0.801991
0.2063348 -0.18701789 0.32937425 -0.59563535 -0.11592977 -0.43361017 -0.49638492 -0.04231686
-0.6512139 -0.025718575 0.08295143 -0.47509035 0.5162825 0.07519153 0.1271814 -0.4422529
-0.6393847 0.43502137 -0.3073487 0.09898201 -0.34068093 0.014517298 -0.36976948 -0.042016085
0.1434 0.34214792 -0.29358035 -0.43270054 0.355978 -0.12255848 -0.19893245 -0.3762166
-0.32998613 0.32808605 -0.36171958 0.5594724 -0.17343272 0.5169485 0.17933866 0.23106194
0.095092766 0.03688773 -0.32324627 0.40778103 0.0469628 -0.17837714 -0.09431395 -0.30284604
0.33066407 0.3627107 -0.16646248 0.5869198 -0.099534065 -0.16745982 -0.26158667 0.47109348
-0.13553138 -0.085885875 0.38418493 0.10974122 -0.34822795 -0.53654116 0.0676949 -0.03408998
0.029469715 0.15270276 -0.11200751 -0.066949576 0.25305486 -0.15865608 0.31350094 -0.2354621
-0.2627262 -0.29335874 -0.3698528 0.24374577 -0.242346 0.41830903 0.07061848 0.31899866
0.039791457 0.21741545 -0.016952828 0.08366358 0.13276589 0.03713331 -0.44291428 -0.10519532
0.354853 -0.18373899 -0.13464062 -0.12591763 -0.040256623 -0.553681 -0.5825633 -1.3641144
-0.78691465 0.24967685 -0.6114469 -0.006566968 0.56454146 0.17352927 0.03030435 -0.027552966
-0.035295982 0.09702256 0.45629603 0.06775148 0.012812308 0.35340956 0.19522084 0.34670085
-0.10049069 0.36023486 -0.2499656 -0.5876458 -0.006048901 -0.29366937 -0.41231105 0.038584713
-0.122624256 0.2646588 -0.005011956 0.06746861 0.088494696 -0.20362726 0.24166282 0.21551019
0.1430693 -0.14958946 0.021336505 -0.41727415 -0.18394499 -0.24817546 -0.5981266 -0.006067946
0.5457531 -0.46681833 0.06858146 -0.111560084 -0.06569892 -0.07372163 0.31071565 -0.14184493
0.24089733 -0.569763 -0.8569062 0.2183478 0.5300514 -0.10507653 -0.5299061 -0.32939526
-0.13220017 -0.17851378 -0.7042042 0.12839791 -0.8009824 -1.1100888 -0.8365011 -0.45097214
00000000: cde4 5e3f bcce 6dbe f646 a13d aa82 7b3d
00000010: aa2d 09be 55b5 a2be 7242 a33b 7ca3 7dbe
00000020: 69a0 de3e 7ec6 9abe fdc3 92bd 851c b7be
00000030: d73a 063d bb80 b03d 5a59 65be a949 1e3e
00000040: e99d 523e db66 16be b1d4 e53b e482 e33d
00000050: 0c57 a63d 6ab6 e1bd 085b 9abe a090 fc3c
00000060: 1c5a f03e 7afd 1c3d ca30 933e 66b4 b1be
00000070: f4e1 a0bd db47 de3e cd55 6abd 828e 753e
00000080: 47e5 2cbe 3435 033e ca21 11bf 284a 5cbe
00000090: 68ec a93e c01a 67bd 14c2 adbd a0ac c2bd
000000a0: c50d 753e e6fe 6fbe 9547 7dbe 7431 0bbe
000000b0: ce94 dc3e fbbe 4bbe e726 d43c cba1 7b3e
000000c0: c81f f8bd ea69 43be e4ce 1d3e 13e5 d53d
000000d0: a884 313c 91de a8bd 4d6d 873e 6dbf fabd
000000e0: 35d7 b4be c1fb 6cbe e371 2a3d 7097 1d3e
000000f0: fd2d 603e 7294 7d3e 5afd 11be 761c 333d
00000100: 3541 a8be d4a1 42be 5eb2 fabe f914 52bf
00000110: 9e67 5d3f 83bb e43d 00b0 243f 4a56 38be
00000120: 1262 a6bc 5823 cbbe d47c 22be 0cc5 6ebe
00000130: 3d18 4a3e 71f9 b23d e37b 303e 4820 633d
00000140: b3ae 193d 7ad5 13be 8403 2abc 5c69 8abe
00000150: 2dc1 3b3e 1a5c e3bd ef14 333e fe24 1b3e
00000160: 138d 52be 2271 b63e f478 623d 609c 983e
00000170: 458b cfbe 837f 663e 6260 2bbe 484f 4dbf
00000180: 6e49 533e 9e81 3fbe bea3 a83e 8f7b 18bf
00000190: 966c edbd 2702 debe 2a26 febe 7254 2dbd
000001a0: f4b5 26bf c3af d2bc 70e2 a93d 0b3f f3be
000001b0: 172b 043f 04fe 993d d73b 023e f96e e2be
000001c0: b7ae 23bf 1fbb de3e cf5c 9dbe 14b7 ca3d
000001d0: bb6d aebe f6d9 6d3c 6d52 bdbe 0f19 2cbd
000001e0: 73d7 123e 032e af3e 2a50 96be ed8a ddbe
000001f0: c042 b63e f1ff fabd f3b4 4bbe 769f c0be
00000200: f1f3 a8be e5fa a73e 4f33 b9be 9539 0f3f
00000210: 5998 31be bd56 043f 8ea4 373e 809b 6c3e
00000220: ffbf c23d 9717 173d 8980 a5be adc8 d03e
00000230: 115c 403d 7fa8 36be ac27 c1bd a30e 9bbe
00000240: cd4c a93e 38b5 b93e 2475 2abe 6040 163f
00000250: 84d8 cbbd 967a 2bbe b0ee 85be 2a33 f13e
00000260: bdc8 0abe efe4 afbd e3b3 c43e 01c0 e03d
00000270: ef4a b2be c35a 09bf a0a3 8a3d efa1 0bbd
00000280: 796a f13c 1d5e 1c3e 3264 e5bd dc1c 89bd
00000290: 6890 813e bd76 22be 3283 a03e fa1c 71be
000002a0: 0c84 86be 1e33 96be 595d bdbe 7e98 793e
000002b0: 8d29 78be 9a2c d63e 6ca0 903d cb53 a33e
000002c0: 5efc 223d 28a2 5e3e a8e0 8abc d057 ab3d
000002d0: c8f3 073e 1919 183d a9c5 e2be a570 d7bd
000002e0: 4baf b53e 1326 3cbe 3bdf 09be 8df0 00be
000002f0: 21e4 24bd 0abe 0dbf de22 15bf 4d9b aebf
00000300: 3d73 49bf 4aab 7f3e c987 1cbf b82f d7bb
00000310: ca85 103f a8b1 313e d440 f83c c2b6 e1bc
00000320: 8592 10bd c4b3 c63d a29f e93e 4ac1 8a3d
00000330: b7ea 513c 19f2 b43e f9e7 473e c682 b13e
00000340: 10ce cdbd b470 b83e fbf6 7fbe f56f 16bf
00000350: dc35 c6bb d55b 96be 6f1a d3be 010b 1e3d
00000360: 6d22 fbbd 5c81 873e 563b a4bb fc2c 8a3d
00000370: b53c b53d aa83 50be 7576 773e b4ae 5c3e
00000380: c280 123e fb2d 19be e5c9 ae3c f5a4 d5be
00000390: 135c 3cbe b521 7ebe d31e 19bf 9fd5 c6bb
000003a0: 7ab6 0b3f d002 efbe 7074 8c3d 9d79 e4bd
000003b0: 288d 86bd 5efb 96bd 1f16 9f3e cc3f 11be
000003c0: caad 763e fddb 11bf 345e 5bbf 9196 5f3e
000003d0: 73b1 073f 5d32 d7bd eda7 07bf 7fa6 a8be
000003e0: 7b5f 07be 51cc 36be ba46 34bf be7a 033e
000003f0: 2f0d 4dbf 6417 8ebf f024 56bf d2e5 e6be

history_encoder.0.bias f4 [32]
-0.40286982 -0.18791936 0.111044735 -0.6272918 -0.13543107 -0.38583064 0.09260211 -0.0125283105
-0.8638725 -0.0152493855 -0.19856815 -0.19657077 -0.09425077 -0.27932286 -0.0270513 0.17760655
-0.11728614 -0.015262525 0.22611019 0.15272772 -0.11851645 -0.017123876 -0.91588444 -0.7428418
-0.8831766 -0.075026415 -0.34416643 -0.041004363 -0.36775094 -0.11151199 0.36118096 -0.14559402
00000000: f444 cebe ef6d 40be 6c6b e33d 3296 20bf
00000010: 71ae 0abe 988b c5be 2da6 bd3d 8b43 4dbc
00000020: c026 5dbf 8fd8 79bc 7355 4bbe d949 49be
00000030: 8c06 c1bd 6803 8fbe b09a ddbc 7ede 353e
00000040: b733 f0bd ab0f 7abc 6e89 673e a864 1c3e
00000050: c1b8 f2bd 5f47 8cbc 6777 6abf e12a 3ebf
00000060: dd17 62bf 73a7 99bd 9536 b0be 31f4 27bd
00000070: da49 bcbe 6660 e4bd b6ec b83e 9916 15be

history_encoder.2.weight f4 [32, 32, 5]
0.027268764 0.09253836 0.481053 -0.05543951 0.0685691 -0.66707283 -0.53182095 0.22213511
0.049928892 -0.52220476 -0.16368592 0.1622023 0.13171065 0.46555057 0.44221985 -1.0830648
0.14135933 0.18685049 -0.20594704 -0.39538512 0.17615744 -0.6991481 -0.063321896 -0.17021972
0.47726464 0.12192879 0.13574603 -0.17047505 0.13738528 -0.62409145 0.16909467 0.49497685
-0.07872858 0.20682119 -0.32067358 0.05294842 -0.36378366 -0.53791714 0.15543418 0.38793364
-0.008756202 0.46498132 0.065375134 -0.31611612 -0.15361947 -0.013742345 -0.1872623 0.52491033
0.3708942 0.16720629 -0.19106944 -0.23839346 -0.22332613 0.2256077 0.24397929 0.4559884
-0.3725114 -0.24537244 -0.2680505 0.17137861 -0.18325345 -0.049446046 -0.32280514 -0.47327197
-0.3765153 -0.8299706 0.5594911 -0.51442 0.16254431 -0.11684127 0.22892608 -0.33964324
-0.90685064 0.33518216 0.28275192 -0.51177776 -0.33740592 -0.38271096 0.662151 -0.037710063
0.09482614 0.058674373 -0.56718045 0.066358715 -0.16953577 -0.4093739 -0.12301342 -0.55385965
-0.213248 -0.2538319 0.7132494 0.03065344 0.19274989 -0.1235284 -0.008700148 -0.31682757
0.39546207 -0.17753188 0.40590623 -0.074086875 -0.04621178 0.20583493 -0.110132985 0.7610534
0.0059322803 -0.51839745 -1.2574333 -0.37704635 0.07057002 0.1199352 -0.6203283 -0.052069537
0.09800084 0.39397797 0.023615895 0.13867764 0.32234868 -0.70804405 -0.14415038 0.22174762
-0.21701358 0.40993756 0.011751986 -0.05872088 -0.28048852 -0.11635166 -0.16784258 0.31082895
0.5485388 0.22884786 -0.182824 -0.13934888 0.03891476 -0.2059554 -0.07419801 0.7947395
0.18645938 -0.048430502 0.16254115 -0.34771416 -0.035124145 -0.04134953 -0.5065116 -0.6896774
-0.0028103644 0.20349188 -0.33991408 0.14543107 -0.3656748 0.29799423 -0.7492775 -0.40355745
-0.082063526 0.060254853 0.13654336 -0.26841527 -0.2211703 0.20152846 -0.14964344 0.0057941442
0.4147028 0.43948355 0.057480026 -0.25751698 0.20479552 0.15093103 -0.71480775 0.25963196
0.052866302 -0.087355666 -0.0040262574 -0.13842724 -0.51006377 -0.30914977 -0.55848837 0.23397604
-0.32261106 -0.16117157 0.13081323 0.08382128 0.22229941 -0.6889356 -0.060097817 -0.004529687
-0.63996357 -0.23456804 0.28075472 0.22315726 0.24200268 -0.1658304 -0.31620172 -0.52760506
0.1135804 -0.07211965 -0.7954057 -0.81403077 -0.56448406 -0.78408045 0.121276654 -0.17524171
-0.2976486 0.014020038 0.24045044 0.63372743 0.020392377 -0.18988425 -0.39823142 -0.83531404
-0.5401014 0.78381574 -0.008390707 -0.2742988 0.3614325 0.08170451 -0.5203973 -0.037841704
0.22828487 -0.7144613 0.25670764 -0.06191016 -0.01199449 0.70717376 -0.014857169 -0.5102684
-0.09278358 -0.16992429 0.15730582 0.06789115 -0.38501254 0.36735892 -0.52096117 -0.07537275
-0.5232909 -0.14293481 -0.15548274 0.2491109 0.15423858 0.977366 -0.20111692 -0.7016517
-0.24457477 0.2618394 0.012935474 0.103112675 -0.291062 -0.750026 -0.40622026 0.26380765
-0.07961493 0.17740549 0.712999 -0.64275765 -0.03516761 -0.98922 -0.208772 -0.09523855
00000000: be62 df3c c084 bd3d 944c f63e 8a14 63bd
00000010: f56d 8c3d 49c5 2abf 6b25 08bf 6377 633e
00000020: 3d82 4c3d 36af 05bf 489d 27be 5c18 263e
00000030: 28df 063e a55c ee3e a46a e23e dea1 8abf
00000040: 80c0 103e bc55 3f3e c8e3 52be eb6f cabe
00000050: 9e62 343e 5ffb 32bf e9ae 81bd 144e 2ebe
00000060: 085c f43e cdb5 f93d 0201 0b3e 0391 2ebe
00000070: baae 0c3e 75c4 1fbf 2727 2d3e 9b6d fd3e
00000080: 733c a1bd efc8 533e 542f a4be 71e0 583d
00000090: da41 babe f0b4 09bf 232a 1f3e 3d9f c63e
000000a0: 2c76 0fbc 0812 ee3e 66e3 853d f9d9 a1be
000000b0: 6c4e 1dbe 9327 61bc b0c1 3fbe 8660 063f
000000c0: d8e5 bd3e 2038 2b3e b5a7 43be 6a1d 74be
000000d0: 9baf 64be b405 673e b5d5 793e 5077 e93e
000000e0: d0b9 bebe ea42 7bbe ea3d 89be e07d 2f3e
000000f0: cba6 3bbe f087 4abd b746 a5be b450 f2be
00000100: 9dc6 c0be f478 54bf cf3a 0f3f 07b1 03bf
00000110: 0472 263e 7a4a efbd 996b 6a3e b8e5 adbe
00000120: 5d27 68bf ff9c ab3e dcc4 903e de03 03bf
00000130: 78c0 acbe b1f2 c3be ba82 293f de75 1abd
00000140: 3534 c23d 8a54 703d bd32 11bf 14e7 873d
00000150: c99a 2dbe 7599 d1be 76ee fbbd bfc9 0dbf
00000160: af5d 5abe 41f6 81be 8397 363f ec1c fb3c
00000170: 3a60 453e 75fc fcbd 118b 0ebc 3937 a2be
00000180: 017a ca3e ebca 35be f1d2 cf3e dcba 97bd
00000190: 9048 3dbd 64c6 523e 678d e1bd 65d4 423f
000001a0: 9363 c23b b2b5 04bf 93f3 a0bf 380c c1be
000001b0: 0487 903d 96a0 f53d d6cd 1ebf de46 55bd
000001c0: aab4 c83d 7bb7 c93e 1f76 c13c 8301 0e3e
000001d0: e30a a53e 6042 35bf 289c 13be cf11 633e
000001e0: cf38 5ebe 56e3 d13e 678b 403c 4e85 70bd
000001f0: 319c 8fbe c749 eebd edde 2bbe f924 9f3e
00000200: 0a6d 0c3f 1857 6a3e 3736 3bbe 79b1 0ebe
00000210: 1565 1f3d f9e5 52be 20f5 97bd 0c74 4b3f
00000220: 35ef 3e3e 105f 46bd 3071 263e 9707 b2be
00000230: 56de 0fbd 205e 29bd bfaa 01bf b38e 30bf
00000240: 172e 38bb 2d60 503e 3809 aebe e2eb 143e
00000250: ba39 bbbe b392 983e a6d0 3fbf 159f cebe
00000260: ec10 a8bd cbcd 763d 06d2 0b3e ba6d 89be
00000270: 787a 62be 7a5d 4e3e 213c 19be cedc bd3b
00000280: ed53 d43e fd03 e13e 2d70 6b3d 44d9 83be
00000290: ebb5 513e aa8d 1a3e a4fd 36bf 7bee 843e
000002a0: 568a 583d 87e7 b2bd b2ee 83bb dfbf 0dbe
000002b0: 8a93 02bf e148 9ebe 18f9 0ebf 6a97 6f3e
000002c0: 472d a5be 290a 25be e7f3 053e 7eaa ab3d
000002d0: 75a2 633e 155e 30bf 2129 76bd c56d 94bb
000002e0: a7d4 23bf 9b32 70be 15bf 8f3e 5683 643e
000002f0: 8dcf 773e 72cf 29be 31e5 a1be 2011 07bf
00000300: d79c e83d 78b3 93bd b59f 4bbf 5264 50bf
00000310: 0782 10bf 7fb9 48bf e55f f83d 9072 33be
00000320: 6665 98be 4db4 653c a438 763e f63b 223f
00000330: ea0d a73c 0471 42be fde4 cbbe 24d7 55bf
00000340: 1644 0abf 26a8 483f 2d79 09bc e470 8cbe
00000350: ae0d b93e b254 a73d c238 05bf e7ff 1abd
00000360: 82c3 693e f0e6 36bf 2f6f 833e 8295 7dbd
00000370: 8a84 44bc 5709 353f 7c6b 73bc f3a0 02bf
00000380: 5105 bebd a200 2ebe c714 213e 840a 8b3d
00000390: 5d20 c5be 7816 bc3e b65d 05bf 075d 9abd
000003a0: 64f6 05bf 815d 12be de36 1fbe ee16 7f3e
000003b0: b8f0 1d3e a834 7a3f 98f1 4dbe 729f 33bf
000003c0: cf71 7abe d00f 863e 4fef 533c bd2c d33d
000003d0: 1406 95be b401 40bf 1afc cfbe cc11 873e
000003e0: 270d a3bd c9a9 353e 1a87 363f c48b 24bf
000003f0: e90b 10bd 863d 7dbf 54c8 55be 6e0c c3bd

history_encoder.2.bias f4 [32]
0.008235865 0.20363563 -0.26954955 -0.106368214 -0.05594401 0.6064513 -0.106324084 0.021741075
-0.30231863 0.13763662 0.058790304 -0.25921193 0.27029306 0.25614226 0.070251495 -0.24488279
-0.062179115 0.11764714 -0.11490205 -0.09084583 0.06979307 -0.2011505 0.0012615105 0.25210527
-0.34024054 -0.35871854 0.08090105 -0.083395176 -0.30477193 -0.026529826 0.037363295 -0.17499328
00000000: b9ef 063c dc85 503e 6602 8abe 94d7 d9bd
00000010: 8c25 65bd 6440 1b3f 71c0 d9bd 571a b23c
00000020: 82c9 9abe 9df0 0c3e 1ace 703d 6db7 84be
00000030: da63 8a3e 1425 833e 04e0 8f3d 8ec2 7abe
00000040: 87af 7ebd fcf0 f03d c451 ebbd 610d babd
00000050: abef 8e3d 66fa 4dbe 4559 a53a f113 813e
00000060: 0234 aebe f5a9 b7be 73af a53d 17cb aabd
00000070: 110b 9cbe 1455 d9bc 410a 193d 7031 33be

attention.0.weight f4 [64, 96, 1]
-0.37924844 0.045979664 0.03994171 0.47110638 -0.4420597 0.027913217 0.20640823 -0.09680427
-0.41018385 0.9957644 -0.065297395 -0.06029264 -0.7665988 -0.39585826 1.4264855 0.07098375
0.43109247 -0.45103025 0.007056975 0.09609945 0.08532526 -0.5563185 0.04983308 -0.28639895
-0.06478786 0.24001095 0.07614637 -0.06721218 -0.016222693 0.006680149 -0.6811735 -0.9090701
-0.08604437 -0.6842406 0.54516065 -0.4022433 -0.088048615 0.5540143 0.8750973 0.004520321
-0.5773097 0.010617156 0.005710879 0.29113352 0.04823344 -0.0061157723 -0.5080994 0.08494924
1.1469362 -0.066308476 -0.1805081 0.031546343 -0.21611127 -0.88049257 0.07775536 0.72952044
0.021173052 0.045360193 0.07648703 0.0458938 -0.80719 0.065097965 -0.20101176 0.07812389
0.58536106 0.19817786 0.72200584 0.33368766 -0.2609386 1.437034 -0.27150962 0.87097543
-0.03546593 0.39400166 0.2423216 -0.94372934 0.2854406 0.11101411 -0.07950105 0.50173527
0.12960802 0.2263005 0.57927966 -0.19988146 -0.58759576 0.5701108 0.06198391 -0.0047006644
0.5674979 0.93819165 0.3798848 0.24379706 0.5807827 -0.9533359 0.7008588 -0.02877923
-2.240495 -0.04438292 -0.04532632 0.08806071 -0.21571878 0.38837808 -0.123330645 0.043787498
-0.15008563 -0.55842984 -0.013312431 -0.099585325 0.041883603 -1.1727842 0.6131413 0.075865045
0.5968273 -1.001313 -0.08578793 -0.088181175 -0.041930445 0.71353257 0.0054377303 0.8887028
-0.07477783 -0.6116088 0.004057707 -0.077474125 0.080389604 0.00863865 0.78103215 -0.58194715
0.009293531 -1.0056832 -0.24201791 -0.3093999 0.069862224 -0.15490684 0.6775699 0.033627022
-0.37597194 -0.02350236 0.08771926 0.29820684 -0.096108444 0.05196229 0.5263448 0.024065193
-0.29538247 0.016428273 0.020873565 0.5801636 -0.084714964 -0.9843645 0.07165552 0.5148496
0.025803447 -0.08816696 0.0010441266 -0.032257397 -0.6450518 -0.30950403 0.054581 0.06340091
1.021863 0.19058862 -0.21902399 0.0029738424 -0.120913394 -1.2298949 0.023058053 0.27900156
0.2117225 1.3355438 0.15251105 -1.0210916 -0.34174398 0.74198306 -1.9060963 0.2401362
0.9443205 -0.27201325 -0.5879743 -0.26660168 -0.99951756 0.9069088 0.68392634 0.21322682
-0.72761506 0.99830544 -0.13761537 -0.1756024 0.8524265 0.068959855 -0.49556524 0.14110948
0.6417712 0.027949473 -0.06471746 0.20320185 -0.24002458 0.21077363 0.12659054 0.089783244
0.18228848 -0.21324785 0.1329089 0.04670946 -0.09148823 0.9621815 -0.5570427 0.041729722
1.0270913 1.4194471 -0.07202298 0.06466965 0.033776216 -0.71100014 0.09197062 0.25109926
0.040067326 0.18756717 -0.0970775 -0.023355987 0.028440326 0.06927223 0.23437652 -0.6222994
0.049343083 0.85474616 -0.32807076 0.63060063 0.08955564 1.0386095 -0.692923 0.008755442
-0.3047541 0.12470662 -0.0727496 0.6491357 -0.045894932 -0.08184787 -0.9299517 -0.09411832
0.4388951 0.08301772 -0.11669869 0.59526247 -0.9723792 -0.6290128 -0.035401728 0.3103092
0.018429236 0.060516305 0.046452407 0.048192263 1.1525365 0.14095537 -0.6214549 0.03999311
00000000: da2c c2be 2c55 3c3d eb99 233d db34 f13e
00000010: a655 e2be 42aa e43c ae5c 533e 5141 c6bd
00000020: 9e03 d2be 6aea 7e3f a4ba 85bd 6af5 76bd
00000030: d23f 44bf efad cabe 1497 b63f ee5f 913d
00000040: 27b8 dc3e 70ed e6be 323e e73b cacf c43d
00000050: 03bf ae3d e46a 0ebf c61d 4c3d e2a2 92be
00000060: 7faf 84bd 6ec5 753e a1f2 9b3d 8aa6 89bd
00000070: 74e5 84bc 27e5 da3b 6361 2ebf d1b8 68bf
00000080: 0838 b0bd 642a 2fbf a68f 0b3f d5f2 cdbe
00000090: d552 b4bd e2d3 0d3f 6006 603f 331f 943b
000000a0: 92ca 13bf 94f3 2d3c 5322 bb3b 740f 953e
000000b0: 6d90 453d d166 c8bb cd12 02bf def9 ad3d
000000c0: cece 923f bdcc 87bd 1ed7 38be bd36 013d
000000d0: 464c 5dbe f667 61bf 343e 9f3d dac1 3a3f
000000e0: 1c73 ad3c 9ccb 393d 3ba5 9c3d 23fb 3b3d
000000f0: 01a4 4ebf 1552 853d 07d6 4dbe 6bff 9f3d
00000100: 39da 153f 23ef 4a3e 60d5 383f 1cd9 aa3e
00000110: bf99 85be bbf0 b73f 4f03 8bbe 3ff8 5e3f
00000120: b944 11bd 96ba c93e 2723 783e 3f98 71bf
00000130: 4525 923e 5e5b e33d 72d1 a2bd b971 003f
00000140: f7b7 043e 51bb 673e ac4b 143f baad 4cbe
00000150: ad6c 16bf c8f2 113f d7e2 7d3d 0808 9abb
00000160: 8b47 113f 542d 703f 4380 c23e f0a5 793e
00000170: 2dae 143f d20d 74bf 7b6b 333f 6bc2 ebbc
00000180: 4564 0fc0 ddca 35bd 17a8 39bd 2c59 b43d
00000190: 62e5 5cbe 7ed9 c63e c794 fcbd 855a 333d
000001a0: 0cb0 19be 42f5 0ebf 621c 5abc 64f3 cbbd
000001b0: 248e 2b3d cb1d 96bf d4f6 1c3f 225f 9b3d
000001c0: adc9 183f 062b 80bf 95b1 afbd 5598 b4bd
000001d0: 42bf 2bbd 12aa 363f fd2e b23b 0782 633f
000001e0: 1e25 99bd 6592 1cbf 83f6 843b c1aa 9ebd
000001f0: 4ea3 a43d 2089 0d3c b9f1 473f 7dfa 14bf
00000200: e543 183c 3aba 80bf 8bd3 77be aa69 9ebe
00000210: ed13 8f3d e69f 1ebe 3975 2d3f 7dbc 093d
00000220: 657f c0be 0588 c0bc 28a6 b33d 91ae 983e
00000230: 81d4 c4bd 69d6 543d 88be 063f 5e24 c53c
00000240: 5f3c 97be 9694 863c 0aff aa3c 9a85 143f
00000250: 0a7f adbd 50ff 7bbf 21c0 923d 2fcd 033f
00000260: c061 d33c e190 b4bd 13db 883a 5520 04bd
00000270: 1d22 25bf 5077 9ebe 5490 5f3d 56d8 813d
00000280: 68cc 823f aa29 433e d347 60be cce4 423b
00000290: 71a1 f7bd 326d 9dbf 3ee4 bc3c 4bd9 8e3e
000002a0: c8cd 583e 19f3 aa3f db2b 1c3e 21b3 82bf
000002b0: 11f9 aebe 9af2 3d3f f7fa f3bf 44e6 753e
000002c0: fdbe 713f 5245 8bbe 7c85 16bf 0480 88be
000002d0: 62e0 7fbf 2d2b 683f cc15 2f3f 2258 5a3e
000002e0: fb44 3abf f290 7f3f 0beb 0cbe 1ed1 33be
000002f0: a038 5a3f d33a 8d3d baba fdbe 017f 103e
00000300: 1e4b 243f 4bf6 e43c 968a 84bd 2514 503e
00000310: 01c9 75be 0bd5 573e f3a0 013e 47e0 b73d
00000320: d5a9 3a3e a55d 5abe 4519 083e 6b52 3f3d
00000330: 2e5e bbbd 8751 763f 5a9a 0ebf c9ec 2a3d
00000340: ba77 833f 71b0 b53f c980 93bd 8571 843d
00000350: ee58 0a3d 1b04 36bf 185b bc3d 1590 803e
00000360: a31d 243d 9c11 403e 91d0 c6bd 0e55 bfbc
00000370: b0fb e83c 99de 8d3d 6600 703e 034f 1fbf
00000380: f91b 4a3d a5d0 5a3f e4f8 a7be 0b6f 213f
00000390: f368 b73d 28f1 843f 6763 31bf fc72 0f3c
000003a0: bb08 9cbe 2f66 ff3d befd 94bd c22d 263f
000003b0: 53fc 3bbd db9f a7bd 5111 6ebf 1bc1 c0bd
000003c0: dcb6 e03e 3205 aa3d b9ff eebd 1f63 183f
000003d0: d8ed 78bf fc06 21bf 6701 11bd d9e0 9e3e
000003e0: e9f8 963c f2df 773d e144 3e3d 4065 453d
000003f0: 5186 933f 9b56 103e ab17 1fbf d1cf 233d

attention.0.bias f4 [64]
-0.4385121 -0.65693086 -1.0022227 -0.5259456 -0.71290684 0.26704335 0.12338107 -0.3570046
-0.5608204 0.28094035 -0.82415575 -0.2976457 -0.29918694 0.64787346 -0.14729059 0.5266376
-0.07737517 -0.6826185 -0.033671644 0.5733833 -0.83427066 -0.11857481 0.03929299 -0.9664943
-0.4775518 0.09296078 0.29697278 0.71744287 0.14291607 0.637373 -0.13351443 0.27966455
-0.23382895 -0.3754939 0.7273394 0.4991402 -0.030754194 -0.6864511 -0.6404158 -0.41712397
-0.5911945 0.22989176 0.47450936 0.5243596 0.17652608 0.21832126 0.4491435 1.3997102
-0.23563765 -0.17574458 -0.16997224 -1.3038408 0.13532217 -0.86288947 -0.9836761 -0.050275363
-1.2455939 -1.2201799 0.008339115 0.22074227 0.024476787 0.5091998 0.495936 0.30389
00000000: a884 e0be 9f2c 28bf d548 80bf 5fa4 06bf
00000010: 1081 36bf e8b9 883e 37af fc3d 4fc9 b6be
00000020: ed91 0fbf 6ad7 8f3e dffb 52bf 0465 98be
00000030: 082f 99be 09db 253f 58d3 16be b9d1 063f
00000040: e076 9ebd 16c0 2ebf 47eb 09bd 3fc9 123f
00000050: c392 55bf 5ad7 f2bd b0f1 203d 2c6c 77bf
00000060: ab81 f4be 3962 be3d d10c 983e 56aa 373f
00000070: 9758 123e e02a 233f 02b8 08be 3130 8f3e
00000080: db70 6fbe bd40 c0be ea32 3a3f 4e8f ff3e
00000090: 38f0 fbbc 42bb 2fbf 4af2 23bf 4691 d5be
000000a0: 8658 17bf bf68 6b3e e4f2 f23e 6e3c 063f
000000b0: 41c3 343e 9c8f 5f3e 23f6 e53e b429 b33f
000000c0: ff4a 71be 63f6 33be 340d 2ebe 41e4 a6bf
000000d0: e591 0a3e 53e6 5cbf 32d2 7bbf 8aed 4dbd
000000e0: 9f6f 9fbf db2e 9cbf c9a0 083c 430a 623e
000000f0: 8b83 c83c eb5a 023f 53eb fd3e 7897 9b3e

attention.2.weight f4 [64, 64, 1]
0.21078004 0.77590585 0.931069 1.1020505 0.19517642 -0.8328607 -0.6681023 0.8695779
-0.43333745 -0.43969643 1.4276499 -0.17542206 0.046748135 0.46159044 0.23956212 0.36992896
0.5026412 -0.877143 0.52639616 -0.18707499 0.26161307 0.06856235 0.15467122 -0.1975558
0.8381229 -0.38192937 0.13842832 1.1884401 -0.076725036 -0.07648238 -0.057238065 -0.29055104
0.7039833 -0.5535238 -0.540175 -0.30580226 -0.69567424 -0.03802732 0.9435136 -0.28002894
1.0792402 -1.656208 -0.05480792 0.116755724 0.0692982 1.0537996 0.26099375 -0.5105259
-0.12133071 0.44843993 -0.39703006 1.7566786 -0.6844431 0.5982621 0.061079472 0.18579745
0.45903748 -0.21724065 0.17129639 -0.6368526 -0.19497101 0.7705052 0.71002895 -0.5844188
0.10372929 -0.062287703 -0.023535958 -0.09317985 0.0011403958 0.10735904 -0.10775005 0.04581131
-0.07521499 0.09484027 -0.11515681 0.10821014 -0.067577705 -0.05171168 -0.11505486 -0.011028273
0.0082351575 0.10110116 -0.09705145 -0.050182804 -0.07787609 -0.048572574 0.036165975 0.10167572
0.055543777 0.016555455 -0.078443766 0.06531114 -0.07898321 -0.10367575 0.03963816 -0.057705007
-0.016864223 -0.06564086 -0.060969457 0.045208115 0.029472537 0.07591598 -0.009633572 0.014994
-0.10292883 0.015107933 -0.1295634 -0.10160051 0.06894577 0.01432696 -0.0785102 -0.048240043
-0.05502922 -0.021359827 0.039343428 -0.08343428 -0.06380284 0.068849355 -0.0025708866 0.09805584
0.05992311 -0.11112859 -0.0739699 0.10429509 -0.05083743 -0.018726379 0.06348713 0.041996945
0.09138153 0.055254105 -0.04882579 -0.034077384 0.10547947 -0.056472987 -0.011869248 -0.1463167
0.059704583 -0.05317867 0.026560353 0.09338153 -0.099549584 -0.04432373 -0.11618204 0.035563868
0.093185276 0.045846913 -0.088329904 0.003901139 -0.00490243 0.06365609 0.036391646 0.0010571589
-0.0993623 0.08526557 -0.049344014 -0.08409019 -0.09269404 0.031261723 0.091446295 0.02844823
0.0011060503 -0.002499875 0.034998067 -0.015840318 -0.0008614182 0.06898593 -0.12616956 -0.034820877
-0.07544564 0.015365543 0.07591088 -0.11091079 0.017108 0.045253377 0.005862037 -0.002430206
-0.027331673 0.0033436625 -0.024794923 -0.03333543 0.06233504 0.08463264 -0.064501315 -0.036211524
0.0037092562 -0.011817119 -0.015222151 0.07205823 0.008748116 -0.014856532 -0.115472496 -0.108412616
-0.6927788 0.07430057 -1.0526196 -0.71913856 -0.060821608 0.36159864 0.36769503 0.19797505
0.11603005 -0.41252697 0.31276256 -0.375202 0.381249 -0.04607884 -0.52705765 0.6553802
-0.018985704 -0.21639176 0.58487344 0.35329062 -1.0765568 0.41309088 0.382974 0.61922497
-1.7659825 0.66713566 -0.2569047 0.11463722 1.0352885 -0.10408264 0.08738747 -0.8987359
0.058694374 0.24660008 -0.27486604 -0.3001813 0.13691694 -0.5716124 -0.26873022 -0.8296897
-1.1675351 0.52158237 -0.2696312 -0.14597331 -0.47460172 -0.45788765 0.24893478 1.2344191
0.4077772 -0.12865266 0.0081735235 -0.54779804 0.9201731 0.023229526 -0.018816607 -0.31543097
0.0090793 0.042647574 0.58999336 0.9974848 -0.27231514 0.94017524 0.5019035 0.39810154
00000000: b9d6 573e c4a1 463f 8a5a 6e3f fe0f 8d3f
00000010: 54dc 473e 5c36 55bf c108 2bbf a89c 5e3f
00000020: 68de ddbe e41f e1be 3bbd b63f d7a1 33be
00000030: f97a 3f3d 9555 ec3e c64f 753e 5467 bd3e
00000040: 18ad 003f 728c 60bf e6c1 063f 9690 3fbe
00000050: 26f2 853e 6b6a 8c3d 2262 1e3e 114c 4abe
00000060: 398f 563f 3f8c c3be 27c0 0d3e ce1e 983f
00000070: 0422 9dbd cba2 9cbd 7672 6abd 1bc3 94be
00000080: 4038 343f bcb3 0dbf e948 0abf 1d92 9cbe
00000090: b517 32bf 89c2 1bbd 1b8a 713f f45f 8fbe
000000a0: 8b24 8a3f a0fe d3bf 457e 60bd a01d ef3d
000000b0: 37ec 8d3d e8e2 863f f9a0 853e d3b1 02bf
000000c0: 3c7c f8bd eb99 e53e 8647 cbbe d8da e03f
000000d0: aa37 2fbf b427 193f 782e 7a3d b041 3e3e
000000e0: f606 eb3e 5574 5ebe 5268 2f3e c608 23bf
000000f0: 7ba6 47be d43f 453f 75c4 353f 789c 15bf
00000100: 0670 d43d 6421 7fbd 7bce c0bc 14d5 bebd
00000110: 5579 953a 0edf db3d 0fac dcbd a4a4 3b3d
00000120: 510a 9abd 9e3b c23d 55d7 ebbd 479d dd3d
00000130: 2e66 8abd a0cf 53bd e2a1 ebbd eeaf 34bc
00000140: c1ec 063c 200e cf3d e9c2 c6bd 7c8c 4dbd
00000150: 807d 9fbd 09f4 46bd c622 143d 5c3b d03d
00000160: df81 633d 4e9f 873c 20a7 a0bd d9c1 853d
00000170: f3c1 a1bd f453 d4bd a05b 223d 165c 6cbd
00000180: d726 8abc b76e 86bd 1cbb 79bd 252c 393d
00000190: 6470 f13c d679 9b3d 21d6 1dbc 65a9 753c
000001a0: 5acc d2bd 4487 773c 45ac 04be ee13 d0bd
000001b0: 7133 8d3d a0bb 6a3c f5c9 a0bd 5a97 45bd
000001c0: 5266 61bd cefa aebc 9326 213d 97df aabd
000001d0: 10ab 82bd e400 8d3d 527c 28bb 80d1 c83d
000001e0: ef71 753d 6397 e3bd 887d 97bd aa98 d53d
000001f0: e93a 50bd 1068 99bc 8a05 823d fd04 2c3d
00000200: 3d26 bb3d 2152 623d 8dfd 47bd ba94 0bbd
00000210: 9f05 d83d 3850 67bd 3c77 42bc 0cd4 15be
00000220: cb8c 743d e1d1 59bd 1995 d93c d13e bf3d
00000230: a7e0 cbbd cd8c 35bd d9f0 edbd 6bab 113d
00000240: ecd7 be3d f9c9 3b3d 4fe6 b4bd 40aa 7f3b
00000250: 90a4 a0bb 205e 823d 680f 153d 5e90 8a3a
00000260: 767e cbbd b79f ae3d f31c 4abd 7a37 acbd
00000270: 5fd6 bdbd 4b0c 003d 3248 bb3d 430c e93c
00000280: e4f8 903a f1d4 23bb 225a 0f3d 8ec3 81bc
00000290: ccd0 61ba 7f48 8d3d 9832 01be 56a0 0ebd
000002a0: 3e83 9abd c2bf 7b3c 2a77 9b3d 3225 e3bd
000002b0: 1426 8c3c 9b5b 393d 5516 c03b 1744 1fbb
000002c0: ace6 dfbc 5921 5b3b b91e cbbc bb8a 08bd
000002d0: 0753 7f3d e153 ad3d 4419 84bd 8952 14bd
000002e0: fe16 733b 979c 41bc 5466 79bc 4493 933d
000002f0: 4254 0f3c d068 73bc d87c ecbd 6f07 debd
00000300: f459 31bf e62a 983d 3dbc 86bf 7719 38bf
00000310: 1420 79bd 7523 b93e 8642 bc3e f9b9 4a3e
00000320: 2aa1 ed3d bc36 d3be 6a22 a03e 7a1a c0be
00000330: 1233 c33e 2abd 3cbd 40ed 06bf ffc6 273f
00000340: e887 9bbc cd95 5dbe 44ba 153f 82e2 b43e
00000350: 9dcc 89bf a680 d33e 2b15 c43e 8785 1e3f
00000360: b70b e2bf 67c9 2a3f 0389 83be ebc6 ea3d
00000370: 5584 843f 4729 d5bd 34f8 b23d 8e13 66bf
00000380: 8369 703d bb84 7c3e 3ebb 8cbe 5db1 99be
00000390: f433 0c3e 3155 12bf 0297 89be 8b66 54bf
000003a0: ca71 95bf 6c86 053f 1a0d 8abe 077a 15be
000003b0: fffe f2be 4070 eabe c2e8 7e3e 7201 9e3f
000003c0: 2cc8 d03e 86bd 03be 3eea 053c 7e3c 0cbf
000003d0: 7790 6b3f d94b be3c 4925 9abc 2b80 a1be
000003e0: 58c1 143c 39af 2e3d ce09 173f 2a5b 7f3f
000003f0: e46c 8bbe 53af 703f bf7c 003f f7d3 cb3e

attention.2.bias f4 [64]
-0.6882651 0.06022183 -0.10384609 0.6617973 0.9561966 0.092311636 0.5940817 -0.082525805
-0.61150634 -0.3093921 -0.086080454 -0.06994202 -0.0258406 -0.09481814 0.8667436 -0.11950681
-0.024200732 -0.71313375 0.09162028 0.072081074 0.042363442 0.38850394 0.08670077 0.3484097
0.07727179 -0.31757578 -0.04352925 0.04779975 -0.0638485 0.111984126 0.2390117 0.3351048
-0.10431261 -1.0173174 0.48955914 -1.0719817 0.053500265 -0.6017906 0.13946302 0.07245864
-0.29915127 -0.11648677 0.051889744 -0.17846051 0.04121688 0.08635546 0.96170753 -0.07555668
0.14622915 -0.047117885 -0.074275486 -0.82318664 0.04582181 0.19760182 0.099680066 0.6174381
-0.0125855375 0.080049194 -0.06452331 0.060598806 -1.6943103 0.2351425 0.6807532 -0.10338681
00000000: 2432 30bf 2aab 763d 42ad d4bd 8c6b 293f
00000010: 4dc9 743f e20d bd3d bd15 183f 4a03 a9bd
00000020: ae8b 1cbf a468 9ebe f34a b0bd c33d 8fbd
00000030: aaaf d3bc 0330 c2bd e9e2 5d3f fdbf f4bd
00000040: 9d40 c6bc ef8f 36bf 6aa3 bb3d 3e9f 933d
00000050: 4a85 2d3d fde9 c63e 2c90 b13d c262 b23e
00000060: ac40 9e3d 4b99 a2be ba4b 32bd acc9 433d
00000070: 01c3 82bd ef57 e53d 7cbf 743e db92 ab3e
00000080: daa1 d5bd 7537 82bf 7fa7 fa3e b236 89bf
00000090: 1823 5b3d f30e 1abf 65cf 0e3e 3265 943d
000000a0: 5b2a 99be 9e90 eebd 578a 543d 5abe 36be
000000b0: 08d3 283d 22db b03d 7732 763f 76bd 9abd
000000c0: 18bd 153e affe 40bd bf1d 98bd 5cbc 52bf
000000d0: a6af 3b3d 2258 4a3e 1025 cc3d 6c10 1e3f
000000e0: 9233 4ebc d5f0 a33d cc24 84bd 7436 783d
000000f0: 29df d8bf 32c9 703e d745 2e3f 77bc d3bd
